spkrec-xvect/cmu_us_awb_arctic-wav-arctic_b0433.npy (npy, 2176 bytes, 1 tensors)

array f4 [512]
00000000: 7bf0 a4bd 5cb7 86bb 85a0 ba3c 0079 283d
00000010: 2045 613c 921b 37bd 74c4 7bbd c507 be3c
00000020: c49c 053d dc05 8b3c a47e 9bbd cb9e c2bd
00000030: 1153 673d 600b 2b3d d83c 8d3c 7661 473d
00000040: 3f20 903c f949 123d 98a8 0e3c a393 723c
00000050: a6d1 fd3c 56b5 da3c aa71 39bc 7574 40bd
00000060: 374e 3fbd b2f2 d6bb c40a 83bd 9b89 07bd
00000070: 4687 413d d6d0 223d e3c3 71bb 6733 563d
00000080: 00e3 e93c ad34 8e3c ae3b 023d 301a 7abd
00000090: e0f5 a43c 598c 653d 6e04 263c ed99 48bd
000000a0: 27c7 e53b 9e0d 8a3b fd7b 3c3d ff68 283d
000000b0: 1cb0 8a3c af32 eebd 8972 88bc cf76 423c
000000c0: 00ed bcbd d4c3 5f3d 9e01 7a3c 6b33 ed3c
000000d0: db0c 2c3c 2da9 293d 9baa dbbd 2af4 11bd
000000e0: 4591 90bc 5aa3 193d fc38 223d 697a 553c
000000f0: efd2 503c e49b f9bb 1991 70bc 6f26 55bb
00000100: b72f 513d 179f 043d f397 193d 40a0 fcbc
00000110: afaa 74bd 2dc0 8bbd 639f 903c a6a0 1f3c
00000120: 2f50 913b 4e1b bb3b a4ed 0e3c 4bb3 0d3d
00000130: 4aad 013d 16be 023b de62 9abd 2398 aabd
00000140: 8488 95bd 27e3 57bd ff4a 6fbd a145 83bd
00000150: 1bfb ffbc d438 a0bd 8191 6fbd b758 8e3c
00000160: b002 f13c d6e8 eebc db5f f13c 6646 7fbd
00000170: 027a 833c 855b 9cbd 6fe4 543d 2b45 09bd
00000180: 26ec 303d 8087 063c 7c2e d5bd 674d 96bd
00000190: d3e1 f13c 3b2e 86bd 9096 b0bd 9116 9a3c
000001a0: fa53 7b3d d8a1 f63c d132 653d 5eab 093d
000001b0: 2b14 b73c f3a3 c93c e026 85bd d658 3fbc
000001c0: 5516 9d3d 65cf 3a3c 0ce2 123d a00c 8d3d
000001d0: 4ecc 64bd 1985 253d 1684 81bd 5e9d 363d
000001e0: 84f5 0f3d 1bb2 80bd 59a0 9c3b 11e9 653d
000001f0: ef57 60bd 73e2 4e3d cb29 84bd af43 373d
00000200: 3efc cc3c 459a 2d3d f0d6 2dbd 05b0 2a3d
00000210: 80e9 193d 0fb7 093d 4472 ec3c 80ab 97bd
00000220: 6d52 6cbd b1e5 2d3d 2d63 98bd 91fb 3cbd
00000230: 2ad7 da3c e840 723b 9b5f 56bd 3292 8f3d
00000240: a30d a4bd dba3 e03c bf57 b33c 8140 94bc
00000250: d877 903b c4fc d9bd 5510 c33c f7e5 47bd
00000260: eec6 99bd 4ad6 8e3c 0f75 5a3d a8c5 6f3c
00000270: 9739 343d 6188 bdbd 23a9 abbd 20ac 4e3c
00000280: fa0d 9f3c ef61 bc3c b85c a13c 193b e63c
00000290: fa6c 26bc 20a6 993b 1a4f d13c fe8a b73c
000002a0: 497f abbb 1621 173d c5cd 643b 3623 81bd
000002b0: 98b3 533c 6126 8abd 91f0 ffbc 0dad efbb
000002c0: 1668 5cbd 75f0 af3c 035c 103d 09b6 95bd
000002d0: 5578 d83c f34b 90bd e54f ad3c a136 1b3c
000002e0: 01c1 babd 08e3 36bc bca3 e03c 10d6 4d3d
000002f0: d754 b2bd 20fb 56bd 7c2d 133d 174f f03c
00000300: bd47 90bd 6283 403c 8202 093c ff28 dd3c
00000310: 658b 063d 6e74 e83c 9398 773d 2c13 a9bc
00000320: 70c5 403d f112 183d a843 3abd a575 2d3c
00000330: f502 ff3b 1d63 4a3c 57a5 4c3d b7be b33c
00000340: 60c3 d43c 9673 f6bb 29bc 2b3b e215 7cbd
00000350: 1e75 54bd 9bcc 073d 7cc8 93bd f6e2 273d
00000360: e960 d23c 70f8 46bd eb0c 4e3d 7572 c13c
00000370: 0ddd 80bd 95e8 d03c 85d9 8dbd b366 a1bd
00000380: 1805 5ebd 75df 2f3d a2e4 823d f0d7 843d
00000390: 6d25 743d ec75 043d 2290 433b bce2 193d
000003a0: f3f0 093d 1f2a 6cbc cfbb 313d 1399 833b
000003b0: 6fc3 5b3d 6b2b 523c e99b 5f3b 24f9 803d
000003c0: 9a24 6abd be12 ce3c ed0c 9fbd 00f7 5f3c
000003d0: 975e 89bd 5040 313c 750a 1a3d 54cc 6c3c
000003e0: 253e 083d 0dd0 c63c 4602 5c3d 4836 de3c
000003f0: b6db f13b 1e5f 4ebd 3d48 a73c 1cd5 493d
-0.080536805 -0.0041112136 0.02278162 0.04113102 0.013749391 -0.044704027 -0.06146665 0.023197064
0.032620206 0.016970567 -0.07592514 -0.095029436 0.056475703 0.041758895 0.017240927 0.04867693
0.017593501 0.035715077 0.008707188 0.014805707 0.030983757 0.026697796 -0.0113186035 -0.046986062
-0.04670545 -0.0065596933 -0.06398538 -0.033090215 0.047248147 0.039749943 -0.003689044 0.052295115
0.028550625 0.017359102 0.031795196 -0.06106013 0.020136774 0.05604205 0.010132892 -0.04897492
0.007012266 0.004213049 0.046016682 0.041115757 0.016929679 -0.11630761 -0.016656177 0.0118691465
-0.09224892 0.054630116 0.015259175 0.028955182 0.010501112 0.041421104 -0.107259 -0.035633244
-0.017647395 0.0375093 0.039605126 0.013029673 0.012745603 -0.0076174606 -0.0146830315 -0.003252413
0.051070895 0.032378282 0.037498426 -0.030838132 -0.05973309 -0.06823764 0.017654127 0.009742891
0.0044346075 0.005710042 0.00872365 0.034594815 0.031659402 0.0019949726 -0.07538389 -0.08329799
-0.07301429 -0.052706864 -0.05842113 -0.06409765 -0.031247666 -0.07823339 -0.058488373 0.017376287
0.029420227 -0.02916376 0.029464653 -0.062322997 0.016049389 -0.076346435 0.051975664 -0.03351323
0.04319396 0.008211017 -0.10409257 -0.07338982 0.029526627 -0.065517865 -0.086224675 0.018809589
0.061359383 0.03010647 0.055956665 0.033610694 0.022348484 0.02461431 -0.065015554 -0.011678895
0.07670275 0.011401986 0.035860106 0.06887174 -0.055858903 0.040410135 -0.063240215 0.04458367
0.03514625 -0.06283971 0.004779857 0.056130473 -0.05477136 0.050508928 -0.06453284 0.044742282
0.025022622 0.04238345 -0.04244131 0.04167177 0.0375762 0.033621844 0.02886308 -0.07405758
-0.057695795 0.04245538 -0.07440791 -0.04613835 0.026713926 0.0036964957 -0.05233727 0.070103064
-0.080104135 0.027421882 0.021892427 -0.018097164 0.0044088177 -0.10643914 0.023811499 -0.048803296
-0.07508646 0.017436165 0.053334292 0.014634527 0.044000234 -0.09254528 -0.0838187 0.01261428
0.019415844 0.022995917 0.019697532 0.028104352 -0.010157818 0.004688993 0.025550414 0.022405144
-0.0052336794 0.036896788 0.0034912687 -0.06305544 0.012921236 -0.067456014 -0.03124264 -0.0073143304
-0.0538102 0.021476964 0.035244 -0.07310111 0.026424566 -0.07045736 0.02115626 0.009473474
-0.09118844 -0.011162527 0.027421825 0.050252974 -0.08707588 -0.052485585 0.03593205 0.029334588
-0.07044933 0.011750074 0.008362414 0.026997088 0.03284778 0.02837583 0.06044824 -0.020639025
0.04706329 0.03712744 -0.04547468 0.010587131 0.007782335 0.012352732 0.049962368 0.021941526
0.025972068 -0.007521103 0.0026204681 -0.061544307 -0.051869504 0.03315411 -0.07215974 0.04098793
0.025680976 -0.048576772 0.05030529 0.023614148 -0.06292162 0.025501529 -0.06926254 -0.078809164
-0.054204077 0.042937715 0.063912645 0.06486499 0.059606005 0.03233902 0.0029840549 0.037569746
0.033677053 -0.014414339 0.043392 0.0040160506 0.053653177 0.012827734 0.003412003 0.0629752
-0.057163812 0.025155421 -0.07766137 0.013669729 -0.06707495 0.010818556 0.03760763 0.0144530125
0.03326239 0.024269128 0.053713106 0.027125493 0.007380928 -0.05038368 0.020420188 0.049275503
