spkrec-xvect/cmu_us_clb_arctic-wav-arctic_b0209.npy (npy, 2176 bytes, 1 tensors)

array f4 [512]
000000 50 b5 ae bd ed 08 05 bd 02 81 2a 3d da 99 39 3d
       -0.08530676 -0.032479215 0.041626938 0.04531274
000010 9d e6 95 bc bd 74 37 bd 24 11 69 bd b9 65 67 bd
       -0.018298442 -0.044789065 -0.056901112 -0.056493495
000020 c9 92 9c 3c a2 b7 97 3c 13 06 91 bd 9d 2a 75 bd
       0.019112961 0.01852018 -0.07081237 -0.059855092
000030 6b 59 60 3d 35 6b e8 3c e1 e9 8d 3c 36 29 8b 3d
       0.054772776 0.028371433 0.017323436 0.0679497
000040 ed 9e 2b bc 66 bd b2 3c 86 2c 08 3c 0a b7 aa 3b
       -0.010474903 0.021818828 0.008311396 0.0052098082
000050 24 b7 07 3d ba a7 0c 3d 6b ed 50 bc 31 5a 5c bd
       0.03313364 0.034339644 -0.012751917 -0.05379695
000060 83 db 2a bd 77 a2 26 bc 73 ec 7c bd ca 5c 38 3c
       -0.04171325 -0.010170571 -0.061748933 0.011252591
000070 69 9d 73 3d 9b ee 79 3c 70 91 50 bb 1a a0 38 3d
       0.05947629 0.015254642 -0.0031824969 0.04507456
000080 16 bb 06 3d 0b ce 14 bd 3c 00 c1 3c a5 de a0 bd
       0.032893263 -0.03632931 0.023559682 -0.07854966
000090 af 79 40 3d e8 ab 64 3d d0 c0 3a bd 46 34 97 bd
       0.046991047 0.055828005 -0.045594037 -0.07383017
0000a0 17 12 74 3c 40 48 f1 bc cf 6c b2 3c 35 82 2f 3d
       0.014896891 -0.029453397 0.0217804 0.042848784
0000b0 67 7a d2 3c 8b 5a d0 bd 72 b0 9f bc 63 40 4a 3c
       0.025693132 -0.1017352 -0.019493315 0.012344453
0000c0 12 0e 95 bd 08 d4 29 3d ec fd b0 3b 52 f5 f9 3c
       -0.07278074 0.041461974 0.0054013636 0.030512486
0000d0 d7 5e 39 3d b2 f9 02 3d 04 00 bf bd 75 95 81 bb
       0.045256462 0.03197641 -0.09326175 -0.0039545842
0000e0 22 9d 20 bc 3e f0 7c 3c c1 c0 9c 3c fe 51 40 3c
       -0.009803088 0.015438138 0.019134881 0.011738298
0000f0 54 02 48 3c 1f ca 16 bc 7f 30 78 bc c7 34 82 3c
       0.012207586 -0.009203463 -0.015148281 0.015894307
000100 cf 19 ff 3b db b5 04 3d e2 06 00 bc cc cd 13 bd
       0.007785059 0.032399993 -0.007814141 -0.036084935
000110 36 e0 8c bd a5 e1 9d bd ff 9d b4 3c 98 43 17 3c
       -0.06878702 -0.07709054 0.022047995 0.009232424
000120 77 12 89 3c 86 90 25 3c 4c 34 1d 3d 32 a6 02 3d
       0.016732438 0.010105258 0.038379952 0.031896777
000130 4d 99 08 3d b2 6f f2 3b 06 06 95 bd 27 ea b4 bd
       0.033349324 0.007398569 -0.072765395 -0.088337235
000140 eb 2f a5 bd 83 32 84 bd 36 35 75 bd 6d 8c 8d bd
       -0.0806578 -0.06454947 -0.0598652 -0.0691155
000150 b8 c2 0f bd d2 48 74 bd 0b 32 8a bd c3 4c 76 3d
       -0.035097808 -0.05963976 -0.06747826 0.0601318
000160 2d ec 22 3b 17 40 72 3d a6 08 f2 3c 3c b3 b4 bd
       0.002486001 0.059143152 0.02954514 -0.08823249
000170 6b 3f 7a 3b 70 24 75 bd e8 c1 16 3d 11 01 07 bc
       0.0038184773 -0.059849203 0.036806017 -0.00824
000180 b8 f3 ef 3c 54 e4 66 3d d7 28 a0 bd d7 cc 8c bd
       0.029291019 0.056370094 -0.078202896 -0.068750076
000190 d8 60 bf 3c af 25 42 bd b8 aa 8e bd 09 3d a6 3c
       0.023361608 -0.04739922 -0.06966156 0.020292776
0001a0 ba 03 3d 3d c6 00 0f bd c5 71 30 3d e4 b6 46 3d
       0.046146132 -0.034912847 0.04307725 0.04851426
0001b0 e0 d8 26 3d 4f ba 95 3c 03 69 c7 bd f3 99 d1 3c
       0.040734172 0.018277315 -0.09736826 0.025586104
0001c0 36 a2 91 3d 77 5a 9f 3a 00 72 8f 3c f4 9f 4c 3d
       0.071110174 0.0012157698 0.017510414 0.04995723
0001d0 7b d3 ac bd 9d 70 75 3b 87 e0 3d bd 0e 9f cc 3a
       -0.08438774 0.0037451156 -0.046356704 0.0015611367
0001e0 27 37 02 3d 75 7e 5e bd b4 fa 4d 3c 4b de 56 3d
       0.03179088 -0.054319818 0.012571979 0.05245809
0001f0 f1 b9 89 bd b9 a7 52 3d 49 83 9b bd b1 ba dd 3c
       -0.06724919 0.051429484 -0.075934 0.02706656
000200 29 f5 c3 3c a0 fc 17 3d eb cd ab ba 57 35 90 3c
       0.023920612 0.037106156 -0.0013107633 0.01760356
000210 72 e8 01 3d 9e 13 f5 3c 06 d2 92 3c 58 bd 90 bd
       0.031715818 0.02991658 0.017922413 -0.070673645
000220 80 2e 82 bd 41 28 8e 3c 71 83 98 bd ff 1b 31 bd
       -0.063565254 0.017353179 -0.074469455 -0.04323959
000230 b0 2c c7 3c 88 69 a4 3b e6 bc 1a bd ae c7 6b 3d
       0.0243133 0.005017463 -0.037777804 0.057563476
000240 68 80 76 bd 6f e7 4e 3c d1 0d f7 bb 7b 01 29 bd
       -0.06018105 0.01262842 -0.007539489 -0.041261178
000250 3e 17 12 3d 3a 67 b8 bd 11 b8 c0 3c 8b b1 35 bd
       0.035666697 -0.09004064 0.02352527 -0.04435877
000260 bd 80 ac bd 0e 41 46 3c 31 c9 80 bb 1f 94 35 3d
       -0.084229924 0.012100471 -0.003930234 0.044330712
000270 01 3e 49 3b 37 1e 91 bd 4b 50 c4 bd b3 60 04 3d
       0.0030707123 -0.07085841 -0.09585627 0.032318782
000280 9f 3e 35 3d 21 cd 51 3b 24 8f 2d 3d 92 ce 00 bd
       0.044249173 0.0032013135 0.042372838 -0.031447
000290 12 89 d3 bb 97 8c 42 3c 97 b6 1d 3d 6b bc 40 3d
       -0.006455549 0.01187434 0.03850421 0.04705469
0002a0 f9 b9 08 3c 79 84 18 3d b7 f5 b4 3c 68 be ab bd
       0.008345121 0.03723571 0.022089822 -0.083859265
0002b0 c1 23 04 3d 54 87 77 bd d1 32 2e bc 0b 99 49 3c
       0.03226066 -0.060431793 -0.010632233 0.012304555
0002c0 75 7d 26 bd 5d 79 2b 3d ab 00 07 3c 71 46 b3 bd
       -0.04064699 0.041863788 0.008239905 -0.0875367
0002d0 fd fc 1f 3d b1 2e 3a bd b0 81 14 bc b3 2e 57 3d
       0.039059628 -0.045454685 -0.009064123 0.05253477
0002e0 72 28 90 bd 1a 15 26 bc 86 8a 4d 3d 5f 02 2c 3d
       -0.07038964 -0.010136867 0.050180934 0.04199445
0002f0 da a8 7d bd e5 68 4f bd 6e af c5 bb a8 c7 63 3d
       -0.061928608 -0.050637145 -0.0060328757 0.05561033
000300 96 47 35 bd b8 ae 7f 3c 46 bd 57 3c 65 9d e0 3b
       -0.044257723 0.015605621 0.013167685 0.0068547004
000310 34 e4 2b 3d d2 46 86 3c ff bd 2c 3d 7d df ee bc
       0.04196568 0.016391192 0.042173382 -0.029159302
000320 95 6c 10 3d 2f 5d d9 3b 9d e9 6f bd d0 d8 18 3c
       0.035259802 0.006633423 -0.0585724 0.009329036
000330 09 50 57 3c 3c 3c 24 3c 83 fd 1d 3d 2d 49 9e bc
       0.01314164 0.010024127 0.038571846 -0.019322002
000340 90 54 6f 3c 7c 6c 39 bd ca 32 4f 3b 65 db 30 bd
       0.014607564 -0.045269474 0.0031615966 -0.04317798
000350 2f b6 27 bd a2 87 1c 3d 88 32 41 bd f4 06 f1 3c
       -0.04094523 0.038215287 -0.04716733 0.02942226
000360 c3 5b e7 3c 58 1d ba bd 7b 5a e6 3c 6b f9 02 3d
       0.028241998 -0.09087628 0.028119316 0.031976145
000370 8b ad 90 bd 1e 4c b8 3c 67 ef a5 bd 85 6e 3a bd
       -0.07064351 0.022497233 -0.08102303 -0.045515556
000380 37 05 22 3d 27 91 58 3d fa 94 7e 3d d4 e9 c5 3d
       0.039555755 0.052872803 0.062153794 0.0966374
000390 4e eb 7a 3d ad 77 1f 3d e4 30 be bc d9 41 3b 3d
       0.06125956 0.03893249 -0.023216672 0.045717094
0003a0 f3 40 21 3d d8 70 41 bd 95 c5 d8 3b bd 44 03 bd
       0.03936858 -0.047226757 0.0066153505 -0.032047976
0003b0 b1 cb 40 3d 6b 4f 0a 3d d0 b7 4a ba 25 bd 59 3d
       0.047069255 0.033767145 -0.00077330787 0.053158898
0003c0 b0 b2 83 bd 04 b6 d7 3c c6 c6 af bd cb 3e d5 3c
       -0.06430566 0.026331909 -0.08582835 0.026030919
0003d0 fd 9a 43 bd b6 95 c4 3c 99 08 b9 3c b0 95 2e 3d
       -0.04775523 0.023997169 0.022587107 0.042623222
0003e0 48 1d 1c 3c 59 21 63 3d 84 fe f2 3c 56 2b 06 3d
       0.009528466 0.055451725 0.029662378 0.032756172
0003f0 8a 9a f8 3b 80 7c 03 bd b5 fa bd 3c 7a 50 26 3d
       0.007586782 -0.032101154 0.023190835 0.040604092
