spkrec-xvect/cmu_us_rms_arctic-wav-arctic_b0459.npy (npy, 2176 bytes, 1 tensors)

array f4 [512]
000000 85 88 83 bd 10 19 d7 3c d6 f0 e0 3c d1 b7 1b 3d
       -0.064225234 0.026257068 0.02745859 0.038017098
000010 e2 40 82 bb 59 52 ce bc 82 37 6f bd ad 14 26 3d
       -0.00397502 -0.02518575 -0.058402546 0.04054706
000020 a0 d1 48 3c 91 3b 94 3c e3 87 8b bd 72 4c c8 bd
       0.01225701 0.01809481 -0.06813028 -0.09780206
000030 07 b7 7e 3d 8f 7b c0 3c 54 b5 86 3c 2e 33 33 3d
       0.062186267 0.023496417 0.016443886 0.04374998
000040 51 2f 70 3c 07 4f fb 3c 9b 31 29 3c d5 cb 76 3b
       0.014659719 0.030677332 0.010326768 0.0037658114
000050 88 8e 1a 3d 34 2a b6 3c 1e fd 81 bc f2 9c 16 bd
       0.037733585 0.02223692 -0.015867766 -0.03677077
000060 bc 7e 4e bd 49 b1 ea bb c6 34 50 bd a1 99 2f bd
       -0.050413832 -0.0071622473 -0.05083158 -0.04287112
000070 90 49 66 3d 79 b3 d7 3c c0 54 5e bb 1b 15 3b 3d
       0.0562225 0.026330696 -0.0033925027 0.045674425
000080 e3 09 6d 3c e3 e3 0d bc da af 12 3d 6f b9 98 bd
       0.014467689 -0.008660289 0.035812236 -0.07457244
000090 47 3d 4e 3d 25 b6 87 3d 21 be 5e bc 9e 50 8d bd
       0.050351407 0.06626538 -0.013595135 -0.06900142
0000a0 5a e2 72 3c 97 e2 07 3b 4f 1d 41 3d af a6 7e 3d
       0.014824474 0.0020734423 0.04714709 0.06217068
0000b0 f0 1d c0 3c e6 74 f1 bd da 36 96 bc 1d 68 71 3c
       0.023451775 -0.11789875 -0.018336702 0.014734295
0000c0 1e 78 9b bd 33 31 34 3d 58 8f 81 ba ca 33 01 3d
       -0.0759127 0.043992233 -0.0009884639 0.03154353
0000d0 f2 b1 4f 3c 53 e9 0a 3d 37 5c dd bd 55 b5 16 bd
       0.012676703 0.03391392 -0.10808604 -0.036794025
0000e0 71 f1 ca bc 46 ca ed 3c 0b 16 b2 3c 2a 84 11 3b
       -0.024773331 0.029027116 0.021739027 0.002220402
0000f0 55 a7 d5 3b e4 68 03 bc 0b b2 65 bc 30 a3 c9 3c
       0.0065201917 -0.008020613 -0.0140194995 0.024613947
000100 8c a8 e0 3c 69 62 16 3d d8 08 1b 3d 20 fd 0d bd
       0.02742412 0.036714945 0.03785023 -0.034665227
000110 90 8f 79 bd dd c3 90 bd 3d 8d ae 3c e4 ec 46 3c
       -0.060927927 -0.07068608 0.021307582 0.01214144
000120 41 6d 18 3c f3 70 21 3c 8e 54 16 3c 09 a8 1f 3c
       0.009303392 0.009853589 0.009175433 0.009744653
000130 1c 7a a7 3c b2 6f 00 3d 0c 0c 5b bd 8f ec c9 bd
       0.020443968 0.03135652 -0.053478286 -0.09859573
000140 4a 43 75 bd af e3 4c bd c0 11 84 bd f2 2b ab bd
       -0.059878625 -0.050021823 -0.06448698 -0.08357991
000150 4b 2f 0b bd b8 85 90 bd 73 1f 40 bd 4e 11 2b 3d
       -0.03398065 -0.07056755 -0.046904992 0.04176455
000160 2b ca ed 3c 7b 8e f3 bc e3 c9 02 3d fc 4c c0 bd
       0.029027065 -0.029731026 0.031930815 -0.093896836
000170 44 e5 06 3c 3f 1e a1 bd 0f 6d 0e 3d 61 77 61 3c
       0.008233372 -0.07867097 0.034771975 0.013761372
000180 f1 6d 16 3d 3c e0 0e 3d bb 1a 34 bd 35 9f 85 bd
       0.036725942 0.034881815 -0.043970805 -0.06524507
000190 0c 81 74 3c 7d 9f 94 bd 76 6b b2 bd 61 2a 3c 3d
       0.014923345 -0.072569825 -0.08711903 0.045938853
0001a0 5d 53 8e 3d 57 dc 35 3d b4 ec 58 3d 4a 96 46 3d
       0.06949494 0.044399586 0.052960113 0.04848317
0001b0 b1 36 31 3d 5f 5e fd 3c 32 98 be bd 3b bf 8b bc
       0.04326505 0.030928789 -0.09306373 -0.01705896
0001c0 fa ad ba 3d 03 45 64 bb b8 9d d6 3c b9 c0 6b 3d
       0.09115215 -0.0034831173 0.026198253 0.05755684
0001d0 86 21 8d bd d9 78 be 3c e9 37 50 bd 50 66 db 3c
       -0.0689116 0.023250984 -0.05083457 0.026782185
0001e0 86 4d 89 3c 4e 2c 65 bd ee 69 c0 3c a6 c5 58 3d
       0.016760599 -0.055950455 0.023488011 0.052922867
0001f0 b7 69 95 bd a6 66 67 3d 8e fd b4 bd 34 58 28 3d
       -0.07295554 0.056494378 -0.08837424 0.041099742
000200 21 77 42 3d 11 b5 29 3d 77 d4 a6 bb ec 6b bf 3c
       0.04747689 0.041432444 -0.0050912458 0.02336689
000210 e6 51 5d 3d 4a 5a 2a 3d 04 49 48 3c 4e 73 69 bd
       0.054033183 0.041590013 0.0122244395 -0.05699473
000220 61 d5 73 bd e7 45 8e bc 6b 59 92 bd c8 08 d0 bb
       -0.059529666 -0.017367316 -0.071459614 -0.006348703
000230 4f 20 65 3c a0 72 83 3b b1 da 93 bc f5 5a 91 3d
       0.013984754 0.004011467 -0.018048616 0.07097427
000240 aa d8 8f bd 18 89 2c 3d 0d 0e cf bc 23 6e b5 bc
       -0.07023747 0.04212293 -0.025275255 -0.022147244
000250 63 41 04 3d fc af e1 bd 9f 14 47 3d 7f 90 45 bd
       0.03228892 -0.110198945 0.04860365 -0.048233505
000260 0f 08 86 bd 43 d2 27 3d 9c 80 bc 3c 0d fc ec bb
       -0.06544506 0.040972006 0.023010544 -0.007232195
000270 4f 68 10 3d c5 d3 80 bd 54 12 b4 bd df f3 de 3c
       0.035255726 -0.06290392 -0.08792558 0.027215896
000280 5a 06 99 bb 2d 1a 87 3b 47 69 01 3c c3 33 0e 3c
       -0.0046699466 0.0041229934 0.007898635 0.008679333
000290 41 f5 f0 3c 93 06 9d 3b 59 ff f9 3c df 45 b5 3c
       0.029413821 0.0047920435 0.030517267 0.022128044
0002a0 80 53 a6 3b 47 6f d1 3c aa df 1e 3c c3 61 83 bd
       0.005075872 0.025565756 0.00969688 -0.06415131
0002b0 43 d2 1e 3d bd 99 ad bd 31 9b 80 bb 41 cf 3d bc
       0.03877474 -0.08476589 -0.0039247503 -0.011585058
0002c0 d9 c6 79 bd f2 f9 d6 3c d8 52 20 3d 83 eb 89 bd
       -0.06098065 0.02624223 0.039141506 -0.067343734
0002d0 3a 61 ac 3c 7f fc 71 bd 6f 56 db 3c d8 40 b6 3c
       0.021042455 -0.05907869 0.026774613 0.022247717
0002e0 10 c1 aa bd 50 3e 3e bc 09 23 50 3d 23 fd d2 3c
       -0.08337605 -0.011611536 0.050814662 0.02575547
0002f0 21 6c 38 bd e8 f9 f6 bc ef 4a ea 3c 9d bc 1a 3d
       -0.045024995 -0.030148461 0.028600184 0.037777532
000300 b6 05 70 bd 84 07 10 3d 0a dd e1 3b c4 2e 03 3d
       -0.058599196 0.035163417 0.006892805 0.03202702
000310 d6 1e ae 3c ea 59 64 3b 8e f0 34 3d 9b aa 8d bc
       0.021254938 0.0034843632 0.044174723 -0.017293265
000320 51 c2 38 3c a6 70 29 3c e5 63 6c bd 5e d2 26 3c
       0.011276797 0.010341799 -0.057712454 0.010181991
000330 8c 0f 05 bb 1d 5a 7e 3c d3 6f 44 3d bd 02 09 bd
       -0.0020303456 0.015524414 0.047958206 -0.033449877
000340 f8 7e 0d 3d 10 ec 6d bc f8 f0 6b 3b ac b4 8b bd
       0.034544915 -0.014521614 0.0036001783 -0.0682157
000350 49 e7 68 bd 3a b9 30 3d f3 3b 80 bd bc 56 40 3d
       -0.056861196 0.043145396 -0.062614344 0.046957716
000360 6e 67 0d 3d 15 dc 93 bd 96 2d ec 3c 41 89 19 3d
       0.034522466 -0.07219712 0.02883033 0.03748441
000370 e9 67 77 bd 52 b6 27 3d 10 b7 9d bd cd 16 04 bd
       -0.06040183 0.04094536 -0.07700932 -0.032248307
000380 1c dd 5e bd 5b 5d 2f 3d 00 1d 9e 3d ad 7c a5 3d
       -0.054410085 0.04281364 0.07720375 0.08080421
000390 8b 7f 57 3d 48 cb a2 3c 69 cc 80 3c 71 9f b4 3c
       0.05261187 0.019872323 0.01572247 0.022048684
0003a0 b7 23 b4 3c ce 6d b3 b9 da 84 9d 3c b9 f9 74 bc
       0.021989686 -0.0003422335 0.019228388 -0.014952117
0003b0 8c 59 5c 3d d0 70 25 3d 3c 3c 3a 3b b1 9d 8c 3d
       0.053796336 0.04039079 0.002841725 0.06866015
0003c0 53 f8 87 bd cc 02 c6 3c 9d 8f da bd a5 b2 ae 3c
       -0.06639161 0.024171256 -0.10671923 0.021325419
0003d0 4e 94 0f bd de d2 6d 3c bd 61 18 3d 16 1f 24 3d
       -0.035053544 0.014515607 0.037202585 0.04006871
0003e0 b2 a4 06 3c d4 db 31 3d 6b 7d 12 3d 48 d8 41 3c
       0.008217977 0.043422535 0.03576414 0.011831351
0003f0 58 4d 1c 3c 67 9b 71 bd 03 00 d4 3a 96 12 2f 3d
       0.009539925 -0.058986094 0.001617432 0.042742334
