spkrec-xvect/cmu_us_bdl_arctic-wav-arctic_b0046.npy (npy, 2176 bytes, 1 tensors)

array f4 [512]
000000 41 a5 92 bd 4a fc 35 3b f0 a9 7f 3b 8c 76 cd 3c
       -0.07160426 0.0027768784 0.0039011203 0.025080942
000010 73 b7 f1 3a 50 c6 4c bd 28 b8 96 bd 72 5f 32 3b
       0.0018441513 -0.049993813 -0.07359344 0.0027217534
000020 33 f3 0b 3d 5f 81 93 3c ae 26 46 bd 10 aa ca bd
       0.03416748 0.018006025 -0.04837673 -0.09895718
000030 22 15 a8 3d 7a 23 0c 3d 1d ca 07 3d b0 89 50 3d
       0.08207156 0.03421352 0.033151735 0.05091256
000040 66 e4 4a ba e8 3a 56 3c 9c e6 65 3c 7f b8 e9 39
       -0.00077397225 0.013075568 0.014032032 0.00044578683
000050 3f a5 18 3d 59 f2 1c 3d a3 f6 66 bc c7 fe 26 bd
       0.037266966 0.03831706 -0.014096889 -0.04077032
000060 8f b0 92 bd 5a db 26 bc 71 5e 15 bd 1e a2 52 3c
       -0.07162582 -0.010184133 -0.03646702 0.012856035
000070 b7 91 1c 3d 8b a2 f4 3c 6d 91 72 bb ec 5b 31 3d
       0.038224902 0.029862663 -0.003701295 0.043300554
000080 58 3e 28 3d 27 19 d9 bc e0 2b c1 3c 2c ed 30 bd
       0.04107508 -0.026501251 0.023580492 -0.043194935
000090 1c 75 17 3d 98 2e 2b 3d cf 84 eb bc 84 a4 86 bd
       0.03697692 0.041792482 -0.028749852 -0.065743476
0000a0 13 41 34 3c 7c 6a c2 bc cf e1 15 3c 8c 80 6a 3d
       0.011001843 -0.023732416 0.009148075 0.057251498
0000b0 4a ba 9f 3c 50 0a cb bd 0f 91 a8 bc 9f a8 65 3c
       0.01949801 -0.09914076 -0.020576982 0.014017253
0000c0 94 f9 41 bd 1f b3 55 3d 2d 40 e2 3c 79 35 66 3c
       -0.047357157 0.052172776 0.027618492 0.014050835
0000d0 cd 98 9f 3c 53 36 df 3c 49 3c c9 bd b1 cd 06 bd
       0.01948204 0.027247583 -0.098259516 -0.032911006
0000e0 78 ff c4 bc 14 38 1a 3d 71 ac 81 3c bf 46 be 3b
       -0.024047598 0.037651137 0.015829297 0.0058067734
0000f0 85 47 ad 3c d4 d2 1d bc 04 88 83 bc eb 5e ee b9
       0.021152267 -0.009632785 -0.016056068 -0.00045465617
000100 0f 49 1f 3d 67 e1 cc 3c 94 19 2f 3b 5f 2a 56 bd
       0.038888033 0.025009824 0.0026718127 -0.052286502
000110 53 65 8f bd 66 b6 07 bd fc 16 8e 3c 5f 89 3b 3c
       -0.07001748 -0.033132933 0.017344944 0.011446326
000120 77 ff f7 3c d0 22 ed 3b e9 62 b2 3c b5 2e 07 3d
       0.030273182 0.007236816 0.02177568 0.033003528
000130 2f ab 25 3c 75 b4 12 3c aa 96 b4 bd 0e 29 b7 bd
       0.010111614 0.008954157 -0.088177994 -0.089433774
000140 8a 75 2d bd 37 b5 87 bd 30 40 88 bd 50 cc 98 bd
       -0.042348422 -0.06626361 -0.06652868 -0.074608445
000150 c8 c1 1b bd a3 2a 9a bd 6f 8d 41 bd d3 f5 8e 3d
       -0.0380266 -0.075276636 -0.047254022 0.06980481
000160 19 3d b8 ba d5 1b d8 bc 9a ed 04 3d da 1d c0 bd
       -0.0014056294 -0.026380459 0.032453157 -0.09380694
000170 ae dc bd 3b e5 4a 31 bd 98 aa e3 3c c5 e3 3f bc
       0.0057941293 -0.043284316 0.027791306 -0.011712019
000180 2c 13 23 3d 38 0c 53 3d 11 a7 e8 bc d6 2c 71 bd
       0.039813206 0.051525325 -0.028399976 -0.05888065
000190 a1 f0 2f 3d e5 36 2b bd 0f f6 96 bd 62 d2 b8 3c
       0.04295409 -0.0418004 -0.07371151 0.022561256
0001a0 d4 5e 12 3d 8f 35 a8 3c 54 bb 1c 3d e5 4f 21 3d
       0.035734966 0.020533351 0.038264588 0.039382834
0001b0 1f 45 72 3d 67 7d 25 3c d6 02 b7 bd e6 c0 66 3c
       0.05914795 0.010100699 -0.08936088 0.0140840765
0001c0 f9 42 90 3d 72 c9 6f bc 2c cf 30 3d 07 45 92 3d
       0.07044024 -0.014635431 0.043166324 0.07142072
0001d0 8b 26 ac bd a2 8e 5c bc c9 6b 6c bd 94 0f 40 3d
       -0.08405789 -0.013461741 -0.05771998 0.046889856
0001e0 23 d5 94 3c 0d a8 48 bd 9a 4e 0c 3b 81 7c 94 3d
       0.018168038 -0.04898839 0.0021409155 0.0725031
0001f0 f8 61 9a bd 6f 22 82 3d 50 b3 86 bd a1 56 ea 3c
       -0.07538217 0.06354224 -0.0657717 0.028605761
000200 ab 5e 18 3d 61 f3 5c 3d 35 88 1a 3d a0 45 7c 3c
       0.037199657 0.05394304 0.037727553 0.015397459
000210 f3 a9 4c 3c 46 b6 55 3d 92 c5 0d 3c b1 c9 8f bd
       0.012491691 0.052175783 0.008653061 -0.070208915
000220 85 b1 a3 bd a5 3d d5 bc d2 93 5d bd 8b 8d 75 3c
       -0.079928435 -0.026030371 -0.05409605 0.01498736
000230 5d e6 c8 3c ac ac 87 3b e1 0f 44 3b 97 c7 77 3d
       0.024523908 0.004140457 0.002991669 0.060493078
000240 f3 18 5c bd 2c 8a a8 3c 3c 6c 8c bc a0 a9 24 bd
       -0.05373473 0.020573698 -0.017141454 -0.04020083
000250 43 ca fa 3c 50 a5 f1 bd 66 73 ac 3c a0 56 08 bd
       0.030614024 -0.11799109 0.02105112 -0.033285737
000260 5c 56 9a bd ce c8 af 3c ec f1 cf 3a c8 3d a3 3c
       -0.07536003 0.021458056 0.0015864945 0.01992692
000270 10 6c 1b 3d 35 46 7f bd 24 90 c3 bd 84 a2 e6 3c
       0.037944853 -0.062322814 -0.09548977 0.028153665
000280 27 04 1a 3c 18 03 b3 3c 8d f3 00 3d 67 5d 5e bc
       0.009400404 0.021852061 0.031482268 -0.013572074
000290 38 f3 0f bd e9 86 18 3c 77 01 f5 3c 57 70 97 3c
       -0.03514406 0.009309509 0.029907925 0.018486185
0002a0 a9 88 bb 3c 99 27 59 3d 18 eb 33 3d e4 d8 6c bd
       0.022892313 0.05301628 0.043925375 -0.05782403
0002b0 1e 2c c9 3c cc d7 43 bd dc c7 06 3b 58 25 ef 3c
       0.02455717 -0.04781322 0.0020565903 0.029192612
0002c0 9e 4d fa bc c8 9f c4 3c f4 e0 05 3d 78 ca b4 bd
       -0.030554589 0.02400197 0.032685235 -0.0882768
0002d0 93 ed 0f 3d a5 e9 51 bd 65 2a 63 bb 18 d9 23 3d
       0.035138678 -0.05124821 -0.003466272 0.04000196
0002e0 34 c2 76 bd 5d c0 4a bc cb 8c 58 3d 52 fc d6 3c
       -0.0602438 -0.012374965 0.052868646 0.026243363
0002f0 cb db 39 bd e8 f3 69 bd 15 c3 f9 ba 05 c9 e1 3c
       -0.045375627 -0.057117373 -0.0019055331 0.027561674
000300 bd 87 6e bd af 71 0e 3b cf 45 02 3d 7c 08 ae 3c
       -0.05823492 0.0021735241 0.031804856 0.02124428
000310 11 87 19 3c 0b 71 10 3c 31 43 d2 3c 25 dc 00 bd
       0.009370581 0.008816014 0.025666805 -0.031459946
000320 a2 3f 04 3d 27 b9 68 3d cc eb a4 bd 2b ed 5f 3c
       0.032287247 0.0568172 -0.08052787 0.013667385
000330 ee 14 9a 3a 34 74 43 3c a0 84 96 3c 50 b5 e6 bb
       0.0011755505 0.01192956 0.018373787 -0.007040657
000340 35 1b 0f 3d 0c d9 c0 bc 7c c9 7c 3b 83 9d 5d bd
       0.034938056 -0.023540996 0.0038572242 -0.054105293
000350 ea 21 68 bd 23 25 66 3d 26 4b 25 bd ce 55 37 3d
       -0.056672968 0.05618776 -0.04035487 0.044759564
000360 89 b1 2f 3c 38 69 9d bd 74 9f 33 3d 2e ba 02 3d
       0.01072348 -0.076860845 0.04385324 0.031915836
000370 c6 59 9e bd c7 a8 75 3c 2f b7 30 bd 55 02 b9 bc
       -0.07731967 0.014993853 -0.043143447 -0.02258412
000380 46 ff 4d bd 35 cc 67 3d 98 78 09 3d f9 e8 e6 3d
       -0.050292276 0.05659123 0.033562273 0.11274905
000390 9a aa 64 3d 7d f5 b6 3c ac 0b 54 bd 81 9b 4c 3d
       0.05582676 0.022333855 -0.051768944 0.049952988
0003a0 49 be cb 3c 5f 39 d4 bc 89 79 6a bb e9 d7 0f 3c
       0.024871008 -0.025906263 -0.0035778007 0.008779504
0003b0 ac 19 25 3d 6a 85 20 3c b1 1c 9a 3a 9c e9 c4 3c
       0.040307686 0.009797433 0.0011757818 0.024037175
0003c0 d2 e1 80 bd 83 76 bf 3c be 53 bb bd f0 fe f3 3b
       -0.06293072 0.02337194 -0.09146832 0.0074461624
0003d0 f0 13 40 bd f7 d3 dc 3c 17 37 55 3d 78 cd 0b 3d
       -0.046894014 0.026956541 0.05205449 0.034131497
0003e0 90 22 ff ba d1 13 3c 3d e5 87 0d 3d 99 67 1c 3c
       -0.0019465256 0.045917336 0.034553427 0.009546184
0003f0 a8 45 0e 3c d5 92 27 bd 55 10 38 bc c5 55 4d 3d
       0.0086835995 -0.040911514 -0.011234363 0.050130624
