spkrec-xvect/cmu_us_clb_arctic-wav-arctic_b0390.npy (npy, 2176 bytes, 1 tensors)

array f4 [512]
-0.090745345 -0.03798812 0.04895383 0.059430663 -0.032614436 -0.051348913 -0.04328064 -0.04092523
0.028246073 0.018285558 -0.056391336 -0.05572004 0.06627693 0.009544518 0.020501621 0.066507176
-0.0012793669 0.034020297 0.012184418 0.0019065973 0.03081382 0.02050474 -0.013822279 -0.06476413
-0.038205687 -0.008624954 -0.058216445 0.021718672 0.046063278 0.014651377 -0.002663259 0.05287629
0.027558211 -0.025707774 0.023283424 -0.051620554 0.05125081 0.05072331 -0.039018042 -0.071924396
0.0036497724 -0.004236046 0.0049896576 0.058365785 0.016126202 -0.09561325 -0.019532403 0.013080965
-0.064887255 0.05745684 0.008696743 0.03202836 0.051900387 0.03484793 -0.08879254 -0.009397322
-0.020354444 0.011419225 0.024326548 0.030469859 0.018318947 -0.009049456 -0.013990705 0.020418111
0.0006233951 0.020669464 -0.017710993 -0.049467903 -0.066158764 -0.066041894 0.017461339 0.008680054
0.014954271 0.009833995 0.035307802 0.038746484 0.011837832 0.014652459 -0.07835435 -0.09094366
-0.0907559 -0.060384504 -0.06794476 -0.08922891 -0.03205943 -0.059640463 -0.080596775 0.08781241
0.006480626 0.054202635 0.027606687 -0.072263345 -0.0008349405 -0.06782942 0.05236791 -0.036477342
0.036332 0.075650066 -0.055018228 -0.072842546 0.0049396274 -0.04713231 -0.070999935 0.001228088
0.05455935 -0.03605112 0.036853705 0.046055265 0.06630061 0.038979955 -0.090087116 0.03190624
0.0825021 0.01040702 0.024541676 0.050618164 -0.07843145 0.012446451 -0.051114187 -0.006389601
0.03026372 -0.052818175 0.015281674 0.045122623 -0.057300363 0.057641763 -0.08698468 0.028909555
0.045904875 0.02424055 -0.006772925 0.021819675 0.039177373 0.034606107 0.02093336 -0.047145486
-0.041804913 0.03590742 -0.07376267 -0.037661996 0.01584448 0.0028352072 -0.007041399 0.036513925
-0.048172876 0.023962827 -0.01712765 -0.024158197 0.03327245 -0.07177279 0.048927426 -0.03428473
-0.0790335 0.0028281903 -0.010819597 0.03023171 0.0019665887 -0.07270875 -0.07536006 0.049566813
0.027139036 0.0077408953 0.025952864 -0.028606286 -0.023850325 0.008268517 0.03529634 0.038891386
0.014781045 0.042769544 0.0048670284 -0.08818858 0.056715682 -0.05959919 -0.020012395 0.024975166
-0.036851633 0.046184868 0.043818917 -0.0724567 0.030446423 -0.04201723 0.0047252243 0.058930177
-0.06809112 -0.008810815 0.045583334 0.026375568 -0.060749557 -0.06284993 -0.035763443 0.027782423
-0.059109397 0.02047033 0.023300525 0.0037785354 0.05349348 0.010528813 0.0423638 -0.016810425
0.015513838 0.015263213 -0.05768231 0.010000999 0.023960203 0.010730696 0.012245219 -0.0070380233
0.02281203 -0.022010786 0.0035503788 -0.058888305 -0.03124768 0.015803162 -0.048795998 0.024505848
0.036689706 -0.08639761 0.042257342 0.025260597 -0.07895952 0.030609261 -0.07451903 -0.028223762
0.044126686 0.01947154 0.068356715 0.0836763 0.06247375 0.055486877 -0.018349726 0.052269436
0.037313823 -0.050553806 0.004324681 -0.058576424 0.028493736 0.041509252 -0.0010424474 0.06978186
-0.0659757 0.021272657 -0.08798418 0.027215501 -0.050735325 0.025318356 0.030688303 0.043603837
0.0018195935 0.05528949 0.03112934 0.041619085 0.007380165 -0.037719935 0.02839253 0.050564446
00000000: b2d8 b9bd 6e99 1bbd d083 483d 916d 733d
00000010: b796 05bd 3d53 52bd 0a47 31bd 37a1 27bd
00000020: 4f64 e73c 98cb 953c 9afa 66bd b23a 64bd
00000030: 33bc 873d 9c60 1c3c 04f3 a73c ea34 883d
00000040: 6eb0 a7ba de58 0b3d 27a1 473c cae6 f93a
00000050: 446d fc3c 8ef9 a73c d776 62bc 0ea3 84bd
00000060: 917d 1cbd ae4f 0dbc 5e74 6ebd 5beb b13c
00000070: d9ac 3c3d 540c 703c 128a 2ebb cf94 583d
00000080: c2c1 e13c 1c99 d2bc e1bc be3c 1370 53bd
00000090: 5fec 513d 3fc3 4f3d 62d1 1fbd 194d 93bd
000000a0: 0531 6f3b 88ce 8abb 4880 a33b f610 6f3d
000000b0: 191b 843c e1d0 c3bd 6b02 a0bc 8b51 563c
000000c0: 9ce3 84bd dd57 6b3d c97c 0e3c 2b30 033d
000000d0: 8095 543d b4bc 0e3d ddd8 b5bd 3af7 19bc
000000e0: 5dbe a6bc b317 3b3c 7848 c73c ed9b f93c
000000f0: 9e11 963c 2b44 14bc 4539 65bc e243 a73c
00000100: 566b 233a 0253 a93c a516 91bc db9e 4abd
00000110: 3f7e 87bd f940 87bd 150b 8f3c c936 0e3c
00000120: c202 753c c41e 213c ea9e 103d a2b4 1e3d
00000130: 77f3 413c de10 703c 3f78 a0bd ab40 babd
00000140: 3bde b9bd be55 77bd 9f26 8bbd a6bd b6bd
00000150: c050 03bd 8f49 74bd ec0f a5bd fed6 b33d
00000160: 6e5b d43b 9503 5e3d 6b27 e23c cefe 93bd
00000170: e9df 5aba 27ea 8abd bc7f 563d 4469 15bd
00000180: ddd0 143d 6cee 9a3d cb5a 61bd 792e 95bd
00000190: 99dc a13b cf0d 41bd 6a68 91bd ccf7 a03a
000001a0: a079 5f3d 57aa 13bd e9f3 163d 72a4 3c3d
000001b0: 9dc8 873d 72a9 1f3d 987f b8bd 1eb0 023d
000001c0: dcf6 a83d 3582 2a3c a00b c93c fe54 4f3d
000001d0: aba0 a0bd 33ec 4b3c 1c5d 51bd dc5f d1bb
000001e0: 9feb f73c df57 58bd fd5f 7a3c 80d2 383d
000001f0: c9b3 6abd c519 6c3d 0625 b2bd bbd3 ec3c
00000200: c006 3c3d 1e94 c63c 6aef ddbb 2dbf b23c
00000210: 7478 203d 22bf 0d3d 707c ab3c a01b 41bd
00000220: a13b 2bbd a913 133d e210 97bd 7743 1abd
00000230: 48cc 813c e2ce 393b 89bb e6bb a08f 153d
00000240: ec50 45bd b14d c43c 494f 8cbc 69e7 c5bc
00000250: b148 083d 9dfd 92bd 2068 483d 256e 0cbd
00000260: 51dc a1bd 2959 393b ae44 31bc 7ea8 f73c
00000270: e2e1 003b 53e8 94bd 6056 9abd 9206 4b3d
00000280: af52 de3c 56a7 fd3b 1a9b d43c bb57 eabc
00000290: c261 c3bc ad78 073c e592 103d 934c 1f3d
000002a0: 322c 723c 1e2f 2f3d 987b 9f3b 379c b4bd
000002b0: b44e 683d 481e 74bd 09f1 a3bc b898 cc3c
000002c0: bdf1 16bd 582c 3d3d 777b 333d 2e64 94bd
000002d0: c76a f93c 421a 2cbd 0ed6 9a3b c560 713d
000002e0: 5b73 8bbd 3d5b 10bc 97b5 3a3d 9311 d83c
000002f0: 87d4 78bd 77b7 80bd b07c 12bd f797 e33c
00000300: b21c 72bd 65b1 a73c bee0 be3c 4ea1 773b
00000310: fb1b 5b3d 0b81 2c3c aa85 2d3d 04b6 89bc
00000320: c12d 7e3c 8e12 7a3c 4944 6cbd 3bdb 233c
00000330: 3048 c43c cdcf 2f3c 2ca0 483c 389f e6bb
00000340: 4be0 ba3c f74f b4bc 79ad 683b dd34 71bd
00000350: 22fb ffbc a275 813c 50de 47bd 7dc0 c83c
00000360: f247 163d 3bf1 b0bd 0916 2d3d 50ef ce3c
00000370: 87b5 a1bd 46c0 fa3c 6f9d 98bd 8535 e7bc
00000380: 2fbe 343d c782 9f3c 9bfe 8b3d 7b5e ab3d
00000390: 7ae4 7f3d 3546 633d 2a52 96bc 7a18 563d
000003a0: 61d6 183d 8211 4fbd 0eb6 8d3b d5ed 6fbd
000003b0: b26b e93c 9b05 2a3d bba2 88ba cbe9 8e3d
000003c0: 451e 87bd ff43 ae3c 0d31 b4bd 0bf3 de3c
000003d0: d8cf 4fbd 7168 cf3c 0966 fb3c f099 323d
000003e0: 6d7f ee3a 3b77 623d f502 ff3c c678 2a3d
000003f0: 50d5 f13b 3880 1abd 7397 e83c aa1c 4f3d
