spkrec-xvect/cmu_us_awb_arctic-wav-arctic_b0033.npy (npy, 2176 bytes, 1 tensors)

array f4 [512]
-0.074511886 0.018800218 0.033697575 0.043675642 0.0063873297 -0.018963788 -0.07062952 0.030651236
0.05466252 0.0162833 -0.07491339 -0.07607339 0.050725825 0.03210919 0.035221454 0.050865337
0.027305014 0.027003296 0.012534409 0.011674824 0.027296573 0.018691167 -0.013114167 -0.041018173
-0.04989065 -0.0046391194 -0.06538912 -0.008419162 0.05494324 0.046017237 -0.0031341228 0.058337465
0.040251687 0.025721433 0.028418671 -0.06210138 0.019197756 0.053227585 0.013470036 -0.049662434
0.023577137 0.016697051 0.05537834 0.012621121 0.037461095 -0.1109382 -0.017819855 0.012769561
-0.10922484 0.041895375 0.019737875 0.020766279 0.014885032 0.032759886 -0.08759677 -0.04045248
0.007755428 0.015702065 0.042184334 0.03669905 -0.006436138 -0.0067424746 -0.012651198 0.0044515473
0.04051309 0.027469395 0.03890248 -0.037833218 -0.04327301 -0.077083565 0.014834191 0.008697259
0.037147548 0.006106394 0.012906617 0.030052032 0.016200002 6.11011e-05 -0.057475273 -0.07966381
-0.067565866 -0.04831301 -0.06794338 -0.05016253 -0.027853364 -0.06920401 -0.063451014 0.018534638
0.029220808 -0.03917122 0.028679714 -0.061750762 0.013285023 -0.10524319 0.057452504 -0.05886385
0.042797327 0.023545822 -0.086369745 -0.08502312 0.01777689 -0.06698528 -0.09602581 0.022362057
0.03319367 0.04184783 0.0550439 0.04334644 0.007147404 0.03608216 -0.089614965 -0.017074669
0.08596272 0.0138386935 0.021074098 0.05448512 -0.057677254 0.021837067 -0.050089154 0.009225139
0.04119376 -0.057333644 0.018154675 0.054175995 -0.046784934 0.034819897 -0.07430645 0.0335529
0.023255961 0.030408194 -0.008633421 0.03076783 0.02707959 0.040057212 0.025342891 -0.084058866
-0.07431139 0.024377948 -0.06138471 -0.043101832 0.018869441 0.0028223123 -0.020057365 0.08102951
-0.08613867 0.030316591 0.0071227625 -0.00300382 0.015698342 -0.083367914 0.038136568 -0.043344684
-0.087308474 0.018394843 0.0320565 0.03664495 0.0096521685 -0.078519516 -0.10013052 0.04526866
0.026919013 0.024489466 0.016606707 0.035066046 -0.010787227 0.0010193541 0.021125088 0.023500543
0.02349068 0.03252234 0.009604298 -0.07139103 0.004703324 -0.08358728 -0.023374993 0.0018748252
-0.03931743 0.0200786 0.022971883 -0.06653976 0.030210929 -0.035507705 0.041155964 0.013638248
-0.09864866 -0.010503141 0.019050678 0.039442744 -0.0724987 -0.05868326 0.049614582 0.031859223
-0.06590387 0.030894782 0.0063021546 0.03336239 0.04442681 0.039525773 0.04583866 -0.023090955
0.057487614 0.024942227 -0.07236405 0.011793607 0.0146585805 0.012682644 0.029887956 0.006477786
0.016734157 0.021485284 0.0028600341 -0.066475905 -0.040888626 0.045929007 -0.050559845 0.03138655
0.016983375 -0.06694589 0.03790948 0.02558141 -0.09157183 0.024036573 -0.07873324 -0.046318885
-0.04335971 0.0061040604 0.03853158 0.0551801 0.06542462 0.037984848 0.018931739 0.03718997
0.019318873 -0.0048525822 0.040717553 0.0077685723 0.058812916 0.033218555 0.003107967 0.03673973
-0.060598414 0.020923916 -0.06679871 0.014289243 -0.07041732 0.037172176 0.033231646 0.025561417
0.034250274 0.011184028 0.050635252 0.016222222 0.0075926925 -0.06872811 0.014397378 0.037816353
00000000: b099 98bd ea02 9a3c 7806 0a3d 3be5 323d
00000010: ce4c d13b f259 9bbc 36a6 90bd 4d18 fb3c
00000020: cee5 5f3d 8e64 853c 316c 99bd 5ecc 9bbd
00000030: e2c5 4f3d ed84 033d 5f44 103d 2c58 503d
00000040: c4ae df3c 0436 dd3c 1f5d 4d3c c347 3f3c
00000050: 109d df3c 381e 993c cedc 56bc ac02 28bd
00000060: 235a 4cbd c103 98bb bbea 85bd 86f0 09bc
00000070: 2a0c 613d 927c 3c3d db65 4dbb 44f3 6e3d
00000080: f4de 243d c1b5 d23c 46ce e83c 045e 7ebd
00000090: 9d44 9d3c 2b05 5a3d 6db1 5c3c d66a 4bbd
000000a0: d724 c13c 41c8 883c 66d4 623d d1c8 4e3c
000000b0: ce70 193d 9133 e3bd f2fa 91bc 6c37 513c
000000c0: 46b1 dfbd 7c9a 2b3d 53b1 a13c 0b1e aa3c
000000d0: 59e0 733c 3b2f 063d ef65 b3bd 80b1 25bd
000000e0: 3f21 fe3b 9ea1 803c 7bc9 2c3d be51 163d
000000f0: 3de6 d2bb faef dcbb f846 4fbc 49de 913b
00000100: 0ef1 253d 7f07 e13c 3558 1f3d 01f7 1abd
00000110: 0a3f 31bd fddd 9dbd 1b0b 733c f37e 0e3c
00000120: 0728 183d 2518 c83b 4676 533c ae2f f63c
00000130: deb5 843c 6723 8038 316b 6bbd c826 a3bd
00000140: f95f 8abd dde3 45bd e625 8bbd 3a77 4dbd
00000150: bd2c e4bc d5ba 8dbd 9bf2 81bd f4d5 973c
00000160: 7a60 ef3c 0072 20bd b8f1 ea3c 5eee 7cbd
00000170: 6da9 593c be89 d7bd 5153 6b3d 381b 71bd
00000180: 404c 2f3d 2be3 c03c 9fe2 b0bd 9a20 aebd
00000190: d7a0 913c 942f 89bd 2ea9 c4bd a230 b73c
000001a0: 16f6 073d a168 2b3d b675 613d 098c 313d
000001b0: c534 ea3b e3ca 133d 0d88 b7bd 2de0 8bbc
000001c0: 390d b03d b0bb 623c 96a3 ac3c ca2b 5f3d
000001d0: fc3e 6cbd a6e3 b23c 492a 4dbd 0a25 173c
000001e0: caba 283d afd6 6abd 1db9 943c a6e7 5d3d
000001f0: 8fa1 3fbd 4f9f 0e3d fb2d 98bd c46e 093d
00000200: 4983 be3c 9b1a f93c 3173 0dbc d10c fc3c
00000210: 04d6 dd3c 0813 243d e59b cf3c 0e27 acbd
00000220: 9230 98bd 43b4 c73c 896e 7bbd 8c8b 30bd
00000230: 1694 9a3c 8bf6 383b 584f a4bc cdf2 a53d
00000240: 7969 b0bd 805a f83c 1066 e93b bddb 44bb
00000250: cf99 803c ccbc aabd 1735 1c3d 328a 31bd
00000260: c9ce b2bd c8b0 963c ad4d 033d 0419 163d
00000270: 2124 1e3c d7ce a0bd 3b11 cdbd a16b 393d
00000280: 4385 dc3c 229e c83c ca0a 883c 6aa1 0f3d
00000290: e9bc 30bc d99b 853a 850e ad3c 3684 c03c
000002a0: 876f c03c 2536 053d 585b 1d3c 7635 92bd
000002b0: 571e 9a3b cf2f abbd ea7c bfbc b2bc f53a
000002c0: 500b 21bd e07b a43c 882f bc3c ff45 88bd
000002d0: e97c f73c 8770 11bd 2893 283d f572 5f3c
000002e0: 4f08 cabd 5e15 2cbc 2b10 9c3c b78e 213d
000002f0: 337a 94bd dc5d 70bd a938 4b3d d17e 023d
00000300: 9cf8 86bd 0e17 fd3c 4e82 ce3b 00a7 083d
00000310: e3f8 353d c7e5 213d 52c1 3b3d 3e29 bdbc
00000320: 2278 6b3d a453 cc3c 9a33 94bd f939 413c
00000330: 8b2a 703c ddca 4f3c 96d7 f43c 9c43 d43b
00000340: 1216 893c e801 b03c 696f 3b3b 8524 88bd
00000350: d57a 27bd 0e20 3c3d d717 4fbd 2f8f 003d
00000360: b820 8b3c ed1a 89bd f946 1b3d 1b90 d13c
00000370: 038a bbbd 59e8 c43c e53e a1bd dfb8 3dbd
00000380: f499 31bd 9204 c83b 4ad3 1d3d 8704 623d
00000390: 58fd 853d 0096 1b3d bc16 9b3c 8354 183d
000003a0: 9d42 9e3c 6902 9fbb 73c7 263d 828f fe3b
000003b0: d0e5 703d 2e10 083d 09af 4b3b 667c 163d
000003c0: 0b36 78bd a268 ab3c c3cd 88bd 6e1d 6a3c
000003d0: f536 90bd da41 183d e81d 083d 2d66 d13c
000003e0: 044a 0c3d 373d 373c e966 4f3d 77e4 843c
000003f0: 1fcc f83b 53c1 8cbd fbe2 6b3c 52e5 1a3d
