spkrec-xvect/cmu_us_awb_arctic-wav-arctic_b0536.npy (npy, 2176 bytes, 1 tensors)

array f4 [512]
-0.07102988 -0.004455766 0.03863874 0.04506428 0.0017650694 -0.048934378 -0.075053394 0.029423833
0.036225744 0.015946615 -0.073537506 -0.088418156 0.051450364 0.042681117 0.027751198 0.041517895
0.024434315 0.02393363 0.012706819 0.0035573465 0.027040455 0.023919443 -0.01262068 -0.03799714
-0.0590015 -0.0076804757 -0.055235483 -0.00935615 0.056488648 0.04717117 -0.0034062932 0.060897812
0.046834867 -0.0029180602 0.038328554 -0.04826754 0.031632207 0.057342727 -0.0025061097 -0.05635094
0.007912559 0.019609386 0.034692347 0.038038094 0.029067056 -0.11716431 -0.018837312 0.0131776
-0.090045124 0.062884435 0.009843467 0.047763888 0.021622073 0.045463573 -0.104786836 -0.044003677
-0.013658156 0.02805978 0.033324447 0.018398572 0.00053448905 -0.007967839 -0.01517924 -0.005036365
0.034527395 0.015397574 0.04232133 -0.036761694 -0.04879316 -0.06372069 0.0066152546 0.009515694
0.031047355 0.004660099 0.013449058 0.03949729 0.015028374 0.012211859 -0.0597941 -0.08494755
-0.07290378 -0.04576358 -0.050631482 -0.05010632 -0.032218777 -0.07013679 -0.06379801 0.028473351
0.03339761 -0.039670795 0.028121559 -0.061356254 0.018449442 -0.0783591 0.06121938 -0.027641946
0.013170489 0.0210486 -0.09503756 -0.0816387 0.025524165 -0.05215202 -0.09131472 0.02395914
0.047796443 0.03186155 0.0446036 0.042013593 0.016545309 0.034901403 -0.07695883 -0.011470708
0.076943226 0.0045914245 0.031626344 0.0649159 -0.040108576 0.019579642 -0.050942395 0.038409643
0.038748745 -0.06442054 0.00036499876 0.06446032 -0.05379534 0.042418968 -0.05847494 0.037453998
0.028537612 0.061632533 -0.027064169 0.035446245 0.033294372 0.047339953 0.020385325 -0.071886264
-0.071076505 0.0148322545 -0.07345228 -0.032427173 0.025343863 0.001860887 -0.025816888 0.066456616
-0.09758709 0.024265857 0.0050957957 -0.020804428 0.005191675 -0.10863368 0.031578127 -0.05112255
-0.07306757 0.0018570347 0.032038506 0.030922914 0.031032672 -0.08668277 -0.0853323 0.021423394
0.021505456 0.028251357 0.0038510542 0.02433693 -0.0380366 0.0037415836 0.033159155 0.023650782
0.020044943 0.043846235 0.016492175 -0.07279993 0.011363238 -0.08274199 -0.022641124 0.011776733
-0.045864638 0.010182028 0.051600266 -0.0903079 0.029498843 -0.056127176 0.023919446 0.015854437
-0.09301614 -0.01123435 0.034474067 0.04631632 -0.07369294 -0.043656357 0.04697717 0.0295529
-0.07824595 0.020800088 0.027227618 0.03113925 0.040359516 0.029477589 0.046285536 -0.03296144
0.049790792 0.051514868 -0.064867474 0.012498669 0.02269961 0.011577139 0.02226622 0.022083009
0.026035951 0.007985466 0.0038265667 -0.060200058 -0.059550144 0.022353552 -0.06455911 0.035433944
0.01644337 -0.06836152 0.025129102 0.0417595 -0.06477555 0.03269531 -0.07202087 -0.059177622
-0.060856596 0.043260537 0.06040817 0.07209747 0.059699945 0.035146624 -0.0029690415 0.037971284
0.033660237 -0.018084098 0.04286459 0.006521344 0.052815594 0.01881649 0.0026819566 0.04113572
-0.062464815 0.020746928 -0.084247164 0.0006341973 -0.07203208 0.019425504 0.04276551 0.014198558
0.036618654 0.026073847 0.056436386 0.023559159 0.007393499 -0.049748264 0.023438983 0.029037168
00000000: 1d78 91bd ad01 92bb a843 1e3d 5395 383d
00000010: e759 e73a 6a6f 48bd 98b5 99bd 400a f13c
00000020: 7261 143d 7aa2 823c d59a 96bd 9414 b5bd
00000030: 9ebd 523d 65d2 2e3d 7b56 e33c ab0e 2a3d
00000040: 792a c83c 7610 c43c 4330 503c 5f22 693b
00000050: f283 dd3c b5f2 c33c f8c6 4ebc e4a2 1bbd
00000060: 8fab 71bd 80ac fbbb 9a3e 62bd 8a4a 19bc
00000070: a460 673d 8f36 413d 1e3c 5fbb fc6f 793d
00000080: ebd5 3f3d ed3c 3fbb 67fe 1c3d 2fb4 45bd
00000090: c690 013d 35e0 6a3d 8b3d 24bb 3ed0 66bd
000000a0: aea3 013c dda3 a03c 9019 0e3d d5cd 1b3d
000000b0: 091e ee3c d7f3 efbd b550 9abc dce6 573c
000000c0: 9469 b8bd 8ec9 803d 7e46 213c 11a4 433d
000000d0: c620 b13c 0338 3a3d 7b9a d6bd 333d 34bd
000000e0: 75c6 5fbc a0dd e53c 377f 083d 9ab8 963c
000000f0: f41c 0c3a 8a8b 02bc 59b2 78bc 1708 a5bb
00000100: 996c 0d3d 1b46 7c3c 2259 2d3d 6e93 16bd
00000110: 56db 47bd fe7f 82bd c7c4 d83b b7e7 1b3c
00000120: 0657 fe3c beb3 983b 7059 5c3c e9c7 213d
00000130: 9239 763c 4014 483c a8ea 74bd fbf8 adbd
00000140: 944e 95bd 9772 3bbd f562 4fbd 493c 4dbd
00000150: d6f7 03bd e1a3 8fbd 88a8 82bd f240 e93c
00000160: efcb 083d d87d 22bd 2f5f e63c b250 7bbd
00000170: 4923 973c bc7a a0bd 2cc1 7a3d 5d71 e2bc
00000180: 09c9 573c 1d6e ac3c 0da3 c2bd 3132 a7bd
00000190: 0e18 d13c 5b9d 55bd 3603 bbbd f545 c43c
000001a0: 34c6 433d 4281 023d 44b2 363d 7216 2c3d
000001b0: 078a 873c c6f4 0e3d 979c 9dbd a3ef 3bbc
000001c0: 6994 9d3d a973 963b a08a 013d a1f2 843d
000001d0: e448 24bd 7c65 a03c f9a8 50bd 6e53 1d3d
000001e0: 01b7 1e3d ebee 83bd 4e5d bf39 c603 843d
000001f0: 8158 5cbd 83bf 2d3d 6b83 6fbd 5d69 193d
00000200: b6c7 e93c 6572 7c3d adb5 ddbc 1530 113d
00000210: ae5f 083d 8ae7 413d 20ff a63c 1b39 93bd
00000220: 8f90 91bd fc02 733c 266e 96bd 5bd2 04bd
00000230: ef9d cf3c 02e9 f33a f07d d3bc 681a 883d
00000240: bedb c7bd 31c9 c63c a2fa a63b 0c6e aabc
00000250: ed1e aa3b 567b debd 1158 013d e165 51bd
00000260: 73a4 95bd bf67 f33a cf3a 033d 0d52 fd3c
00000270: 3b38 fe3c bc86 b1bd b3c2 aebd 1d80 af3c
00000280: 362c b03c 646f e73c f861 7c3b 3e5e c73c
00000290: 44cc 1bbd 5b35 753b e5d1 073d 49bf c13c
000002a0: 4b35 a43c 1c98 333d 991a 873c 2118 95bd
000002b0: e02c 3a3c a274 a9bd e179 b9bc 33f3 403c
000002c0: 8fdc 3bbd 85d2 263c cd5a 533d 59f3 b8bd
000002d0: 8fa7 f13c 9ce5 65bd b7f2 c33c 2ae1 813c
000002e0: 3f7f bebd 4710 38bc ae34 0d3d 2eb6 3d3d
000002f0: 53ec 96bd 02d1 32bd 226b 403d ec18 f23c
00000300: 6a3f a0bd f264 aa3c 740c df3c be17 ff3c
00000310: 0550 253d fc7a f13c e795 3d3d 9302 07bd
00000320: 6ef1 4b3d 4101 533d 3dd9 84bd 38c7 4c3c
00000330: 88f4 b93c 0aae 3d3c a667 b63c 6de7 b43c
00000340: 5949 d53c 79d5 023c 23c7 7a3b 5694 76bd
00000350: daea 73bd cc1e b73c 9137 84bd 2f23 113d
00000360: 3fb4 863c 2001 8cbd 8cdb cd3c 020c 2b3d
00000370: 0ba9 84bd 84eb 053d ae7f 93bd 3c64 72bd
00000380: c444 79bd f631 313d 8f6e 773d d7a7 933d
00000390: ee87 743d e8f5 0f3d 4094 42bb c787 1b3d
000003a0: 51df 093d 1a25 94bc c892 2f3d 00b1 d53b
000003b0: 2a55 583d 0a25 9a3c c4c3 2f3b ee7d 283d
000003c0: 1bdb 7fbd 76f5 a93c c789 acbd 4340 263a
000003d0: 8e85 93bd 3c22 9f3c e32a 2f3d 12a1 683c
000003e0: 71fd 153d d298 d53c d729 673d 23ff c03c
000003f0: 2a45 f23b d6c4 4bbd 1c03 c03c 5bdf ed3c
