spkrec-xvect/cmu_us_ksp_arctic-wav-arctic_b0180.npy (npy, 2176 bytes, 1 tensors)

array f4 [512]
0	0xbdb3d923	-0.0878165
1	0x3c628c27	0.01382736
2	0x3cbf87b2	0.023380134
3	0x3ce60cf2	0.028082345
4	0x3d2eb922	0.042657025
5	0xbd2bb01e	-0.041916005
6	0xbd87ea0d	-0.066364385
7	0x3c86727d	0.016412014
8	0x3d20bfa3	0.03924526
9	0x3c9e9349	0.01935734
10	0xbd77d01e	-0.06050121
11	0xbd96bbd4	-0.07360044
12	0x3d8160e2	0.06317307
13	0x3c543126	0.012951171
14	0x3d587d76	0.052854024
15	0x3d00e047	0.031463888
16	0xbb4cfdf5	-0.00312793
17	0x3cd6fbd8	0.026243135
18	0x3c0f07d0	0.00872989
19	0xbc135673	-0.008992779
20	0x3cf67f24	0.030089922
21	0x3d34b6e5	0.044119734
22	0xbc743117	-0.014904282
23	0xbd4990f6	-0.04921051
24	0xbd5eccd6	-0.054394566
25	0xbb960297	-0.0045779455
26	0xbd325b1e	-0.043543927
27	0x3ba2d217	0.0049688923
28	0x3d57bc17	0.05266961
29	0x3c90211d	0.017593915
30	0xbb85f924	-0.004088538
31	0x3d688078	0.056763142
32	0x3cff9685	0.031199703
33	0x3ccd0eb3	0.025031423
34	0x3d567e60	0.052366614
35	0xbd24ef0d	-0.04026704
36	0x3cfa1771	0.030528756
37	0x3d6cad86	0.057782672
38	0x3ca045d9	0.019564556
39	0xbd5e27df	-0.054237243
40	0x3d0d57bd	0.034507502
41	0x3ba466ca	0.005017136
42	0x3d01857e	0.03162145
43	0x3d37242c	0.04471223
44	0x3cd55005	0.026039133
45	0xbdf855c9	-0.12125737
46	0xbc9f6823	-0.019458836
47	0x3c8738c5	0.016506562
48	0xbdb7b0c6	-0.08969264
49	0x3d31c31b	0.043398958
50	0x3bcecb6e	0.006310872
51	0x3c39a508	0.01133085
52	0xbc070719	-0.008241438
53	0x3cf0f999	0.029415892
54	0xbdc32bdb	-0.09529849
55	0xbd26de84	-0.04073955
56	0xbcbf9f77	-0.023391468
57	0x3cfa6557	0.0305659
58	0x3cc55a69	0.024090962
59	0xbab9f149	-0.0014186288
60	0x3ce98f5a	0.028510738
61	0xbc090533	-0.008363056
62	0xbc51b370	-0.012799129
63	0xbbadb3ad	-0.00530096
64	0x3caed057	0.021339579
65	0x3d298ad6	0.04139217
66	0x3c7d44f3	0.015458333
67	0xbcc9a35b	-0.024614027
68	0xbd41c87f	-0.04731035
69	0xbd9c5866	-0.07634048
70	0x3c9f63bf	0.019456742
71	0x3c25ec01	0.0101270685
72	0x3d19eaf6	0.03757759
73	0x3ba2db48	0.004969988
74	0x3c579d75	0.013160099
75	0x3ca8817a	0.020569552
76	0x3c8f2b99	0.017476844
77	0x3c6f99b5	0.014624049
78	0xbd56cc86	-0.052441142
79	0xbda8e21f	-0.08246254
80	0xbd990122	-0.07470919
81	0xbd5f3734	-0.054496005
82	0xbd9ba68d	-0.076001264
83	0xbd5c6a88	-0.053812534
84	0xbd052460	-0.032505393
85	0xbd7e4af1	-0.06208319
86	0xbd12d881	-0.035851005
87	0x3cd09470	0.025461406
88	0x3d2536b1	0.04033536
89	0xbcbfee35	-0.023429016
90	0x3d04a31e	0.032382123
91	0xbd982438	-0.07428783
92	0x3cf20960	0.029545486
93	0xbd52a24c	-0.05142431
94	0x3cfdab1a	0.030965377
95	0xbd9b6455	-0.07587496
96	0x3cba55fa	0.022746075
97	0x3d12b45a	0.035816528
98	0xbd914ca8	-0.07094699
99	0xbd50ef55	-0.051009495
100	0x3c05f814	0.008176822
101	0xbd38c3f1	-0.04510874
102	0xbdc2b920	-0.09507966
103	0x3c6b68f3	0.014368284
104	0x3d2d1d54	0.042264298
105	0x3c5229b9	0.01282733
106	0x3d4ca58f	0.049962576
107	0x3ce7496d	0.028233254
108	0x3d12f4bd	0.035877932
109	0x3cbc1ac4	0.022961982
110	0xbdc004ed	-0.093759395
111	0xbc3ffbef	-0.0117177805
112	0x3d9ce60f	0.07661068
113	0x3b8b01f6	0.004242177
114	0x3d1c43e2	0.038150676
115	0x3d88a10b	0.066713415
116	0xbd98ec4a	-0.074669436
117	0x3cc409d8	0.023930475
118	0xbd73dbff	-0.059535976
119	0x3d285a7d	0.04110192
120	0x3d05aa2e	0.032633
121	0xbd8f81b7	-0.07007163
122	0x3d243c3e	0.040096514
123	0x3d239c8d	0.03994422
124	0xbd76e3de	-0.060275905
125	0x3d5987d1	0.05310804
126	0xbd9ad7f8	-0.07560724
127	0x3cc3f836	0.023922067
128	0x3d0e4f7d	0.034743775
129	0x3d478588	0.04871133
130	0xbccff2d0	-0.025384337
131	0x3bbec13c	0.005821375
132	0x3d01e1d9	0.031709526
133	0x3d1491cd	0.03627186
134	0x3cdf36c0	0.027247787
135	0xbd9a944e	-0.07547818
136	0xbd687eb5	-0.056761462
137	0x3d249683	0.0401826
138	0xbda9a50d	-0.08283434
139	0xbcf04355	-0.029328981
140	0x3c602fb8	0.013683252
141	0x3b2ff147	0.0026846693
142	0xbc083630	-0.008313701
143	0x3d9d8881	0.07692052
144	0xbd675540	-0.056477785
145	0x3d1acd67	0.037793543
146	0x3c1a072e	0.009401126
147	0xbc3cca2c	-0.011522811
148	0x3d064391	0.03277928
149	0xbdbf9e24	-0.09356335
150	0x3cb5fdb3	0.0222157
151	0xbd1836c7	-0.037161615
152	0xbde22de8	-0.11043912
153	0x3c71b5cc	0.014752816
154	0x3d539dd9	0.051664207
155	0x3ccdf5fd	0.02514171
156	0x3d42e600	0.047582626
157	0xbdd01c88	-0.10161692
158	0xbdb6ff52	-0.08935417
159	0x3d0f6326	0.035006665
160	0x3d121006	0.035659812
161	0x3c9f6841	0.019458892
162	0x3c504db9	0.012713843
163	0x3c8863f4	0.016649224
164	0x3baa1989	0.0051910323
165	0x3b9620d3	0.0045815497
166	0x3d288396	0.041141115
167	0x3a32e3e7	0.0006824121
168	0x3cca0fed	0.024665797
169	0x3d6aaeb3	0.057295512
170	0xbb87c0b2	-0.004142844
171	0xbd7e3009	-0.06205753
172	0x3d2b92e9	0.04188815
173	0xbd21d926	-0.03951373
174	0xbd227fe0	-0.039672732
175	0xbabf820f	-0.0014610904
176	0xbd5dc15f	-0.05413949
177	0x3d030e1b	0.031995874
178	0x3d3ed702	0.046591766
179	0xbd83d91a	-0.06437893
180	0x3d0126c8	0.031531125
181	0xbd504b83	-0.050853264
182	0x3c147fd7	0.0090636825
183	0xbbf25d31	-0.007396363
184	0xbdbccd3f	-0.09218835
185	0xbc2ea207	-0.0106587475
186	0x3c93cf9c	0.018043332
187	0x3d5a7dc0	0.05334258
188	0xbd5dd9ab	-0.054162662
189	0xbd3c21aa	-0.045930542
190	0x3d3674b3	0.044544887
191	0x3cbefbe1	0.023313465
192	0xbd4410b6	-0.0478675
193	0x3cf02ca0	0.029318154
194	0x3c6b14e6	0.014348244
195	0x3c691023	0.014225039
196	0x3d4cce2c	0.05000131
197	0xbc8a8573	-0.016909337
198	0x3cbc9746	0.023021352
199	0xbb4dc1f7	-0.003139613
200	0x3d2c50f5	0.042069394
201	0x3ce10dab	0.027472338
202	0xbd9d5cc0	-0.07683706
203	0x3c4aeb5e	0.0123852175
204	0xbc350fb8	-0.011051111
205	0x3c4d76d6	0.01254054
206	0x3d312c2a	0.04325501
207	0x3bd42262	0.0064738253
208	0x3d6dbd22	0.0580417
209	0xbca5a43d	-0.020219916
210	0x3ab4f8a1	0.0013807007
211	0xbd4cbbad	-0.04998367
212	0xbd0e2930	-0.03470725
213	0x3d853ea5	0.06506089
214	0xbd805945	-0.06267027
215	0x3d08db0f	0.033412036
216	0x3ca01754	0.019542374
217	0xbd8266b4	-0.06367245
218	0x3d41e2cd	0.047335435
219	0x3c8999ed	0.01679703
220	0xbd991897	-0.07475393
221	0x3c8120b5	0.015762666
222	0xbd638d96	-0.05555495
223	0xbc0b142b	-0.008488695
224	0xbd4855b1	-0.048909847
225	0x3d212e1e	0.03935062
226	0x3d41708c	0.047226474
227	0x3d810f49	0.063017435
228	0x3d367a17	0.044550028
229	0x3d0b53b9	0.03401539
230	0xbb60cd32	-0.0034301993
231	0x3d1c4e81	0.038160805
232	0x3d351735	0.044211585
233	0xbc8daa90	-0.017293245
234	0x3d36538e	0.044513278
235	0x3c882ae9	0.016622024
236	0x3d69095d	0.056893695
237	0x3cbee9ff	0.023304937
238	0x3ac08dec	0.0014690734
239	0x3d68eba1	0.05686534
240	0xbd7fbe7e	-0.062437527
241	0x3cbc4742	0.022983197
242	0xbdbe67c8	-0.092971385
243	0x3c79e31d	0.015251902
244	0xbd9aa3ec	-0.07550797
245	0x3d28762c	0.041128322
246	0x3d09a3a7	0.033603337
247	0x3cbbefd6	0.022941511
248	0x3d64233e	0.055697672
249	0x3d25ebdd	0.04050814
250	0x3d4f025d	0.050539363
251	0x3ce94aac	0.02847799
252	0x3bfb4b1f	0.0076688672
253	0xbd4002ad	-0.04687755
254	0xbc8b86e0	-0.017032087
255	0x3cba1811	0.022716554
