spkrec-xvect/cmu_us_slt_arctic-wav-arctic_b0216.npy (npy, 2176 bytes, 1 tensors)

array f4 [512]
-0.08618726 -0.034843307 0.0050879084 0.04210181 0.027768465 -0.04349744 -0.052515477 -0.048770905
0.033735618 0.020400822 -0.062373374 -0.08460321 0.06933992 0.034714106 0.022957617 0.0413759
-0.013034389 0.024544196 0.0106001515 -0.0023021768 0.03481516 0.025849579 -0.015238501 -0.050376866
-0.05710483 -0.0072080153 -0.05281203 -0.015027019 0.06776387 0.030243015 -0.0028009806 0.04035078
0.044590436 -0.014971531 0.0047018463 -0.07911722 0.056503426 0.07409554 -0.07601808 -0.056112368
0.02153019 -0.0331772 0.040326614 0.02230628 0.037030756 -0.117046885 -0.018366102 0.014895513
-0.07671553 0.06297861 0.015921794 0.020813635 0.0066470485 0.03397818 -0.09894323 0.0051395674
-0.0031137967 0.031192578 0.024434043 0.022356091 -0.0017683507 -0.009163241 -0.011078903 0.049873564
0.009196152 0.018078826 0.02789789 -0.016802547 -0.04685914 -0.0695541 0.025998939 0.009590131
0.008534805 0.014346338 0.014827647 0.009563532 -0.0031260261 0.037821386 -0.046685796 -0.07874871
-0.06657391 -0.032277126 -0.05715083 -0.10009546 -0.031265344 -0.07007671 -0.061406232 0.053173196
0.0037875616 0.07133906 0.031544898 -0.088140845 0.023565795 -0.068800725 0.038749523 -0.050562955
0.027077733 0.04869368 -0.049944196 -0.07788525 0.0016646608 -0.030112945 -0.07612466 0.027462086
0.04149548 -0.03933991 0.032119706 0.051829696 0.023448128 0.0039512296 -0.08797304 0.038899504
0.07666193 0.009807923 0.03251091 0.057272498 -0.06999343 -0.010404404 -0.07138195 -0.026211228
0.018561961 -0.048124157 0.03483271 0.05462771 -0.055703204 0.080652945 -0.090468325 0.016618386
0.049314655 0.020223778 -0.012199837 0.02100224 0.057597674 0.04311774 0.013883533 -0.06708471
-0.05569143 -0.00079805957 -0.078236304 -0.06120116 0.02126756 0.0048192167 -0.022668855 0.06620399
-0.058074575 0.03314265 0.0014526641 -0.043023568 0.054079562 -0.093788676 0.049560264 -0.03858758
-0.07113436 0.042930827 0.018309724 0.0143120065 0.011607679 -0.066446684 -0.06959095 0.034823835
-0.0026359425 -0.006709302 0.02923013 -0.06338712 0.012099569 0.00985548 0.036755763 0.027150646
0.002471689 0.03874097 0.006550025 -0.07408597 0.04063839 -0.07039438 -0.013673598 0.0051360163
-0.043914136 0.019166443 0.038109854 -0.05926584 0.026410075 -0.047685236 0.025601916 0.038403004
-0.07127787 -0.00884818 0.01863685 0.04009542 -0.052797824 -0.04775207 -0.019156365 0.041389223
-0.04211514 0.04416762 0.019958865 0.03447446 0.027546396 0.015762234 0.0325213 -0.03427395
0.028765867 0.018640442 -0.066008426 0.005910265 0.01783317 0.017682966 0.010415154 -0.0057584676
0.034401458 -0.062362377 0.0022721177 -0.051218543 -0.04910011 0.047234222 -0.062990084 0.04171237
0.03888829 -0.06212669 0.0026055377 0.03332112 -0.067258514 0.045161214 -0.0775704 -0.03381243
0.056784336 0.027548406 0.048665635 0.07807659 0.04107914 0.033179455 -0.010983228 0.04981235
0.020955862 -0.03395579 0.038255986 -0.027722823 0.038983352 0.041335665 -0.00025573903 0.06035203
-0.06838393 0.026835017 -0.08534523 0.013883835 -0.059659034 0.027539514 0.021673054 0.029539485
0.0166245 0.049002837 0.024529595 0.014185565 0.0074501038 -0.07314424 0.0046174703 0.047989283
00000000: f282 b0bd dbb7 0ebd 78b8 a63b f372 2c3d
00000010: b17a e33c 5f2a 32bd 781a 57bd 00c4 47bd
00000020: 5c2e 0a3d a01f a73c 397b 7fbd 7344 adbd
00000030: 1702 8e3d 6130 0e3d 9d11 bc3c c779 293d
00000040: 318e 55bc e910 c93c 42ac 2d3c 1ee0 16bb
00000050: 579a 0e3d 7fc2 d33c e8aa 79bc f957 4ebd
00000060: c1e6 69bd 3731 ecbb 6d51 58bd e333 76bc
00000070: c9c7 8a3d 33c0 f73c a890 37bb dc46 253d
00000080: 76a4 363d 274b 75bc f211 9a3b 3608 a2bd
00000090: 2370 673d 67bf 973d 5eaf 9bbd 15d6 65bd
000000a0: 1560 b03c d1e4 07bd 852d 253d a9bb b63c
000000b0: 90ad 173d 47b6 efbd 8274 96bc 4f0c 743c
000000c0: 081d 9dbd eefa 803d 6c6e 823c 5b81 aa3c
000000d0: 7ccf d93b b42c 0b3d c0a2 cabd d169 a83b
000000e0: d710 4cbb 9487 ff3c e729 c83c 1f24 b73c
000000f0: 01c8 e7ba 6b21 16bc 4a84 35bc 3948 4c3d
00000100: 75ab 163c 0c1a 943c 1e8a e43c 7fa5 89bc
00000110: 5fef 3fbd 6172 8ebd bafb d43c ed1f 1d3c
00000120: 91d5 0b3c e70c 6b3c a9ef 723c 5cb0 1c3c
00000130: 04de 4cbb 99ea 1a3d 9b39 3fbd 0147 a1bd
00000140: e757 88bd 0535 04bd fd16 6abd d9fe ccbd
00000150: 1710 00bd 6184 8fbd 1a85 7bbd 23cc 593d
00000160: bd38 783b 371a 923d 3935 013d 3083 b4bd
00000170: 0e0d c13c 65e7 8cbd d2b7 1e3d 1a1b 4fbd
00000180: 1fd2 dd3c 0673 473d 4992 4cbd 4d82 9fbd
00000190: bf30 da3a 6caf f6bc 3fe7 9bbd 2bf8 e03c
000001a0: 2af7 293d e322 21bd f48f 033d 604b 543d
000001b0: 4a16 c03c 5179 813b 362b b4bd 1655 1f3d
000001c0: ee00 9d3d 69b1 203c 292a 053d 9196 6a3d
000001d0: b758 8fbd 3c77 2abc b330 92bd eeb8 d6bc
000001e0: 410f 983c d61d 45bd beac 0e3d 4ec1 5f3d
000001f0: 0b29 64bd 5f2d a53d 7547 b9bd 4823 883c
00000200: 2afe 493d 56ac a53c d3e1 47bc e40c ac3c
00000210: 8aeb 6b3d 3a9c 303d c277 633c b563 89bd
00000220: b21c 64bd df34 51ba 5b3a a0bd 11ae 7abd
00000230: 4e39 ae3c 85ea 9d3b 09b4 b9bc f595 873d
00000240: 9bdf 6dbd 96c0 073d 5267 be3a 7b39 30bd
00000250: 8882 5d3d 4714 c0bd b4ff 4a3d 030e 1ebd
00000260: e4ae 91bd 3cd8 2f3d 46fe 953c e87c 6a3c
00000270: 222e 3e3c 3315 88bd b385 8ebd 70a3 0e3d
00000280: c7bf 2cbb b4d9 dbbb 0774 ef3c 1bd1 81bd
00000290: 453d 463c e178 213c 368d 163d 086b de3c
000002a0: 0ffc 213b daae 1e3d 98a1 d63b 63ba 97bd
000002b0: 7174 263d ee2a 90bd 3a07 60bc 074c a83b
000002c0: 4fdf 33bd f202 9d3c 1419 1c3d bdc0 72bd
000002d0: f159 d83c 9851 43bd 1cbb d13c 784c 1d3d
000002e0: 22fa 91bd f5f7 10bc 4fac 983c 183b 243d
000002f0: 8842 58bd ad97 43bd cfed 9cbc bf87 293d
00000300: ed80 2cbd 1be9 343d c680 a33c 1735 0d3d
00000310: fba8 e13c cd1f 813c 0e35 053d d762 0cbd
00000320: 65a6 eb3c d7b3 983c 6d2f 87bd e5aa c13b
00000330: de16 923c dedb 903c 52a4 2a3c 87b1 bcbb
00000340: 8be8 0c3d b16f 7fbd cfe7 143b 89ca 51bd
00000350: 321d 49bd ac78 413d f200 81bd 97da 2a3d
00000360: 5449 1f3d 8e78 7ebd abc1 2a3b ba7b 083d
00000370: d5be 89bd f7fa 383d 3bdd 9ebd e77e 0abd
00000380: b196 683d 32ad e13c 9e55 473d 9fe6 9f3d
00000390: 9a42 283d 2ee7 073d fff2 33bc 0908 4c3d
000003a0: a1ab ab3c 3a15 0bbd 4fb2 1c3d f91a e3bc
000003b0: 02ad 1f3d 964f 293d b614 86b9 b133 773d
000003c0: e00c 8cbd 1cd5 db3c 7bc9 aebd 0679 633c
000003d0: 085d 74bd 8c9a e13c b08b b13c cafc f13c
000003e0: 1a30 883c 33b7 483d 4af2 c83c 926a 683c
000003f0: 0020 f43b a6cc 95bd 264e 973b 6990 443d
