spkrec-xvect/cmu_us_ksp_arctic-wav-arctic_b0361.npy (npy, 2176 bytes, 1 tensors)

array f4 [512]
-0.06486188 0.022936404 0.028276281 0.022401711 0.045198936 -0.033092253 -0.07346424 0.01622808
0.023804618 0.017784562 -0.062093716 -0.056512963 0.05241738 0.024316946 0.07404517 0.045339894
-0.00874039 0.043659747 0.0144863855 -0.006885513 0.03477933 0.038976908 -0.016684571 -0.050175156
-0.050277177 -0.0067800814 -0.051705908 -0.0112589905 0.074428305 0.030714761 -0.0025364168 0.04552494
0.02206107 0.03189931 0.0549668 -0.046665303 0.022387672 0.042724244 0.0022469256 -0.057080917
0.027484499 -0.010670318 0.0289668 0.02822576 0.032358862 -0.110143624 -0.01883401 0.012248086
-0.08986551 0.03841296 0.0034994201 0.022812264 0.006626831 0.040215887 -0.09483622 -0.03267207
-0.045184907 0.018914955 0.03588368 0.0020758212 0.032181855 -0.008662406 -0.01911556 0.013384533
0.033658344 0.012353036 0.029084073 -0.039378107 -0.049891 -0.07037474 0.014515054 0.012880861
0.044432193 0.012995877 -0.0060055056 0.046967167 0.03248177 0.020017242 -0.053698704 -0.08496787
-0.088393725 -0.053864036 -0.07058174 -0.050434325 -0.0335254 -0.05362496 -0.053482283 0.009870476
0.025047118 -0.036516145 0.027597664 -0.0802299 0.004030793 -0.07753625 0.024561057 -0.016113799
0.039992448 0.037843045 -0.03963328 -0.04994238 0.027755424 -0.059636906 -0.08823066 0.0036274155
0.05269963 0.007318129 0.051271934 0.03797648 0.042430807 0.020985218 -0.06729338 -0.018283729
0.06837602 -0.00037098004 0.04066042 0.065727465 -0.076290935 0.021562258 -0.06423712 0.020676415
0.024526631 -0.066351354 0.030598368 0.0559691 -0.06581076 0.05922736 -0.0782472 0.039005388
0.031513683 0.05903405 -0.042813454 0.026809547 0.026795087 0.04791961 0.034670666 -0.072962895
-0.05130705 0.03706993 -0.10126939 -0.03312076 0.009638624 0.0023519185 -0.049143404 0.074495114
-0.06413104 0.027143147 0.034511473 -0.012807684 0.020201588 -0.08949339 0.015719768 -0.04544662
-0.08949159 0.010417383 0.035000682 0.019681957 0.07109233 -0.08071825 -0.10007266 0.045764185
0.0029309033 0.0030445843 0.030958453 0.0028377494 0.013361349 0.0060659293 0.04235126 0.016878406
0.040734395 0.03548741 0.01596358 -0.07465497 0.023437815 -0.06998295 -0.034212902 -0.005156672
-0.05235783 0.023443291 0.057248365 -0.06561484 0.030177295 -0.057532668 0.02305744 0.012187377
-0.07278375 -0.010455481 0.013274111 0.040282488 -0.05895652 -0.070748895 0.050998814 0.008388236
-0.060604695 0.016240684 0.019491425 0.0062677925 0.0336488 0.020926194 0.042623967 0.00026722276
0.04520861 0.009667409 -0.051639065 0.011383294 -0.013812557 0.014460132 0.064265266 -0.0028094442
0.03991208 -0.016980277 0.0044523673 -0.058540624 -0.04560749 0.048723996 -0.064919166 0.05353679
0.0068780165 -0.060260907 0.030797271 0.013270449 -0.06673651 0.020654516 -0.0532116 -0.039753035
-0.04412626 0.057048645 0.043740157 0.07171572 0.033878397 0.027902553 -0.00698536 0.026824567
0.037113726 -0.029633947 0.03004723 0.016017674 0.0631765 0.032014884 0.0011373061 0.04044988
-0.060542203 0.023981588 -0.0851096 0.019541131 -0.0737428 0.03958607 0.037811257 0.025775388
0.049844146 0.034902222 0.04734958 -0.014854281 0.009879642 -0.06548028 0.019480443 0.039489314
00000000: 4ed6 84bd 20e5 bb3c a9a3 e73c cb83 b73c
00000010: 8522 393d be8b 07bd 6b74 96bd c0f0 843c
00000020: e701 c33c eeb0 913c fb55 7ebd 237a 67bd
00000030: 9bb3 563d 5534 c73c fea4 973d 53b6 393d
00000040: da33 0fbc 90d4 323d 4e58 6d3c df9f e1bb
00000050: c574 0e3d 40a6 1f3d 15ae 88bc 7784 4dbd
00000060: 71ef 4dbd 722b debb 93c9 53bd a177 38bc
00000070: de6d 983d 869d fb3c 033a 26bb 5c78 3a3d
00000080: 6bb9 b43c daa8 023d de24 613d 1e24 3fbd
00000090: 5a66 b73c 9eff 2e3d 2841 133b aecd 69bd
000000a0: 2c27 e13c 8fd2 2ebc c84b ed3c b639 e73c
000000b0: ba8a 043d fb92 e1bd c849 9abc 32ac 483c
000000c0: 690b b8bd e856 1d3d 8756 653b c9e0 ba3c
000000d0: e325 d93b 6ab9 243d 7e39 c2bd 26d3 05bd
000000e0: cf13 39bd 89f3 9a3c c4fa 123d 800a 083b
000000f0: 1fd1 033d c4ec 0dbc 3c98 9cbc cd4a 5b3c
00000100: 55dd 093d 6364 4a3c b941 ee3c f04a 21bd
00000110: 815a 4cbd a220 90bd 8dd0 6d3c 3f0a 533c
00000120: 88fe 353d a9ec 543c d5c9 c4bb a560 403d
00000130: 9b0b 053d 33fb a33c 2cf3 5bbd a203 aebd
00000140: c507 b5bd 89a0 5cbd 298d 90bd 3994 4ebd
00000150: ee51 09bd d9a5 5bbd 3d10 5bbd c7b7 213c
00000160: 9d2f cd3c f491 15bd 7f14 e23c 934f a4bd
00000170: be14 843b 53cb 9ebd 4534 c93c 1601 84bc
00000180: 1fcf 233d 4f01 1b3d 8256 22bd 6290 4cbd
00000190: 585f e33c d445 74bd 47b2 b4bd efb9 6d3b
000001a0: 91db 573d eacc ef3b 8502 523d 3a8d 1b3d
000001b0: edcb 2d3d 31e9 ab3c 1dd1 89bd c2c7 95bc
000001c0: ba08 8c3d 1980 c2b9 8a8b 263d 1f9c 863d
000001d0: 6c3e 9cbd 55a3 b03c c08e 83bd 9661 a93c
000001e0: 13ec c83c 38e3 87bd 6ea9 fa3c db3f 653d
000001f0: cbc7 86bd 6398 723d 1140 a0bd 1dc4 1f3d
00000200: 7e14 013d b0cd 713d 295d 2fbd b29f db3c
00000210: 5f81 db3c 5a47 443d d402 0e3d 926d 95bd
00000220: 5727 52bd a4d6 173d 5366 cfbd a2a9 07bd
00000230: 52eb 1d3c a522 1a3b 984a 49bd e590 983d
00000240: 2257 83bd 4e5b de3c e75b 0d3d 52d7 51bc
00000250: cd7d a53c 4f48 b7bd bec6 803c 3c26 3abd
00000260: 5e47 b7bd acad 2a3c e05c 0f3d 0e3c a13c
00000270: db98 913d 9c4f a5bd e5f2 ccbd 3a73 3b3d
00000280: 6614 403b a687 473b 959c fd3c 89f9 393b
00000290: 8fe9 5a3c b4c4 c63b 8478 2d3d 9544 8a3c
000002a0: 1cd9 263d 3f5b 113d 0ec6 823c b4e4 98bd
000002b0: a900 c03c 3953 8fbd d422 0cbd 4df9 a8bb
000002c0: 2a75 56bd 250c c03c 437d 6a3d 1361 86bd
000002d0: 6036 f73c 60a7 6bbd f5e2 bc3c 90ad 473c
000002e0: a60f 95bd 774d 2bbc a87b 593c 40ff 243d
000002f0: 647c 71bd cce4 90bd 22e4 503d d06e 093c
00000300: a13c 78bd 2f0b 853c 7bac 9f3c 0e62 cd3b
00000310: 53d3 093d 696d ab3c 7896 2e3d 081a 8c39
00000320: aa2c 393d 0d64 1e3c 7c83 53bd ff80 3a3c
00000330: 104e 62bc 31ea 6c3c 829d 833d a71e 38bb
00000340: d97a 233d 391a 8bbc 2ae5 913b 4bc8 6fbd
00000350: ebce 3abd d092 473d 57f4 84bd 6549 5b3d
00000360: fc60 e13b 24d4 76bd 8f4a fc3c 4c6c 593c
00000370: 27ad 88bd a933 a93c 68f4 59bd 14d4 22bd
00000380: bdbd 34bd d7ab 693d e128 333d b1df 923d
00000390: 13c4 0a3d e593 e43c 72e5 e4bb 32bf db3c
000003a0: 9004 183d e4c2 f2bc 9c25 f63c 7f37 833c
000003b0: ae62 813d 0a22 033d a911 953a c6ae 253d
000003c0: 1afb 77bd 0975 c43c f14d aebd b914 a03c
000003d0: 7706 97bd 0125 223d fadf 1a3d e826 d33c
000003e0: 6029 4c3d a2f5 0e3d a2f1 413d 5f5f 73bc
000003f0: 39de 213c 861a 86bd 7395 9f3c 8cbf 213d
