spkrec-xvect/cmu_us_rms_arctic-wav-arctic_b0506.npy (npy, 2176 bytes, 1 tensors)

array f4 [512]
0	0xbd926fef	-0.07150256
1	0x3ca2db3b	0.019879928
2	0x3c54b3a1	0.01298228
3	0x3d52f248	0.05150059
4	0xbc050286	-0.008118277
5	0xbd1ab313	-0.037768435
6	0xbd4ee5c5	-0.050512094
7	0x3d37cfd5	0.04487594
8	0x3ba46dfc	0.005017994
9	0x3c9599d6	0.018261831
10	0xbd7a28d1	-0.06107408
11	0xbdca31f6	-0.098728105
12	0x3d763f2f	0.06011885
13	0x3cb84acb	0.022496602
14	0x3d31cc57	0.043407764
15	0x3d07b659	0.033132885
16	0xbcaa6bfa	-0.02080344
17	0x3cc04c8e	0.023474004
18	0x3c3c04cc	0.011475753
19	0xbc317627	-0.010831392
20	0x3d18df2d	0.037322212
21	0x3d52d108	0.05146888
22	0xbc808c40	-0.015691876
23	0xbce35ac7	-0.027753247
24	0xbd83543e	-0.06412552
25	0xbbfc14aa	-0.007692893
26	0xbd537507	-0.051625278
27	0xbc4e1700	-0.012578726
28	0x3d92054c	0.071299165
29	0x3ca6be69	0.020354467
30	0xbb296551	-0.0025847743
31	0x3d7a20f9	0.0610666
32	0x3c415ed7	0.011802397
33	0x3b735e1a	0.0037134946
34	0x3d87271c	0.065992564
35	0xbd8f175e	-0.06986879
36	0x3d3f8565	0.046758074
37	0x3d009854	0.03139527
38	0xbc14a622	-0.009072812
39	0xbd65584a	-0.055992402
40	0x3ad2822b	0.0016060522
41	0xbb9df0b1	-0.0048199524
42	0x3d1d6e1c	0.038435087
43	0x3d70a0d0	0.058747113
44	0x3d2ec619	0.04266939
45	0xbdeddd20	-0.11614442
46	0xbc9b51fd	-0.018959993
47	0x3c5b6fa5	0.013393317
48	0xbd945cd6	-0.072442695
49	0x3d16ae3c	0.036787257
50	0x3c9e7315	0.019341985
51	0x3d282729	0.04105297
52	0xbca680d4	-0.020325102
53	0x3d0886eb	0.033331793
54	0xbdd50627	-0.10401564
55	0xbd496443	-0.049167883
56	0xbd1c86e6	-0.038214587
57	0x3cc61f57	0.024184866
58	0x3cbcb013	0.023033177
59	0x3c66c8ce	0.0140859615
60	0x3b9c6598	0.004772853
61	0xbc1bab73	-0.009501326
62	0xbc62acb4	-0.013835121
63	0x3b7204d9	0.003692916
64	0x3c77c3e5	0.0151223885
65	0x3d091ef5	0.03347679
66	0x3cfdecf1	0.030996772
67	0xbcf5c95e	-0.030003246
68	0xbd5cf54b	-0.053944867
69	0xbd599170	-0.053117216
70	0xb997e54a	-0.00028971798
71	0x3c3bc8fc	0.011461493
72	0x3c2073bc	0.009793218
73	0x3c6cb2ec	0.014446955
74	0x3c94322a	0.018090326
75	0x3cb63050	0.022239834
76	0x3c4458ac	0.011984032
77	0x3c7e1b7f	0.015509485
78	0xbd81964d	-0.06327496
79	0xbd972e35	-0.0738186
80	0xbd58a7c4	-0.05289437
81	0xbd6db6a1	-0.058035497
82	0xbd814311	-0.0631162
83	0xbd88e37c	-0.06684014
84	0xbd03b132	-0.03215141
85	0xbd96a79a	-0.07356186
86	0xbd472639	-0.048620436
87	0x3d76ee28	0.060285717
88	0x3c80ac81	0.015707256
89	0xbd1e6280	-0.038668156
90	0x3cf984fe	0.030458923
91	0xbda4f22c	-0.08054003
92	0x3c629eaa	0.013831774
93	0xbdba9b33	-0.09111633
94	0x3ce2428a	0.027619619
95	0xbd2ceb79	-0.04221675
96	0x3d23aedf	0.039961692
97	0x3d62a86a	0.055336393
98	0xbd0c4262	-0.034242995
99	0xbd98b462	-0.0745628
100	0xbc5dd1b7	-0.013538769
101	0xbd68845d	-0.056766856
102	0xbde25bdc	-0.11052677
103	0x3cf21e64	0.029555507
104	0x3d29bc88	0.041439563
105	0x3caefb51	0.021360071
106	0x3d39c855	0.045357067
107	0x3d0f92a6	0.035051964
108	0x3d71a7d9	0.058997963
109	0x3d0c2e4a	0.034223832
110	0xbd9e0dbf	-0.077174656
111	0xbbad2eed	-0.005285135
112	0x3dac8eaa	0.084256485
113	0x3b4c0010	0.0031127967
114	0x3d1c8bb7	0.03821918
115	0x3d44b4a6	0.048023842
116	0xbd8c88a3	-0.06861999
117	0x3d0c6ad3	0.034281563
118	0xbd7c9ad9	-0.06167111
119	0x3d2688f3	0.04065795
120	0x3c5f30dd	0.01362249
121	0xbd5916e6	-0.053000353
122	0x3d2ba0aa	0.041901268
123	0x3d5e6701	0.05429745
124	0xbd85a8bb	-0.065263234
125	0x3d4c4a40	0.049875498
126	0xbdb67406	-0.089088485
127	0x3d53f173	0.051743936
128	0x3d498f56	0.04920896
129	0x3d29e4e4	0.041478053
130	0xbcabeac3	-0.020985967
131	0x3caf183f	0.021373866
132	0x3d3cb851	0.046074215
133	0x3d34fbd9	0.044185493
134	0x3c394e46	0.011310166
135	0xbd79766d	-0.060903955
136	0xbd71d31f	-0.05903923
137	0x3c229732	0.009923743
138	0xbd716acb	-0.058939736
139	0xbd03d3a0	-0.032184243
140	0x3befdc76	0.007319982
141	0x3b97d11a	0.004633081
142	0xbc9288fa	-0.017887581
143	0x3da27dd8	0.07934159
144	0xbd8601b7	-0.06543296
145	0x3d0008e1	0.031258468
146	0xbcaf643d	-0.021410102
147	0xbd1dfa48	-0.038568765
148	0x3cbcf97d	0.023068184
149	0xbdd213a7	-0.10257655
150	0x3d33bf79	0.043883774
151	0xbd27a053	-0.04092438
152	0xbd992ed5	-0.074796356
153	0x3d2a363c	0.04155563
154	0x3c96e722	0.01842076
155	0x3d30a42c	0.043125317
156	0x3cfda303	0.03096152
157	0xbd7a6c0e	-0.061138205
158	0xbdcf84ef	-0.10132777
159	0x3d1e2677	0.0386109
160	0x3ad1ca9c	0.0016005817
161	0xbbd2e81f	-0.0064363624
162	0x3aa882d7	0.0012856376
163	0x3cb05805	0.021526346
164	0x3ce261d7	0.027634544
165	0x3be0c000	0.0068588257
166	0x3d328430	0.043583095
167	0xba974a2f	-0.0011542494
168	0x3c9bfd53	0.019041693
169	0x3d0357b5	0.032066066
170	0x3c6cb533	0.014447498
171	0xbda245fe	-0.07923506
172	0x3d10fce1	0.035397414
173	0xbdb73c89	-0.08947093
174	0xbc84dfb5	-0.016219953
175	0x3b12b380	0.0022384822
176	0xbd6a87c3	-0.05725838
177	0x3cf2bf0b	0.029632112
178	0x3cbf64e1	0.023363532
179	0xbdba1b20	-0.09087205
180	0x3d1f3206	0.038866065
181	0xbd3a6d2c	-0.04551427
182	0x3ba84d87	0.005136195
183	0x3ca7b0c1	0.020470025
184	0xbda84b3b	-0.08217474
185	0xbc31aca4	-0.010844383
186	0x3d182472	0.037144132
187	0x3cf7e719	0.030261563
188	0xbd894539	-0.06702656
189	0xbd474a77	-0.048655
190	0x3cb75dfa	0.022383679
191	0x3cfa0f6f	0.030524937
192	0xbd85297b	-0.065020524
193	0x3d2745ae	0.040837936
194	0x3ca6ba61	0.020352544
195	0x3c0d323a	0.008617932
196	0x3cdf6d35	0.027273754
197	0x3c649ac6	0.0139529165
198	0x3d2234b6	0.03960105
199	0xbaa4fdaa	-0.0012587805
200	0x3c9563f3	0.018236136
201	0x3cc9907e	0.024605032
202	0xbd85297e	-0.06502055
203	0x3c32cd84	0.010913257
204	0xbc19829b	-0.009369518
205	0x3c93b51a	0.018030692
206	0x3d18d705	0.037314434
207	0x3bd30661	0.0064399694
208	0x3c9881cf	0.018616585
209	0xbbd228f7	-0.006413575
210	0x3b467f74	0.003028837
211	0xbd8b877b	-0.0681295
212	0xbd87db9e	-0.066336855
213	0x3d34025d	0.043947566
214	0xbd4f63be	-0.05063223
215	0x3d49f514	0.04930599
216	0x3d59a682	0.05313731
217	0xbd6bc1a7	-0.05755773
218	0x3c703f87	0.014663584
219	0x3d1ffad6	0.039057575
220	0xbd23b9de	-0.03997218
221	0x3cbab5e6	0.022791814
222	0xbd860038	-0.065430105
223	0xbd0bc9b3	-0.034127902
224	0xbd2b4185	-0.04181053
225	0x3cf6f1f0	0.030144662
226	0x3d9c29e4	0.076251775
227	0x3d93c382	0.072150245
228	0x3d47643c	0.048679575
229	0x3ca78129	0.02044733
230	0xba82110b	-0.0009923292
231	0x3ccc97f2	0.024974797
232	0x3c539dba	0.012916023
233	0xbcb0b78f	-0.021571903
234	0x3be69abe	0.0070374897
235	0xbc5ef7a1	-0.013608844
236	0x3d419837	0.047264304
237	0x3cff2238	0.031144246
238	0x3ad54d72	0.0016273691
239	0x3d8d8bcd	0.069114305
240	0xbd826d02	-0.06368448
241	0x3cc55dc2	0.024092559
242	0xbdd38860	-0.10328746
243	0x3c8ae17c	0.016953222
244	0xbd7803c4	-0.060550466
245	0x3d1159ec	0.035486147
246	0x3cbafa3a	0.022824395
247	0x3d202a97	0.039103117
248	0x3cda6e57	0.026663942
249	0x3d5b5530	0.053548038
250	0x3d186f97	0.037215795
251	0x3c928062	0.017883483
252	0x3bfdca82	0.007745088
253	0xbd8e6d8d	-0.06954489
254	0xbb429af9	-0.0029694422
255	0x3d37ad1e	0.04484283
