spkrec-xvect/cmu_us_clb_arctic-wav-arctic_b0521.npy (npy, 2176 bytes, 1 tensors)

array f4 [512]
0	0xbdc1b61e	-0.09458564
1	0xbd2ee7ee	-0.042701654
2	0x3d3bf47e	0.045887463
3	0x3d43db1a	0.047816373
4	0xbc82bca1	-0.015959086
5	0xbd056b3f	-0.03257298
6	0xbd164a1d	-0.036691774
7	0xbd455e53	-0.048185658
8	0x3cda0ab8	0.02661644
9	0x3c93637c	0.017991774
10	0xbd910252	-0.07080521
11	0xbd7710cb	-0.06031875
12	0x3d80878c	0.062758535
13	0x3d1bd7b4	0.038047507
14	0x3cac9b47	0.021070136
15	0x3daa772a	0.0832351
16	0x3b7262c8	0.0036985148
17	0x3c32ab2e	0.01090507
18	0x3c6640f0	0.014053568
19	0x3b05a0df	0.0020390076
20	0x3cff9321	0.031198086
21	0x3c18a119	0.009315752
22	0xbc827e2d	-0.015929306
23	0xbd6a0158	-0.057130188
24	0xbd4c38c9	-0.049858842
25	0xbc0237e7	-0.0079478985
26	0xbd5da92d	-0.054116417
27	0x3ca9ed83	0.020743137
28	0x3d61bfdc	0.055114612
29	0x3cfc64e1	0.030809822
30	0xbb1c9bc9	-0.0023896566
31	0x3d66b5be	0.056325667
32	0x3c250d8d	0.010074032
33	0xbd15801b	-0.036499124
34	0x3cbddb91	0.023175986
35	0xbd9d97b9	-0.076949544
36	0x3d3fe7bd	0.046851862
37	0x3d720b47	0.059092786
38	0xbd2979d3	-0.041375946
39	0xbd9d3bee	-0.07677446
40	0x3c5af2b6	0.013363531
41	0xbc01ffd4	-0.007934529
42	0x3c153ae4	0.009108279
43	0x3d39bd01	0.045346264
44	0x3c22daff	0.009939908
45	0xbdd1eb69	-0.10249979
46	0xbc9c451e	-0.019075926
47	0x3c44dcfd	0.012015578
48	0xbda7b414	-0.08188644
49	0x3d3c4a24	0.045969144
50	0x3bd7ac07	0.0065817866
51	0x3d3e2d6d	0.04643004
52	0x3d60102a	0.054702915
53	0x3cffb1b0	0.031212658
54	0xbd9d335b	-0.07675811
55	0xbc187037	-0.009304098
56	0xbc398014	-0.01132204
57	0x3c892fae	0.016746368
58	0x3c9c26a7	0.0190614
59	0x3ccc1984	0.02491451
60	0x3cc05e21	0.023482384
61	0xbc144c6e	-0.009051425
62	0xbc71c948	-0.014757462
63	0x3d0b1360	0.033954024
64	0x3c035a5d	0.00801715
65	0x3ce85efe	0.028365608
66	0xbc4c510e	-0.012470497
67	0xbd4270d8	-0.047470897
68	0xbd7a5a63	-0.061121356
69	0xbd9dac70	-0.076989055
70	0x3cd9518c	0.026528142
71	0x3c21846e	0.009858234
72	0xbcb78e86	-0.022406828
73	0x3c3de6fb	0.011590715
74	0x3d5319be	0.05153822
75	0x3cc9382a	0.024562914
76	0x3c56db81	0.013113857
77	0x3c9edef2	0.019393418
78	0xbd454eaa	-0.048170723
79	0xbdab2438	-0.083565176
80	0xbd9585eb	-0.073009335
81	0xbd81f351	-0.06345237
82	0xbd93d7ea	-0.07218917
83	0xbda8b2be	-0.08237217
84	0xbceebf28	-0.029143885
85	0xbd20f155	-0.039292652
86	0xbd97feb5	-0.074216284
87	0x3d9288f1	0.07155026
88	0x3b9c5f3d	0.0047720955
89	0x3d72217b	0.05911396
90	0x3cd74bea	0.026281316
91	0xbd8ff394	-0.07028881
92	0x3c837ee3	0.016051715
93	0xbd6b726c	-0.057482168
94	0x3d441822	0.047874577
95	0xbd47d17a	-0.048783757
96	0x3d1a61a0	0.03769076
97	0x3d63cb84	0.05561401
98	0xbd87e7bb	-0.06635996
99	0xbdbccfcb	-0.09219321
100	0x3c9cdae8	0.019147351
101	0xbd6b71bb	-0.05748151
102	0xbd80e7fa	-0.06294246
103	0x3caec834	0.021335699
104	0x3d59da8c	0.05318694
105	0xbcc46a4c	-0.023976468
106	0x3c9d2ec1	0.019187333
107	0x3d48bd49	0.04900864
108	0x3d1525d3	0.036413025
109	0x3cacfbd5	0.021116177
110	0xbdcaddd2	-0.0990559
111	0x3d348f0a	0.044081725
112	0x3da627f0	0.08113086
113	0x3c377a88	0.011198647
114	0x3ce54444	0.027986653
115	0x3d51025b	0.051027637
116	0xbdb0d979	-0.086352296
117	0x3c617061	0.013759703
118	0xbd4d1748	-0.05007103
119	0xbbdde4d6	-0.006771664
120	0x3cadffbd	0.02124011
121	0xbd204975	-0.039132554
122	0x3c7e1e3e	0.01551014
123	0x3c61ec8f	0.01378931
124	0xbd6881b4	-0.05676432
125	0x3d3915f1	0.04518694
126	0xbdaebe1d	-0.08532355
127	0x3c91603e	0.017746087
128	0x3cad758c	0.021174215
129	0x3cfb56aa	0.030680973
130	0xbbb00b46	-0.0053724376
131	0x3cd7a923	0.026325768
132	0x3d22999f	0.039697286
133	0x3d108816	0.03528603
134	0x3ca899df	0.020581184
135	0xbd83d6d5	-0.0643746
136	0xbd31a8a3	-0.043373715
137	0xbc8de360	-0.017320335
138	0xbda6573c	-0.081221074
139	0xbd344e46	-0.04401996
140	0x3c5ec26a	0.013596157
141	0x3b981714	0.004641423
142	0xbca1ed48	-0.019766465
143	0x3d502424	0.050815716
144	0xbd87dd1f	-0.066339724
145	0x3d00e545	0.03146865
146	0xbc33ea11	-0.010981099
147	0xbd01d02f	-0.03169268
148	0x3cc76d47	0.0243441
149	0xbda31856	-0.07963626
150	0x3d0007e7	0.031257536
151	0xbd4bd31b	-0.049761873
152	0xbdc165f6	-0.09443276
153	0x3b720b49	0.0036932996
154	0x3b2838c6	0.0025668605
155	0x3d1fbd6c	0.038999006
156	0x3c07f159	0.008297288
157	0xbdaef31a	-0.08542462
158	0xbd9db2b3	-0.077001
159	0x3d3d2a9e	0.04618322
160	0x3d2870b2	0.0411231
161	0xb8e5cf10	-0.00010958139
162	0x3cb70799	0.02234249
163	0xbd020a42	-0.031748064
164	0xbc345379	-0.01100623
165	0x3c0bc98b	0.008531938
166	0x3d210205	0.039308567
167	0x3d4e9c40	0.05044198
168	0x3c86b6b9	0.01644455
169	0x3c88a00e	0.016677883
170	0x3d19152f	0.037373718
171	0xbdb331e9	-0.08749754
172	0x3d77697f	0.060403343
173	0xbd804c3e	-0.06264542
174	0xbb1df0c4	-0.0024099806
175	0x3c0554b8	0.008137874
176	0xbd5da35c	-0.05411087
177	0x3d29fecd	0.041502763
178	0x3cf1f0e2	0.029533807
179	0xbd7fbb6a	-0.06243459
180	0x3c9f859e	0.019472893
181	0xbd130cd4	-0.035900906
182	0xbb997908	-0.0046836175
183	0x3d3ae1d1	0.04562551
184	0xbd889a15	-0.06670014
185	0xbc169aa9	-0.009192147
186	0x3d4a11bc	0.04933332
187	0x3d145a7f	0.036219116
188	0xbd7c64a1	-0.061619405
189	0xbd2d12b9	-0.042254183
190	0xbb9d2d6e	-0.0047966754
191	0x3d717ca0	0.058956742
192	0xbd4493f1	-0.04799265
193	0x3c9248ca	0.017856974
194	0x3cbc855c	0.02301281
195	0x3d082574	0.033238843
196	0x3d300d54	0.04298146
197	0x3bd2fae4	0.0064386
198	0x3d3eab6f	0.04655021
199	0xbcb790cc	-0.022407912
200	0x3c61860a	0.013764868
201	0x3c35c064	0.011093233
202	0xbd81553f	-0.063150875
203	0x3be34689	0.0069358987
204	0x3cab3636	0.020899873
205	0x3c488329	0.012238302
206	0x3d1b4593	0.037908148
207	0xbbdacdce	-0.006677366
208	0x3cc45ac7	0.023969067
209	0xbd0f9ff5	-0.035064656
210	0x3b5ffab9	0.0034176542
211	0xbd4f973c	-0.050681338
212	0xbd5e18a9	-0.054222737
213	0x3d04bc30	0.032406032
214	0xbd39e7dd	-0.045387138
215	0x3ce99774	0.028514601
216	0x3d1a3811	0.037651125
217	0xbd9528b1	-0.07283152
218	0x3cfd221d	0.030900056
219	0x3d03f5c9	0.03221682
220	0xbda8eb50	-0.08248007
221	0x3caf7a7b	0.021420708
222	0xbd7979e6	-0.060907267
223	0xbd21c20c	-0.0394917
224	0x3d82397b	0.0635862
225	0x3d2489f3	0.04017062
226	0x3d5d100c	0.05397038
227	0x3db03e90	0.08605683
228	0x3d956ae6	0.0729578
229	0x3d5bb065	0.05363502
230	0xbc26dead	-0.010184926
231	0x3d2710ce	0.04078751
232	0x3d129b19	0.035792444
233	0xbd247633	-0.040151786
234	0xbb3fd10d	-0.002926889
235	0xbd2c0a2e	-0.042001896
236	0x3d017f28	0.031615406
237	0x3cb964b8	0.022631034
238	0xba9a8d98	-0.0011791466
239	0x3d597583	0.053090584
240	0xbd5f5551	-0.054524723
241	0x3cb76376	0.022386294
242	0xbdcb669f	-0.09931683
243	0x3d19ccfa	0.037548997
244	0xbd5d41bb	-0.054017764
245	0x3c9e5c33	0.019331073
246	0x3cafdc34	0.021467306
247	0x3d044d98	0.03230056
248	0xbb84daab	-0.0040543876
249	0x3d750685	0.05982067
250	0x3c8d56da	0.017253328
251	0x3d093037	0.033493247
252	0x3c183eae	0.009292288
253	0xbd0211c3	-0.03175522
254	0x3c9c2218	0.019059226
255	0x3d230a73	0.039804887
