spkrec-xvect/cmu_us_slt_arctic-wav-arctic_b0366.npy (npy, 2176 bytes, 1 tensors)

array f4 [512]
0	0xbd8fc9f8	-0.07020944
1	0xbca6b209	-0.020348566
2	0x3cc5fe17	0.024169011
3	0x3d105fb4	0.03524752
4	0x3d035da2	0.032071717
5	0xbd21a311	-0.039462153
6	0xbd4568b4	-0.048195556
7	0xbd46039e	-0.048343293
8	0x3ce2659d	0.027636344
9	0x3ca433dc	0.02004426
10	0xbd6ed899	-0.058312032
11	0xbd986c8e	-0.0744258
12	0x3d6d6389	0.057956252
13	0x3d12d41d	0.03584682
14	0x3c570f7f	0.013126253
15	0x3d4fc3cc	0.050723836
16	0xbb95e446	-0.0045743315
17	0x3cb3cd5f	0.021948515
18	0x3c0e8c3d	0.008700428
19	0xbb50ac63	-0.0031841032
20	0x3d227264	0.039659873
21	0x3ca7ce88	0.020484224
22	0xbc6ffa98	-0.014647149
23	0xbd094f59	-0.033522937
24	0xbd7cc933	-0.061715316
25	0xbc15cb17	-0.009142659
26	0xbd551e86	-0.052031063
27	0xbbd9bb8f	-0.006644673
28	0x3d64fc6e	0.0559048
29	0x3cbbe594	0.02293662
30	0xbb3688bd	-0.0027852498
31	0x3d0576bc	0.032583937
32	0x3d660726	0.05615916
33	0xbd1200e0	-0.035645366
34	0x3cac0cb4	0.021002151
35	0xbd919f7b	-0.071104966
36	0x3d50340a	0.05083088
37	0x3d3c8b3f	0.046031233
38	0xbd954dc3	-0.072902225
39	0xbd847628	-0.06467849
40	0xbaf389ca	-0.0018580493
41	0xbd492868	-0.0491108
42	0x3d019157	0.031632748
43	0x3ce7eb1a	0.028310347
44	0x3d1777da	0.036979534
45	0xbddec765	-0.10877875
46	0xbc94b8e2	-0.018154565
47	0x3c4b0a43	0.012392583
48	0xbd73d45a	-0.059528686
49	0x3d62083f	0.055183645
50	0x3ca6bc40	0.020353436
51	0x3c954ff3	0.0182266
52	0x3bbfb6d0	0.0058506504
53	0x3cf04491	0.02932957
54	0xbdd09e1c	-0.10186407
55	0x3c0ed893	0.0087186275
56	0x3c63cd7d	0.013903973
57	0x3d0e6ef0	0.034773767
58	0x3d1c2696	0.038122736
59	0x3bccf6f5	0.0062550255
60	0x3ceb8354	0.028749146
61	0xbc270d62	-0.010196062
62	0xbc65a6f1	-0.014016853
63	0x3d1f7d54	0.03893788
64	0x3cdf800e	0.02728274
65	0x3cf98ce2	0.030462686
66	0x3ccdd5c7	0.025126351
67	0xbce9967c	-0.02851414
68	0xbd60dedb	-0.05490003
69	0xbd9417c9	-0.07231099
70	0x3cbec43a	0.023286927
71	0x3c24355c	0.0100224875
72	0xbb8be40d	-0.004269129
73	0x3c951a58	0.018201038
74	0x3c325fcb	0.010887097
75	0x3c9474fc	0.018122189
76	0xbbcf2d8d	-0.0063225687
77	0x3cafb6c3	0.021449452
78	0xbd1db320	-0.038500905
79	0xbda856e3	-0.08219697
80	0xbd34b203	-0.044115078
81	0xbd83323f	-0.06406068
82	0xbd5d77fe	-0.05406951
83	0xbd9224ec	-0.071359485
84	0xbd0c1547	-0.03419998
85	0xbd643bc8	-0.055721074
86	0xbd8ddded	-0.069270946
87	0x3cfb2ec1	0.030661942
88	0xbb3ffe0c	-0.002929571
89	0x3da18ec6	0.0788856
90	0x3cf5abea	0.029989202
91	0xbdc6193d	-0.096727826
92	0x3c743959	0.014906251
93	0xbd728ad8	-0.059214443
94	0x3ccbf749	0.024898188
95	0xbc80eb43	-0.015737182
96	0x3c8c51fe	0.01712894
97	0x3d163c1d	0.036678422
98	0xbd446fb9	-0.04795811
99	0xbdbc74f7	-0.09201997
100	0x3c64500a	0.013935098
101	0xbd3247b1	-0.0435254
102	0xbd97f7b2	-0.07420291
103	0x3d1388be	0.03601908
104	0x3d446fbc	0.04795812
105	0xbd8d06ca	-0.068860605
106	0x3d1c2b76	0.038127385
107	0x3d412e4f	0.047163304
108	0x3cf1d7e6	0.029521894
109	0x3cd0eff3	0.025505042
110	0xbda77ab1	-0.081776984
111	0x3d172714	0.036902502
112	0x3d76bc44	0.060238138
113	0x3bf6628c	0.007519072
114	0x3cdccd9f	0.026953517
115	0x3d706752	0.058692284
116	0xbd6a8152	-0.057252236
117	0xbca924b3	-0.020647382
118	0xbd472755	-0.048621494
119	0xbcd8ed9d	-0.02648049
120	0xbb2e05bf	-0.0026553718
121	0xbd71d3a2	-0.05903972
122	0x3ceacfef	0.028663604
123	0x3cca8637	0.024722202
124	0xbd85d747	-0.065352015
125	0x3d189591	0.037252013
126	0xbdbe014f	-0.09277593
127	0x3cf93118	0.030418918
128	0x3d6003b6	0.05469104
129	0x3d24ee22	0.040266164
130	0xbca63eb2	-0.020293567
131	0x3d0bf85f	0.034172412
132	0x3d2f7b77	0.042842355
133	0x3d373caa	0.044735588
134	0x3cb21150	0.02173677
135	0xbd8c2fb3	-0.068450354
136	0xbd1b0d92	-0.03785474
137	0xbc8dfd25	-0.017332623
138	0xbd907cf8	-0.07055086
139	0xbd9b8435	-0.07593576
140	0x3ce4f424	0.027948447
141	0x3ba4c3f2	0.0050282413
142	0xbd11b772	-0.035575338
143	0x3d4df084	0.0502782
144	0xbd668481	-0.05627871
145	0x3cebf674	0.028804041
146	0x3cac1e2a	0.021010477
147	0xbd5ac01f	-0.053405877
148	0x3d34a310	0.04410082
149	0xbdbfb575	-0.09360782
150	0x3d3af83e	0.0456469
151	0xbc759594	-0.0149892755
152	0xbd680422	-0.056644566
153	0x3d0c064f	0.034185704
154	0x3d143424	0.036182538
155	0x3ccabfb4	0.024749614
156	0x3c435f15	0.011924525
157	0xbd85bee2	-0.06530549
158	0xbda31d5e	-0.07964586
159	0x3d3c6014	0.045990065
160	0x3cd3e02f	0.025863735
161	0xbc92f44c	-0.017938755
162	0x3cbf0f54	0.023322739
163	0xbd8923b7	-0.06696265
164	0x3c21ac02	0.00986767
165	0x3c6326e1	0.01386425
166	0x3d1152e9	0.03547946
167	0x3cbed285	0.023293743
168	0x3c8f7b76	0.017514925
169	0x3d15c80a	0.036567725
170	0x3d3ec699	0.046576116
171	0xbd880f8e	-0.06643592
172	0x3d414b8d	0.04719119
173	0xbd6f26c4	-0.05838658
174	0xbcb61a0b	-0.022229215
175	0xb9e3b4c5	-0.00043431498
176	0xbcbe66a6	-0.023242306
177	0x3d029324	0.031878605
178	0x3d402822	0.046913274
179	0xbd78af7c	-0.06071423
180	0x3cda448f	0.02664402
181	0xbd80f706	-0.06297116
182	0xbbcc740f	-0.006239421
183	0x3d472ceb	0.04862682
184	0xbd772c51	-0.060344998
185	0xbc1423f0	-0.009041771
186	0x3d21e92d	0.039529014
187	0x3d5c45b5	0.053777415
188	0xbd4a603d	-0.049408186
189	0xbd5e5cdc	-0.054287776
190	0x3c18c67d	0.009324667
191	0x3d1f0331	0.038821403
192	0xbd142876	-0.0361714
193	0x3d2a431a	0.0415679
194	0x3c06a250	0.008217409
195	0x3d13cdf6	0.03608509
196	0x3cbb7c29	0.022886353
197	0x3c034835	0.008012821
198	0x3d41e5be	0.04733824
199	0xbccf57e2	-0.02531046
200	0x3d238ec5	0.039931078
201	0x3cf70e74	0.030158259
202	0xbd6a5933	-0.057213973
203	0x3bc95ef7	0.006145354
204	0x3d09f0c3	0.033676874
205	0x3c8f6aef	0.017507045
206	0x3d0a7634	0.033804134
207	0xbb0bb914	-0.0021320032
208	0x3d34992a	0.04409138
209	0xbd905c9c	-0.07048914
210	0x3ae52e07	0.0017485031
211	0xbd4adfb1	-0.049529735
212	0xbd6fad27	-0.05851474
213	0x3d6770fb	0.05650423
214	0xbd3eaf85	-0.046554107
215	0x3d051864	0.032493964
216	0x3d49040d	0.04907613
217	0xbd88d460	-0.06681132
218	0x3ce9affc	0.028526299
219	0x3d2e4181	0.04254294
220	0xbd550514	-0.052006796
221	0x3d1aa078	0.03775069
222	0xbd7f35f7	-0.062307324
223	0xbd4e6f62	-0.05039919
224	0x3d304017	0.04302987
225	0x3cec0d6a	0.02881499
226	0x3d35e321	0.04440606
227	0x3dbc5384	0.09195617
228	0x3d2b44c3	0.041813623
229	0x3cb0b00e	0.021568324
230	0xbc97abfc	-0.018514626
231	0x3d4a17fd	0.049339283
232	0x3ba0481c	0.0048914086
233	0xbd3cb1bd	-0.046067942
234	0x3c8f8adb	0.017522266
235	0xbc832491	-0.016008647
236	0x3d19fe7a	0.037596203
237	0x3ccec6d3	0.025241291
238	0xbae10d7c	-0.0017170156
239	0x3d8cdccc	0.06878051
240	0xbd683048	-0.05668667
241	0x3ce49128	0.027901247
242	0xbdabcea7	-0.08389025
243	0x3c9035f6	0.017603856
244	0xbd64bd74	-0.05584474
245	0x3d2e44f9	0.042546246
246	0x3d0bb8ae	0.03411167
247	0x3d0b1a0c	0.033960387
248	0x3c8b0139	0.016968356
249	0x3d6e4557	0.058171596
250	0x3cef0d40	0.029181123
251	0x3ce15e62	0.027510826
252	0x3bff57cf	0.00779245
253	0xbd889c2c	-0.066704124
254	0xbbc3e17e	-0.0059778085
255	0x3d2ec2ce	0.04266625
