spkrec-xvect/cmu_us_clb_arctic-wav-arctic_b0048.npy (npy, 2176 bytes, 1 tensors)

array f4 [512]
000000 46 ff ac bd 96 5f d6 bc b8 8c 0a 3d 9e b2 31 3d
       -0.08447127 -0.026168626 0.033825606 0.043383233
000010 58 f4 16 bd 0f af 13 bd e6 7c 23 bd 79 30 34 bd
       -0.036854118 -0.03605562 -0.039914034 -0.04399154
000020 30 ff 46 3c 12 66 9c 3c 88 9c ac bd aa 68 9e bd
       0.012145802 0.01909164 -0.084282935 -0.07734807
000030 2e 9d 94 3d 26 a0 1c 3d fb 3a ab 3c c4 d3 ad 3d
       0.07256542 0.038238667 0.020902148 0.08487657
000040 a4 1f 20 bb 0a 0a 2b 3c 53 9b 63 3c 30 a0 1f bc
       -0.0024432922 0.010439405 0.013892013 -0.0097427815
000050 c4 54 16 3d d4 4d be 3c fb 12 78 bc 64 a7 5a bd
       0.036701933 0.02323047 -0.015141244 -0.053382292
000060 b7 6c 42 bd 43 d4 10 bc fd 4c 5f bd 2d 5d d7 3c
       -0.04746696 -0.00883967 -0.05451678 0.026289547
000070 1b 19 89 3d d7 ca ac 3c 9b 14 25 bb 4e 21 2b 3d
       0.066942416 0.021092815 -0.0025189284 0.04177981
000080 fd 12 73 3c f3 ef ee bc e6 4f 94 3c 91 29 b4 bd
       0.01483607 -0.029167151 0.018104505 -0.08796991
000090 dd 51 51 3d f1 f6 5d 3d a4 89 32 bd 5b 83 98 bd
       0.05110346 0.05419058 -0.043588296 -0.07446929
0000a0 8a 93 9c 3c d5 9f 2a bc be b1 c3 3c e9 84 42 3d
       0.01911332 -0.0104140835 0.023888465 0.047490034
0000b0 09 00 8d 3c db 1e e6 bd b6 fb 9a bc 66 1f 4a 3c
       0.01721193 -0.11236354 -0.018918853 0.0123365875
0000c0 9e b2 90 bd 26 b4 33 3d d6 cb 69 3c 18 91 b7 3c
       -0.070653185 0.043872975 0.01426979 0.022408053
0000d0 88 d9 2a 3d 41 09 0f 3d 12 77 b7 bd e3 6a c1 ba
       0.04171136 0.034920935 -0.08958258 -0.0014756586
0000e0 91 d8 d7 bb b8 7d 3b 3c 64 91 03 3c c4 83 5d 3c
       -0.006587096 0.011443548 0.008030269 0.013520185
0000f0 21 66 3d 3c 09 69 1c bc 6d dd 6f bc a0 54 0b 3d
       0.011559994 -0.009546527 -0.014640194 0.03401625
000100 2b e2 68 3b f7 f3 f8 3c a0 ff de 3b 07 2b 3f bd
       0.0035535197 0.030389769 0.006805375 -0.046671893
000110 00 de a6 bd f1 d5 8b bd cd ed b3 3c 53 16 1c 3c
       -0.08147812 -0.068279155 0.021963978 0.009526807
000120 89 e4 6c bc 2a 23 62 3c e9 fc 04 3d 91 14 d6 3c
       -0.014458784 0.013802329 0.032467756 0.026132854
000130 c4 43 b1 3c 82 25 08 3d 85 3a 83 bd 89 0d 92 bd
       0.021638758 0.033238895 -0.06407646 -0.07131488
000140 49 26 89 bd 53 92 6f bd 62 2b 80 bd 00 c6 b5 bd
       -0.066967554 -0.058489155 -0.062582746 -0.08875656
000150 70 14 00 bd 84 34 44 bd 50 91 83 bd 97 59 82 3d
       -0.03126949 -0.047901645 -0.064242005 0.06364744
000160 62 69 26 3b 19 25 36 3d 5a de ef 3c 0c 91 a6 bd
       0.0025392403 0.044468973 0.02928083 -0.08133134
000170 15 ef 57 3c eb 74 8d bd bc 4a 34 3d 0b db c6 bc
       0.01317956 -0.06907066 0.044016585 -0.02427437
000180 57 0c 11 3d 1a 75 91 3d 4f e7 73 bd 41 7e ad bd
       0.03541216 0.071024135 -0.059546765 -0.08471347
000190 1a f8 9b 3c a3 d5 17 bd 40 ed 9c bd d6 88 e9 3c
       0.019039202 -0.037068974 -0.07662439 0.028507631
0001a0 63 cb 11 3d 14 32 a5 bc 41 87 94 3c 2d ae 03 3d
       0.035594355 -0.02016548 0.0181309 0.03214853
0001b0 9e b7 05 3d d5 fa ea 3c 98 3c ce bd 7d 38 23 3d
       0.032645814 0.02868406 -0.10070151 0.039848793
0001c0 7a 00 a2 3d cd 29 a1 3c 1e 0f d3 3c 17 21 81 3d
       0.07910247 0.019673252 0.025764044 0.063051395
0001d0 81 b2 97 bd a8 31 c6 3a 00 89 57 bd 71 c1 89 3b
       -0.07407094 0.0015121 -0.052620888 0.004203968
0001e0 bc ad d1 3c 4a 99 4a bd 7b b6 c8 3b 2d 52 11 3d
       0.025595538 -0.049462594 0.006125269 0.03547876
0001f0 f3 81 7d bd 16 81 87 3d c2 dd b8 bd a6 53 97 3c
       -0.061891507 0.06616418 -0.09026672 0.018472504
000200 a5 b4 1d 3d 52 cd bf 3c 2a b6 bc 3c 1e 4a 91 3c
       0.038502354 0.023413334 0.023036081 0.017735537
000210 25 ca 06 3d 59 c2 37 3d e6 5a 4b 3c 05 3a 8b bd
       0.032907624 0.04486308 0.012411809 -0.06798176
000220 11 c2 12 bd 80 d0 b5 3c d0 34 94 bd 59 42 e1 bc
       -0.035829607 0.022194147 -0.07236636 -0.027497457
000230 2f a2 80 3c c2 bd a8 3b 80 f8 53 bc e2 26 1b 3d
       0.015702335 0.005149574 -0.012937665 0.03787888
000240 18 6e 83 bd 89 8a a7 3c b3 4e ee bc 65 97 f4 bc
       -0.06417483 0.0204518 -0.029090261 -0.029857347
000250 48 bf 30 3d 3f 01 ac bd c2 fa 14 3d 44 8e f1 bc
       0.04315117 -0.08398675 0.036371954 -0.029486783
000260 86 eb b7 bd 06 20 f8 3c cc ea 83 bc 40 c0 f6 3c
       -0.089804694 0.030288707 -0.01610317 0.030120969
000270 2f 64 6b 3a 03 85 90 bd 28 e2 b1 bd a9 f7 37 3d
       0.0008979467 -0.0705662 -0.08685714 0.04491392
000280 12 0a da 3c f3 d6 fd 3b e0 56 1d 3d 50 62 ea bc
       0.02661613 0.007746571 0.03841293 -0.028611332
000290 45 ca ab bb ae a0 31 3c 7c 1e e5 3c 5e c5 37 3d
       -0.0052426183 0.010841532 0.027968638 0.04486596
0002a0 d5 4b 8c 3c ad 8c eb 3c a9 8b 93 3b 5d b5 a6 bd
       0.017126003 0.028753603 0.004502733 -0.08140061
0002b0 ff 09 0e 3d 79 9f a1 bd 68 bd 9a bc ca 6a da 3c
       0.0346775 -0.07891745 -0.018889144 0.02666225
0002c0 6d 20 23 bd d5 9f 14 3d 8e c7 e4 3c 1e 21 9b bd
       -0.039825846 0.03628524 0.027927186 -0.07574676
0002d0 44 9b bb 3c ea 76 34 bd 9d fc 2a 3b 2a 65 69 3d
       0.022901185 -0.044058718 0.002609051 0.056981243
0002e0 a0 77 92 bd 45 7b 1e bc 3f e9 0d 3d 6b f9 04 3d
       -0.07151723 -0.009672944 0.03464627 0.032464426
0002f0 7d 11 65 bd d3 9d 3f bd 55 0a f2 bc 7e 60 3c 3d
       -0.05592488 -0.046781372 -0.029545942 0.04599046
000300 43 f8 6b bd b4 6f a2 3c 80 60 0a 3d 83 73 85 3c
       -0.057609808 0.019828655 0.033783436 0.016290432
000310 72 89 2f 3d fa 66 84 3c 40 7f 11 3d 45 42 c9 bc
       0.042855687 0.016162384 0.035521746 -0.024567733
000320 19 88 6b 3c ba 4a cd 3b fd 1c 7d bd 28 c0 e8 3b
       0.01437571 0.0062650116 -0.061795224 0.007102985
000330 43 cd c2 3c 9c f9 7f 3c 01 4c eb 3c 2a 54 07 bb
       0.023779517 0.015623476 0.028722765 -0.002064953
000340 dc 22 b2 3c b8 d4 d1 bc 5b c2 35 3b 24 94 4d bd
       0.021745138 -0.025614128 0.0027734253 -0.050190106
000350 92 be 67 bd 7e b0 11 3d de 47 22 bd ac 74 c2 3c
       -0.056578226 0.035568707 -0.03961932 0.023737274
000360 e9 00 e8 3c 6b 79 aa bd 5b 48 8e 3c 61 54 f4 3c
       0.028320746 -0.0832394 0.017368486 0.029825391
000370 c1 ee 79 bd 7d 95 63 3c 94 92 4d bd 53 ed 08 bd
       -0.06101871 0.013890621 -0.050188616 -0.033429455
000380 2e 68 47 3d 22 84 cb 3c 2b 84 7b 3d f7 28 be 3d
       0.048683338 0.02484328 0.061405342 0.09285157
000390 f8 d5 8b 3d 87 9d 55 3d cc 0e 5d bc e5 ce 28 3d
       0.06827921 0.052152183 -0.013492297 0.041212935
0003a0 54 81 b5 3c 70 46 f9 bc 7b f2 65 bb e2 65 2b bd
       0.022156395 -0.030429095 -0.0035087157 -0.04184521
0003b0 b2 9f d1 3c d5 25 43 3c d5 cd ea b9 af 78 7e 3d
       0.025588844 0.011910875 -0.00044785315 0.06212681
0003c0 9a 0c 79 bd 5d 5b ba 3c 91 31 dc bd 17 81 14 3d
       -0.060803033 0.022748644 -0.107516415 0.036255922
0003d0 85 c7 50 bd 2b 7e 77 3c de b9 03 3d e2 91 17 3d
       -0.050971527 0.015105764 0.03215968 0.03700436
0003e0 d0 b6 a1 3a 4d cd 78 3d 1a 88 06 3d d7 55 04 3d
       0.0012337808 0.060742665 0.03284464 0.032308426
0003f0 c9 f6 05 3c 6f 33 17 bd 6f 5a 0c 3c b2 a5 3b 3d
       0.008176514 -0.036914285 0.008566483 0.045812316
