spkrec-xvect/cmu_us_clb_arctic-wav-arctic_b0013.npy (npy, 2176 bytes, 1 tensors)

array f4 [512]
0	0xbd9eadd3	-0.07747998
1	0xbcbc9067	-0.023018075
2	0x3d67cded	0.05659287
3	0x3d4dee20	0.05027592
4	0xbca5f96c	-0.020260535
5	0xbcd22323	-0.02565152
6	0xbd1d1ac1	-0.038355593
7	0xbd4b0f9d	-0.049575437
8	0x3d27a71c	0.040930852
9	0x3c93d2de	0.018044885
10	0xbd8d7271	-0.069065936
11	0xbd3e9770	-0.04653114
12	0x3d3eb294	0.046557024
13	0x3d0cb8cb	0.03435592
14	0x3bf67009	0.00752068
15	0x3dc95c08	0.09832007
16	0xbcbb0760	-0.022830665
17	0x3c189cda	0.00931474
18	0x3c7b94ee	0.015355332
19	0x3823954c	3.9001272e-05
20	0x3d159b06	0.036524795
21	0x3cad424d	0.021149779
22	0xbc86e6ed	-0.016467536
23	0xbd5eb567	-0.054372218
24	0xbd5b5b39	-0.053553794
25	0xbc0f8396	-0.0087594
26	0xbd29450b	-0.04132561
27	0x3ccf04cb	0.02527084
28	0x3d933c6e	0.071892604
29	0x3d1b71cf	0.037950333
30	0xbb08b81b	-0.0020861689
31	0x3d4805b9	0.048833583
32	0x3ccf2203	0.025284773
33	0xbd03c843	-0.032173406
34	0x3c9948e5	0.018711517
35	0xbd92a234	-0.07159844
36	0x3d6e8e4d	0.058241177
37	0x3d9a6a01	0.0753975
38	0xbce78b8d	-0.028264785
39	0xbd8eb736	-0.069685385
40	0x3c3b20e2	0.011421414
41	0xbc655d80	-0.013999343
42	0x3c7b5729	0.015340605
43	0x3d1b0930	0.03785056
44	0x3d0bd232	0.034136005
45	0xbddffaf1	-0.10936535
46	0xbca184fb	-0.01971673
47	0x3c4c7019	0.012477898
48	0xbd876d99	-0.06612701
49	0x3d3c9208	0.046037704
50	0x3c251aab	0.010077159
51	0x3d166b7e	0.036723606
52	0x3d71a51c	0.05899535
53	0x3d02d2c9	0.0319393
54	0xbda333b3	-0.07968845
55	0xbbaaf749	-0.005217467
56	0xbb8b7e07	-0.004256967
57	0x3c164eb6	0.00917404
58	0x3c53b177	0.012920729
59	0x3caa1cc5	0.020765672
60	0x3d099ddd	0.033597816
61	0xbc206f79	-0.009792202
62	0xbc8438c2	-0.016140345
63	0x3d2bc57c	0.041936383
64	0x3c126085	0.008934145
65	0x3c04dd61	0.0081094215
66	0xbc4ecfec	-0.012622815
67	0xbd43ea9c	-0.047831163
68	0xbd911844	-0.070847064
69	0xbda45e41	-0.0802579
70	0x3d04d94d	0.032433797
71	0x3c207fe6	0.009796118
72	0x3c30acdc	0.0107834
73	0x3c6366d4	0.013879497
74	0x3d074fdc	0.033035144
75	0x3d022c51	0.031780545
76	0x3cd557e2	0.026042882
77	0x3d2a0d07	0.04151633
78	0xbd6aee9a	-0.057356454
79	0xbdb6b97c	-0.08922097
80	0xbd9eac44	-0.07747701
81	0xbd1cef45	-0.038314123
82	0xbd232a13	-0.039835047
83	0xbda405a1	-0.08008886
84	0xbd062557	-0.032750454
85	0xbd7f6bb8	-0.062358588
86	0xbd8c3d52	-0.068476334
87	0x3d8621d2	0.065494195
88	0x3c6cc77f	0.01445186
89	0x3d4f5fdd	0.05062853
90	0x3ce5127a	0.027962912
91	0xbdb0a2ed	-0.086248256
92	0x3c676867	0.014124013
93	0xbd3215ac	-0.0434777
94	0x3d1710da	0.036881305
95	0xbc0afe4f	-0.008483483
96	0x3d1e3492	0.038624354
97	0x3d5caa51	0.053873364
98	0xbd83ab4c	-0.06429157
99	0xbdd01946	-0.101610705
100	0x3ce2bb40	0.027677178
101	0xbd54ee11	-0.05198485
102	0xbd6f43d9	-0.058414314
103	0x3c93e62a	0.018054087
104	0x3d5953cb	0.053058427
105	0xbd1effd8	-0.03881821
106	0x3d118c4b	0.035534184
107	0x3d836112	0.06414999
108	0x3d668457	0.056278553
109	0x3c3d8719	0.011567854
110	0xbdb6a421	-0.08918024
111	0x3d57d2cc	0.052691266
112	0x3d991576	0.074747965
113	0x3b94deb3	0.0045431494
114	0x3d005b7d	0.03133725
115	0x3d8ad9a1	0.06779791
116	0xbd873a0b	-0.06602868
117	0xbc609f79	-0.013709896
118	0xbd5ab558	-0.0533956
119	0xbcd76464	-0.026292987
120	0x3c8888eb	0.01666685
121	0xbd454206	-0.048158668
122	0x3aefb26b	0.0018287426
123	0x3d17a647	0.03702381
124	0xbd74799c	-0.05968629
125	0x3d8cebe1	0.06880928
126	0xbdc9003c	-0.09814498
127	0x3caf3b8c	0.021390699
128	0x3d1d250e	0.038365416
129	0x3cc288bc	0.02374684
130	0x3aec4eab	0.0018028816
131	0x3cd0359b	0.025416186
132	0x3d317d44	0.043332353
133	0x3cd121b3	0.025528764
134	0x3c9fdf02	0.019515518
135	0xbd6e692f	-0.05820578
136	0xbd0c75f4	-0.034292176
137	0x3c6da213	0.014503974
138	0xbdb6f728	-0.0893386
139	0xbd3d2782	-0.046180256
140	0x3ca8ddca	0.02061357
141	0x3b9af905	0.0047293925
142	0xbce1f771	-0.02758381
143	0x3d05a0c5	0.032624025
144	0xbd835c14	-0.06414047
145	0x3c98a7d8	0.018634722
146	0x3907ebb8	0.00012962415
147	0xbd01e32f	-0.0317108
148	0x3d20fde2	0.03930462
149	0xbd955194	-0.072909504
150	0x3d56ef72	0.052474447
151	0xbd30069f	-0.042975064
152	0xbdb7e8f5	-0.0897998
153	0x3c6e02a9	0.014527001
154	0xbc76fd5a	-0.015075052
155	0x3c6a851e	0.014313964
156	0x3ba09455	0.004900495
157	0xbd9f8124	-0.077883035
158	0xbdadbb2a	-0.08482964
159	0x3d2706ce	0.040777974
160	0x3d0e5de7	0.03475752
161	0x3bed97e8	0.0072507747
162	0x3d3b4426	0.04571929
163	0xbd38d3f5	-0.045124013
164	0xbc565daa	-0.013083855
165	0x3c3d5f73	0.011558401
166	0x3d20b532	0.0392353
167	0x3d816710	0.06318486
168	0x3c3d6b32	0.011561202
169	0x3d19635d	0.037448276
170	0x3c8638c8	0.016384497
171	0xbdad2973	-0.084551714
172	0x3d2c2239	0.042024825
173	0xbd8db2ee	-0.06918894
174	0xbc5a8e39	-0.013339573
175	0x3c8063de	0.01567262
176	0xbd2492e3	-0.040179145
177	0x3d293c5d	0.041317333
178	0x3d2c2c9b	0.042034727
179	0xbd6d779a	-0.05797539
180	0x3cac328f	0.021020202
181	0xbd517fc3	-0.051147234
182	0xb80d04d7	-3.3621527e-05
183	0x3d53faa9	0.05175272
184	0xbd63be45	-0.055601377
185	0xbc229d98	-0.009925269
186	0x3d63bb45	0.055598516
187	0x3d191b6a	0.03737966
188	0xbd2b7d7b	-0.041867714
189	0xbd63260f	-0.055456217
190	0xbc9bfdeb	-0.019041976
191	0x3d412802	0.047157295
192	0xbd4edf6c	-0.05050604
193	0x3ce72aa5	0.028218577
194	0x3d2534f6	0.04033371
195	0x3c8d2ee1	0.017234268
196	0x3d590f69	0.052993212
197	0x3ca26fcf	0.019828705
198	0x3d0276f7	0.031851735
199	0xbcacec8f	-0.021108894
200	0x3c61db2d	0.013785166
201	0x3b6d1aeb	0.0036179374
202	0xbd898be1	-0.06716133
203	0x3bddaeeb	0.0067652366
204	0x3cdc5034	0.026893713
205	0x3c6733b3	0.014111447
206	0x3d4ea1f5	0.050447423
207	0xbc1a52f3	-0.009419191
208	0x3cd02c10	0.025411636
209	0xbce3d03e	-0.027809259
210	0x3b8a3330	0.004217528
211	0xbd5113ff	-0.05104446
212	0xbd28141a	-0.041034795
213	0x3d04f558	0.03246054
214	0xbd71b8a0	-0.059013963
215	0x3cb6c078	0.022308573
216	0x3d226fdd	0.039657462
217	0xbd882905	-0.06648449
218	0x3c8865ca	0.0166501
219	0x3c8835aa	0.016627152
220	0xbd844032	-0.06457557
221	0x3cd31afe	0.025769707
222	0xbd6458f2	-0.055748887
223	0xbd518f8b	-0.051162284
224	0x3d06e95d	0.032937396
225	0x3d22c399	0.039737318
226	0x3d58e52f	0.05295294
227	0x3db19106	0.08670239
228	0x3d844826	0.06459074
229	0x3d53dfd4	0.05172713
230	0xbc79c5a2	-0.015244873
231	0x3d3ec51a	0.04657469
232	0x3cff463a	0.031161416
233	0xbd25877e	-0.04041242
234	0x3b2f7c76	0.0026777065
235	0xbd0a6629	-0.033788834
236	0x3d27f281	0.041002754
237	0x3cb44c21	0.022008957
238	0xbad0f959	-0.0015943452
239	0x3d4c69ac	0.049905464
240	0xbd3786fa	-0.044806458
241	0x3cccc65d	0.02499693
242	0xbdc884be	-0.097909436
243	0x3cc6bcf7	0.024260027
244	0xbd5f94c9	-0.054585252
245	0x3c7b534a	0.015339682
246	0x3d0dc2d5	0.034609634
247	0x3d3ebb4e	0.046565346
248	0xbc5aa26b	-0.0133443875
249	0x3d82ac6c	0.06380543
250	0x3ccaf6eb	0.024775943
251	0x3ce5eea4	0.028067894
252	0x3c21005f	0.009826749
253	0xbd084b17	-0.033274736
254	0x3cc791e9	0.024361568
255	0x3d2c5441	0.04207254
