spkrec-xvect/cmu_us_ksp_arctic-wav-arctic_b0523.npy (npy, 2176 bytes, 1 tensors)

array f4 [512]
0	0xbda1a689	-0.07893092
1	0x3c8c7d02	0.017149452
2	0x3cf8d493	0.0303748
3	0x3bd6613f	0.0065423544
4	0x3d26367f	0.040579315
5	0xbcbc9738	-0.023021325
6	0xbd99d716	-0.075117275
7	0x3c81030d	0.015748525
8	0x3d171dc4	0.03689362
9	0x3c8e7428	0.017389372
10	0xbd6916c0	-0.05690646
11	0xbd7851e0	-0.060624957
12	0x3d776b75	0.060405213
13	0x3cc1ad79	0.023642289
14	0x3d82455d	0.06360886
15	0x3d3f838a	0.046756305
16	0xb98d1942	-0.00026912434
17	0x3cd9efb5	0.026603559
18	0x3c4c5d98	0.012473486
19	0xba5d54d2	-0.000844312
20	0x3d09351c	0.033497915
21	0x3d2cc2c7	0.04217794
22	0xbc7da480	-0.015481114
23	0xbd2944dd	-0.04132544
24	0xbd4db175	-0.050218064
25	0xbc01afc7	-0.007915444
26	0xbd815981	-0.063159
27	0xbbf36612	-0.007427939
28	0x3d6f7e06	0.058469795
29	0x3ce10c19	0.027471589
30	0xbb4f335b	-0.0031616304
31	0x3d4b2137	0.049592223
32	0x3d2b4cf9	0.041821454
33	0x3d06d890	0.032921374
34	0x3d36091d	0.044442285
35	0xbd6c3e0e	-0.057676367
36	0x3cd86d17	0.026419206
37	0x3d498e20	0.049207807
38	0x3ccdd6b3	0.02512679
39	0xbd71dab3	-0.05904646
40	0x3d0e8ab7	0.034800258
41	0x3a35ba38	0.0006932351
42	0x3cabc11b	0.020966103
43	0x3d0d2105	0.034455318
44	0x3d0d4576	0.03449007
45	0xbdfcba1c	-0.12340185
46	0xbc9d8b45	-0.019231448
47	0x3c4d3c03	0.012526515
48	0xbd9bc23d	-0.076054074
49	0x3d5b4b88	0.05353883
50	0x3cab49e5	0.02090926
51	0x3d2af32d	0.041735817
52	0x3c00c808	0.007860191
53	0x3cfc5d1d	0.030806119
54	0xbdc06114	-0.09393516
55	0xbd46889f	-0.048470136
56	0xbcf6a478	-0.030107722
57	0x3d0374c5	0.032093782
58	0x3c3c8f14	0.011508722
59	0x3a800350	0.0009766612
60	0x3c9deabc	0.01927697
61	0xbc0db89a	-0.0086499695
62	0xbc8e1bc4	-0.017347224
63	0x3bea2958	0.007146042
64	0x3c985e17	0.018599553
65	0x3d062e79	0.032759164
66	0x3cc86ab1	0.024464937
67	0xbce423a9	-0.027849035
68	0xbd846507	-0.06464582
69	0xbd826d9c	-0.063685626
70	0x3c4261cf	0.01186414
71	0x3c4664fe	0.012109039
72	0x3c5ecf09	0.013599166
73	0x3c53bb2f	0.012923046
74	0x3cdb79c4	0.02679146
75	0x3d095f7c	0.033538327
76	0x3cdc348b	0.026880523
77	0x3d0725d1	0.03299505
78	0xbd8cd2b5	-0.06876127
79	0xbdbb7045	-0.09152273
80	0xbd95a93a	-0.07307668
81	0xbd8cb714	-0.06870857
82	0xbd6469aa	-0.05576483
83	0xbd4eb868	-0.050468832
84	0xbd0acd3c	-0.033887133
85	0xbd86afec	-0.06576523
86	0xbd6d81f8	-0.057985276
87	0x3c75ce55	0.015002807
88	0x3cfa2bdc	0.030538492
89	0xbd130281	-0.03589106
90	0x3cecf39a	0.028924752
91	0xbdae552c	-0.08512339
92	0x3cac5c9c	0.021040253
93	0xbd9df962	-0.077135816
94	0x3c2d35c8	0.0105719045
95	0xbcae4609	-0.02127363
96	0x3cd37e67	0.02581711
97	0x3cee2ac6	0.02907313
98	0xbd36b9aa	-0.044610657
99	0xbd748c59	-0.05970416
100	0x3ce15923	0.027508324
101	0xbd875c9b	-0.0660946
102	0xbda74402	-0.08167268
103	0x3cc54bb7	0.024083955
104	0x3d864f71	0.06558121
105	0x3b447c97	0.0029981488
106	0x3d2b127f	0.041765686
107	0x3d06cdb0	0.032911003
108	0x3d569968	0.052392393
109	0x3cbf2132	0.023331258
110	0xbd8e88d7	-0.06959694
111	0x3b40422c	0.0029336317
112	0x3d8999bd	0.067187764
113	0x3b4780f9	0.0030441864
114	0x3d45fdfc	0.04833792
115	0x3d91cff3	0.07119741
116	0xbd577b2c	-0.0526077
117	0x3c24ba55	0.010054191
118	0xbd5d00ef	-0.05395597
119	0x3ca50ba3	0.02014715
120	0x3d1bc5e9	0.03803054
121	0xbdb856e5	-0.09000949
122	0x3c9609aa	0.018315155
123	0x3d027106	0.03184607
124	0xbd825c44	-0.063652545
125	0x3d87e562	0.06635548
126	0xbdbe5431	-0.09293402
127	0x3ceccbf3	0.028905844
128	0x3cc4d44c	0.024027012
129	0x3caddde6	0.021223973
130	0xbccafe6d	-0.024779523
131	0x3ba2f336	0.0049728407
132	0x3c7fabfc	0.015604969
133	0x3d2be074	0.041962102
134	0x3c94769b	0.018122962
135	0xbd9322f6	-0.07184403
136	0xbd3d7407	-0.04625323
137	0x3d136258	0.03598246
138	0xbdc28288	-0.09497553
139	0xbcf39978	-0.029736266
140	0x3cf01d68	0.029310897
141	0x3ae4e097	0.0017461953
142	0xbd0d6c58	-0.034527153
143	0x3d54de48	0.051969796
144	0xbd826d36	-0.063684866
145	0x3cf46a56	0.029835861
146	0x3cd70792	0.026248727
147	0xbbff5cc5	-0.0077930414
148	0x3cc30ff1	0.023811312
149	0xbdabbde4	-0.08385828
150	0x3bd74e89	0.0065706414
151	0xbd0f28e8	-0.03495112
152	0xbdaad9a4	-0.08342293
153	0x3c30cee1	0.010791511
154	0x3d57571b	0.052573305
155	0x3cf6db0d	0.030133748
156	0x3d8b0907	0.06788831
157	0xbda84b4a	-0.08217485
158	0xbdc4d718	-0.096113384
159	0x3cafbe43	0.021453029
160	0x3c833877	0.016018135
161	0x3c42f409	0.011899003
162	0x3cf70ec3	0.030158406
163	0xbc3d31f8	-0.011547558
164	0x3b9557c8	0.0045575835
165	0x3bdb0d8f	0.006684966
166	0x3d29405e	0.04132115
167	0x3bf814ca	0.0075708376
168	0x3d24d4de	0.04024207
169	0x3d1ef424	0.03880705
170	0xbd0682b0	-0.032839477
171	0xbd92feab	-0.0717748
172	0x3d2f7551	0.04283649
173	0xbd5b2fdd	-0.053512443
174	0xbd5fccb4	-0.05463858
175	0x3af2eec2	0.001853429
176	0xbd4d922b	-0.050188225
177	0x3c965d5b	0.018355062
178	0x3d82f31f	0.06394028
179	0xbd623e77	-0.055235352
180	0x3ce275b3	0.027644014
181	0xbda4413c	-0.08020255
182	0x3c485435	0.012227108
183	0x3c84f3f3	0.016229605
184	0xbd9d0a37	-0.07667964
185	0xbc2954f7	-0.010335199
186	0x3d1bcef2	0.038039155
187	0x3d10e2f3	0.035372686
188	0xbd7ec85b	-0.062202793
189	0xbd7bc7d1	-0.061469857
190	0x3d376f45	0.04478385
191	0x3d0857eb	0.03328697
192	0xbd96b665	-0.07359008
193	0x3d30bad5	0.043146927
194	0x3d2eaeba	0.0426471
195	0xbae4dbf5	-0.0017460572
196	0x3cc01681	0.02344823
197	0x3cde2f88	0.027122274
198	0x3d5fc257	0.054628696
199	0x3a9a8f14	0.0011791908
200	0x3d3f4f17	0.046706285
201	0x3d210fdd	0.03932177
202	0xbd6735a0	-0.056447625
203	0x3c5b57e5	0.013387655
204	0xbc0c4295	-0.008560796
205	0x3c613727	0.0137460595
206	0x3d4278f3	0.047478627
207	0x3bc13a97	0.005896877
208	0x3d5e72a3	0.054308545
209	0xbccb3a92	-0.024808202
210	0x3b537f56	0.0032271943
211	0xbd3f61ff	-0.046724316
212	0xbd4c8809	-0.04993442
213	0x3ce1b281	0.027550938
214	0xbd9455e4	-0.07242945
215	0x3d2c95eb	0.04213516
216	0x3cce082b	0.02515038
217	0xbd5767e0	-0.052589297
218	0x3d06eefc	0.032942757
219	0x3cc8b1da	0.024498869
220	0xbd70cb5f	-0.0587877
221	0x3c964a9c	0.018346123
222	0xbd62270d	-0.055213023
223	0xbcff08e1	-0.031132163
224	0xbd7788e9	-0.060433302
225	0x3d7dd670	0.06197208
226	0x3d5c81a9	0.05383459
227	0x3dac9fac	0.084288925
228	0x3cf00196	0.029297631
229	0x3d047fc0	0.032348394
230	0xbb7cb01b	-0.0038557115
231	0x3d14d398	0.036334604
232	0x3d156726	0.036475323
233	0xbcd298ed	-0.025707686
234	0x3d088e62	0.03333891
235	0x3d05daed	0.032679487
236	0x3d16d955	0.036828358
237	0x3cefdbcd	0.029279614
238	0x3aa4d85e	0.001257669
239	0x3d7a48b4	0.06110449
240	0xbd611895	-0.054955084
241	0x3cc2084c	0.023685597
242	0xbdc20b5a	-0.094748214
243	0x3cac505c	0.021034412
244	0xbdaa8dc2	-0.083278194
245	0x3d0ff89d	0.035149205
246	0x3d1aaf77	0.037764993
247	0x3d23a882	0.039955623
248	0x3d2d48b1	0.042305652
249	0x3d28f651	0.04125053
250	0x3d0e1206	0.034685157
251	0xbb314ddd	-0.0027054467
252	0x3c12e079	0.008964651
253	0xbd65f457	-0.056141224
254	0xbba0d594	-0.004908273
255	0x3d098f72	0.033584066
