spkrec-xvect/cmu_us_slt_arctic-wav-arctic_b0127.npy (npy, 2176 bytes, 1 tensors)

array f4 [512]
-0.07447938 -0.018926198 0.010821382 0.029559672 0.025473874 -0.023912054 -0.041932944 -0.05027501
0.03185255 0.020067476 -0.077990964 -0.08029822 0.06558249 0.041018438 0.026276305 0.06785232
-0.009716155 0.022346957 0.016019812 -0.0039620614 0.038816307 0.020113427 -0.016750608 -0.046447568
-0.053528022 -0.0083181085 -0.06999952 -0.004678696 0.06645046 0.014005311 -0.0023433347 0.029622737
0.04390708 -0.025578903 0.0061648684 -0.079350874 0.03375475 0.06543212 -0.06474321 -0.05828296
0.014955734 -0.04895216 0.034240533 0.031271882 0.036856003 -0.12618399 -0.018583823 0.012720831
-0.07374873 0.06490196 0.018843466 0.026283737 0.019872101 0.039883405 -0.10330231 -0.009168526
0.009995955 0.031111112 -0.0013045826 0.015102243 0.018644484 -0.010206017 -0.015718464 0.050565716
0.0016062744 0.029691715 0.033741973 -0.034384403 -0.057922695 -0.059264008 0.035703976 0.010968755
-0.019931303 0.018183067 0.019292068 0.015453534 0.0037435796 0.039659195 -0.03380616 -0.07968596
-0.07135963 -0.05110693 -0.050946094 -0.077902935 -0.033154573 -0.039362725 -0.077381074 0.028207542
-0.00055974023 0.058052566 0.029300082 -0.091295704 0.016041184 -0.062700324 0.023760246 -0.033369493
0.014337824 0.04383703 -0.030786367 -0.08366411 0.017167618 -0.039642237 -0.077489875 0.038553074
0.042243898 -0.043001834 0.022766924 0.033118024 0.02504954 0.00711244 -0.0792585 0.046547964
0.059184242 0.0031812526 0.036765423 0.06032424 -0.06472944 -0.024752935 -0.065596454 -0.03238785
0.011381324 -0.05541445 0.024807455 0.023131998 -0.05875557 0.047358382 -0.1032384 0.01923769
0.037278716 0.020998053 -0.0074423538 0.030495573 0.034238633 0.052755706 0.012867278 -0.057872683
-0.04891138 -0.0035975357 -0.07923401 -0.06521561 0.037689973 0.0042714635 -0.029284457 0.03671487
-0.08010022 0.029490938 0.025276534 -0.032756787 0.06262468 -0.09246255 0.041298646 -0.028956134
-0.07433621 0.041510407 0.038557217 0.023803242 0.022718959 -0.077016 -0.08096182 0.043776855
0.02603514 -0.009547784 0.03173021 -0.07446774 0.019852545 0.011203418 0.034969635 0.034586444
0.012101933 0.03042106 0.017733587 -0.07945343 0.02190605 -0.060970124 -0.02782499 -0.010131776
-0.056038395 0.027778642 0.04594056 -0.070027776 0.032480936 -0.048109587 0.0025127581 0.046102613
-0.056553468 -0.009157113 0.030524235 0.03484445 -0.07302302 -0.063047424 0.019014983 0.06284803
-0.041457582 0.031338483 0.03562349 0.0345087 0.026597632 0.0064266864 0.03991752 -0.025196383
0.03835557 0.010365055 -0.051452663 0.0052336627 0.041294307 0.019220332 0.023475144 0.007194264
0.019728826 -0.077611096 0.002917026 -0.048302226 -0.05318633 0.058184054 -0.05161692 0.036003433
0.031524666 -0.052067917 0.0018220259 0.040895954 -0.063184135 0.035248276 -0.053181943 -0.045682225
0.049528807 0.035550967 0.061681774 0.09201635 0.04517676 0.029011004 -0.006856996 0.055334218
0.012001655 -0.03291156 0.014597359 -0.015143986 0.026359303 0.037358582 -0.0013171661 0.072577395
-0.051062103 0.028964942 -0.07754886 0.014217888 -0.07198428 0.03359726 0.02923522 0.03756229
0.021345828 0.0675352 0.02612077 0.0063935607 0.009241797 -0.06296388 -0.010016126 0.03731764
00000000: a588 98bd 1d0b 9bbc 2a4c 313c 2027 f23c
00000010: 96ae d03c 36e3 c3bc e1c1 2bbd 2bed 4dbd
00000020: d277 023d 8c64 a43c bab9 9fbd 6573 a4bd
00000030: 1d50 863d f302 283d 6841 d73c 28f6 8a3d
00000040: 8230 1fbc f710 b73c fb3b 833c 2ed4 81bb
00000050: d9fd 1e3d eac4 a43c 9238 89bc ce3f 3ebd
00000060: 3340 5bbd ad48 08bc e95b 8fbd bf4f 99bb
00000070: 2e17 883d 8876 653c a292 19bb 62ab f23c
00000080: e9d7 333d d98a d1bc aa02 ca3b b682 a2bd
00000090: 6c42 0a3d 4601 863d 1798 84bd 1dba 6ebd
000000a0: e508 753c 0f82 48bd cd3f 0c3d f216 003d
000000b0: 52f6 163d 6036 01be 1a3d 98bc 086b 503c
000000c0: 9309 97bd 52eb 843d 9d5d 9a3c fe50 d73c
000000d0: d1ca a23c c85c 233d 2990 d3bd 9637 16bc
000000e0: 13c6 233c bbdc fe3c 87fe aaba 666f 773c
000000f0: 51bc 983c 2337 27bc 02c4 80bc ff1d 4f3d
00000100: a089 d23a 0a3c f33c 0635 0a3d a9d6 0cbd
00000110: 5940 6dbd d1be 72bd 553e 123d 4bb6 333c
00000120: f946 a3bc a8f4 943c 660a 9e3c d230 7d3c
00000130: d856 753b ae71 223d 5478 0abd 6532 a3bd
00000140: ff24 92bd 8055 51bd daac 50bd 938b 9fbd
00000150: 17cd 07bd cf3a 21bd f879 9ebd 8113 e73c
00000160: 88bb 12ba 87c8 6d3d ba06 f03c 3ef9 babd
00000170: cd68 833c 0769 80bd d9a4 c23c 73ae 08bd
00000180: 31e9 6a3c 758e 333d b133 fcbc 1758 abbd
00000190: 1ba3 8c3c e65f 22bd 03b3 9ebd d4e9 1d3d
000001a0: f007 2d3d b122 30bd b381 ba3c c4a6 073d
000001b0: b134 cd3c 790f e93b 4852 a2bd 14a9 3e3d
000001c0: 2d6b 723d 907c 503b 5797 163d 8d16 773d
000001d0: de90 84bd abc6 cabc 6f57 86bd 1fa9 04bd
000001e0: bc78 3a3c 43fa 62bd 0139 cb3c 517f bd3c
000001f0: aea9 70bd ddfa 413d a76e d3bd 5c98 9d3c
00000200: 91b1 183d 1c04 ac3c fdde f3bb dad1 f93c
00000210: cf3d 0c3d 5e16 583d 47d1 523c e80b 6dbd
00000220: 4d57 48bd a2c4 6bbb 7145 a2bd c38f 85bd
00000230: cd60 1a3d a2f7 8b3b f5e5 efbc 5562 163d
00000240: 960b a4bd fb96 f13c bc10 cf3c fb2b 06bd
00000250: 5e41 803d 015d bdbd c528 293d 6a35 edbc
00000260: 953d 98bd d106 2a3d 2cee 1d3d 04ff c23c
00000270: 1c1d ba3c 91ba 9dbd 50cf a5bd 5c4f 333d
00000280: a547 d53c 4f6e 1cbc 89f7 013d 8b82 98bd
00000290: cea1 a23c 8a8e 373c 523c 0f3d 84aa 0d3d
000002a0: 3047 463c 9635 f93c 0746 913c 7bb8 a2bd
000002b0: 5174 b33c cfbb 79bd 3cf1 e3bc c0ff 25bc
000002c0: 8488 65bd 0990 e33c 2b2c 3c3d b96a 8fbd
000002d0: bb0a 053d 8f0e 45bd 16ad 243b 18d6 3c3d
000002e0: 9ca4 67bd b707 16bc f60d fa3c 0eb9 0e3d
000002f0: 188d 95bd 021f 81bd 4fc5 9b3c 78b6 803d
00000300: 6dcf 29bd c85c 003d f0e9 113d ff58 0d3d
00000310: 47e3 d93c f496 d23b 8e80 233d a568 cebc
00000320: bb1a 1d3d 31d2 293c 07c0 52bd 257f ab3b
00000330: 3824 293d f573 9d3c f24e c03c dcbd eb3b
00000340: 599e a13c 91f2 9ebd 932b 3f3b 8ed8 45bd
00000350: e9d9 59bd 6752 6e3d 436c 53bd 5678 133d
00000360: 0220 013d 2b45 55bd 0bd1 ee3a 8482 273d
00000370: af66 81bd 7f60 103d 4fd5 59bd 491d 3bbd
00000380: b8de 4a3d e49d 113d 07a6 7c3d 1173 bc3d
00000390: 440b 393d 7ca8 ed3c a7b0 e0bb 22a6 623d
000003a0: 97a2 443c 46ce 06bd c329 6f3c 7b1e 78bc
000003b0: 77ef d73c 5005 193d c3a4 acba 75a3 943d
000003c0: 7f26 51bd e347 ed3c f0d1 9ebd 25f2 683c
000003d0: 7f6c 93bd 489d 093d b37e ef3c eada 193d
000003e0: 72dd ae3c e54f 8a3d 3afb d53c 1381 d13b
000003f0: e86a 173c 35f3 80bd ad1a 24bc 62da 183d
