spkrec-xvect/cmu_us_clb_arctic-wav-arctic_b0180.npy (npy, 2176 bytes, 1 tensors)

array f4 [512]
000000 61 ef b6 bd 3c 1c a3 bc ee bf 18 3d 28 3b 24 3d
       -0.08932377 -0.019910924 0.037292413 0.04009548
000010 85 47 db 3b fb d6 f8 bc 9b 93 81 bd 5e e2 21 bd
       0.0066918754 -0.030375948 -0.06326982 -0.03952252
000020 23 8a 8d 3c a2 ae a1 3c 16 60 80 bd 24 e5 81 bd
       0.017277783 0.019736592 -0.06268327 -0.06342533
000030 02 1c 90 3d 17 d6 9e 3c 00 2d a3 3c 96 19 8c 3d
       0.07036592 0.019389195 0.019918919 0.06840818
000040 a2 78 19 3c 97 68 15 3c bf 9c 08 3c 3e 09 2e 3a
       0.00936714 0.009119174 0.008338152 0.00066389504
000050 32 2a 05 3d 7c c3 fe 3c ec 3b 6c bc 52 07 88 bd
       0.032510944 0.031099074 -0.014418583 -0.06642021
000060 57 cd 78 bd 1f ca c6 bb 26 39 45 bd b0 20 52 3b
       -0.060742702 -0.006066575 -0.048150204 0.003206294
000070 00 62 73 3d b9 cf 10 3d 24 9d 43 bb 1a 74 4b 3d
       0.059419632 0.03535435 -0.0029848302 0.04967127
000080 9d 41 b8 3c b9 32 a2 bc ba 25 0e 3d 24 b0 a6 bd
       0.022492224 -0.019799577 0.034703948 -0.08139065
000090 7d b9 11 3d ea ee 81 3d de a7 12 bd dd df 93 bd
       0.035577286 0.06344397 -0.035804622 -0.07220433
0000a0 49 76 4c 3c 27 f7 a7 bc dd 91 06 3d 91 d4 4d 3d
       0.012479373 -0.020503594 0.03285395 0.050251547
0000b0 81 46 63 3c 19 46 cb bd 14 28 9a bc 09 46 58 3c
       0.01387179 -0.099254794 -0.018817939 0.013200291
0000c0 42 db 95 bd 6c 6e 47 3d 16 11 1e 3b 47 08 bf 3c
       -0.07317211 0.04868929 0.002411907 0.023319377
0000d0 25 88 fb 3c f8 61 fc 3c bf 35 95 bd 30 f3 17 3c
       0.030704567 0.030808434 -0.07285642 0.009274289
0000e0 66 de bc bc 03 19 cf 3c 8f 69 1c 3d 15 50 60 3c
       -0.023055267 0.025280481 0.038186606 0.013690968
0000f0 1f 0e c0 3b ef d0 0f bc 66 f4 5b bc 4e 3c ff 3c
       0.0058610584 -0.008777841 -0.013424968 0.031156685
000100 05 2d 80 3c 63 01 9d 3c 14 58 49 bc 10 21 0c bd
       0.015646467 0.0191657 -0.012289066 -0.03421122
000110 a4 a5 5b bd 2b 1b ac bd 5a 16 b9 3c 0e 31 09 3c
       -0.053624764 -0.084036194 0.022593666 0.008373512
000120 28 25 e5 3c cc 62 19 3c 05 fd 9d 3c ba 75 37 3c
       0.027971819 0.009361934 0.019285688 0.011197502
000130 65 02 07 3d ab cd b8 3c 2e 65 82 bd 31 9d b5 bd
       0.032961268 0.022559008 -0.06366955 -0.088678725
000140 01 3c ba bd 24 fe 94 bd bb 57 5e bd 6d 74 a7 bd
       -0.09093476 -0.07275036 -0.054282885 -0.08176503
000150 9f 87 fd bc d8 b4 5c bd 5c 28 9a bd 9e d8 82 3d
       -0.030948458 -0.053883404 -0.07527229 0.06388973
000160 cf 4b 9d 3b e4 00 42 3d 91 f2 ee 3c 99 5c a9 bd
       0.004800297 0.04736413 0.029168399 -0.08269615
000170 35 45 72 3c 9c f9 62 bd 24 77 64 3d 50 44 18 bd
       0.014787008 -0.055413827 0.055777684 -0.037174523
000180 f2 85 0c 3d 6a 1a 76 3d 8f 73 99 bd 7f 64 a4 bd
       0.034307428 0.060083784 -0.07492744 -0.080269806
000190 de 54 c9 3b 59 51 35 bd 82 01 94 bd a9 98 e9 3b
       0.00614415 -0.044267032 -0.0722685 0.007128794
0001a0 5f 84 57 3d 1f 19 57 bd fb a7 cc 3c bc ef 44 3d
       0.052616473 -0.05251419 0.024982443 0.04808019
0001b0 86 9d 33 3d eb 2a d4 3c 8d 83 b8 bd 7c 07 c8 3c
       0.043851398 0.025899371 -0.09009466 0.024417631
0001c0 2b e0 93 3d 96 f3 5f 3c bf ca be 3c 5a 76 5f 3d
       0.07220491 0.013668915 0.023290036 0.05455623
0001d0 87 ba 8f bd 5c f6 c5 b8 25 08 79 bd eb 3e 97 bb
       -0.07017999 -9.43958e-05 -0.060798783 -0.0046156547
0001e0 79 79 f3 3c cd 81 85 bd 91 8f ee 3c 78 df 5f 3d
       0.029721009 -0.06518898 0.029121192 0.054656476
0001f0 b3 6f 72 bd d8 f5 71 3d 7b 75 91 bd 7d 1e f4 3c
       -0.059188556 0.059072345 -0.07102486 0.029799694
000200 2e 5e e8 3c 0c 12 d8 3c fc 3d 21 bc 18 bd 86 3c
       0.02836522 0.026375793 -0.009841438 0.016447589
000210 ec e8 42 3d 92 b3 03 3d fc 0e 6e 3c 7e 03 89 bd
       0.047585413 0.032153673 0.01452994 -0.06690119
000220 24 00 3b bd 6d 25 a6 3c 3c 7f a1 bd 3e 4f 10 bd
       -0.04565443 0.020281518 -0.07885596 -0.03523182
000230 62 44 54 3c 3f 0a 9c 3b b6 96 72 bc 77 50 8b 3d
       0.012955757 0.0047619636 -0.01480644 0.06802457
000240 eb 81 5e bd 48 88 e4 3c 96 f2 db bc e0 be 14 bd
       -0.05432312 0.027897015 -0.026849072 -0.036314845
000250 b1 d4 fe 3c f4 2e b4 bd 00 82 00 3d 39 19 13 bd
       0.031107279 -0.08798018 0.031373978 -0.035912726
000260 fd 30 a7 bd bd 73 5c 3c 9b d0 4b 3c 6b 8b 07 3d
       -0.08163641 0.0134553285 0.012439872 0.033091944
000270 9e 2e d1 3b 77 e3 99 bd 2b 25 a4 bd 04 74 1f 3d
       0.006383731 -0.075140886 -0.08014902 0.038929
000280 ad ae 04 3d 54 ce b2 3b 3b fb c4 3c ee 6f f2 bc
       0.032393146 0.005456725 0.024045577 -0.029594388
000290 09 e5 fc bb e1 02 0c 3c 0d d6 3c 3d 43 7d d3 3c
       -0.007717733 0.008545608 0.046102572 0.025816565
0002a0 36 e5 a3 3c 18 44 4f 3d df 30 0f 3d e0 a8 b3 bd
       0.020006757 0.05060205 0.034958716 -0.08772445
0002b0 3b 3e 86 3d 52 a9 9a bd d8 92 9c bb 5f bc 99 3c
       0.06554838 -0.075518265 -0.0047782473 0.01876658
0002c0 63 44 20 bd 74 f3 27 3d 10 25 26 3d 41 86 c1 bd
       -0.03912772 0.04100366 0.04056269 -0.09449435
0002d0 1e b1 b8 3c 37 3f 3a bd 9e fc 60 3b e2 f5 5c 3d
       0.022545394 -0.045470443 0.003433026 0.05394543
0002e0 0a 0e 53 bd fc a1 13 bc 75 c6 32 3d 39 8f da 3c
       -0.05152706 -0.009010788 0.043646295 0.026679622
0002f0 7b a1 69 bd 17 30 13 bd 3a 8c 99 3a 8c aa 22 3d
       -0.057038765 -0.035934534 0.0011714764 0.039713427
000300 68 71 17 bd 54 fe e2 3c 31 ab 92 3c b7 13 89 3c
       -0.036973387 0.027709164 0.017903896 0.016733034
000310 ea ba 64 3d b8 19 a6 3c ce 72 eb 3c 2e ab 9f bc
       0.055842318 0.020275936 0.028741267 -0.019490805
000320 7f 10 88 3c 7b 14 34 3c c1 e6 81 bd 1c 35 d4 3b
       0.016609428 0.010991211 -0.06342841 0.0064760577
000330 b8 57 7a 3c 7a 10 48 3c 7b d1 94 3c b9 1f 99 bb
       0.015279703 0.01221096 0.018166294 -0.004672971
000340 91 32 d8 3c 01 ed 35 bd e8 f6 b6 3a d1 76 52 bd
       0.0263913 -0.044415478 0.0013959082 -0.051382843
000350 7e 8a 4d bd 0c bf 29 3d 0d 0b 0a bd 2f 8d fd 3c
       -0.050180905 0.041441962 -0.033701945 0.03095111
000360 c2 8b 0e 3d d0 1d a0 bd 02 05 16 3d 94 04 a8 3c
       0.034801252 -0.07818186 0.03662587 0.020509996
000370 58 dd 93 bd 6a 51 1b 3c da 07 7b bd 50 ab 80 bc
       -0.07219952 0.00947986 -0.061286785 -0.015706688
000380 7f 3b fc 3c b4 14 d6 3c ad b4 92 3d d3 c8 a5 3d
       0.030790089 0.026132919 0.071633674 0.08094945
000390 21 77 6e 3d f5 cb 1a 3d ef b1 89 bc 2e 26 2f 3d
       0.05821908 0.037792165 -0.016808478 0.04276102
0003a0 f2 70 36 3d c6 c9 0e bd 38 01 60 3c fc 94 02 bd
       0.044541307 -0.034860395 0.013672166 -0.031880364
0003b0 8a 10 28 3d 9e ff d0 3c f7 66 16 ba d1 61 76 3d
       0.041031398 0.025512513 -0.0005737389 0.06015188
0003c0 9a 3d 88 bd 26 cd c0 3c d3 73 d3 bd 68 b8 0a 3d
       -0.066523746 0.023535322 -0.10324826 0.03386727
0003d0 88 0c 08 bd cf 56 0d 3d a0 7c 2b 3d 4c c8 25 3d
       -0.033215076 0.034506615 0.0418669 0.04047422
0003e0 59 2d 97 3b 3c 0e 73 3d 93 fe 0e 3d 09 ac 2f 3d
       0.00461356 0.059339747 0.03491075 0.042888675
0003f0 9a c8 ff 3b 20 56 15 bd e1 91 5a 3c 60 16 31 3d
       0.007805896 -0.03645909 0.013340444 0.04323423
