spkrec-xvect/cmu_us_clb_arctic-wav-arctic_b0296.npy (npy, 2176 bytes, 1 tensors)

array f4 [512]
-0.093209565 -0.04548637 0.03256156 0.04154002 -0.029110348 -0.04067539 -0.048102327 -0.054717857
0.02675565 0.018488435 -0.06797215 -0.06638268 0.061283 0.0328729 0.0074850842 0.081199706
0.0016028647 0.0058542774 0.012297275 -0.004350791 0.034577854 0.03318058 -0.014331917 -0.046568446
-0.04613468 -0.008810318 -0.051768232 0.015646556 0.057923257 0.013497687 -0.0029988177 0.057659816
0.01779182 -0.03095868 0.032456495 -0.07649512 0.04859452 0.06565252 -0.036060255 -0.07506834
0.0084901145 -0.0022350566 0.028714744 0.05019145 0.019534437 -0.09891227 -0.018947564 0.014062857
-0.07819576 0.03949693 0.009701865 0.022640305 0.055997774 0.029059038 -0.08771985 0.003303935
-0.022556419 0.016262053 0.012178374 0.019321322 0.014302708 -0.008554189 -0.01397153 0.03611223
0.0063925097 0.03677407 0.0023065186 -0.04746697 -0.055370823 -0.07886836 0.014833421 0.010756416
0.012410159 0.009975268 0.028781883 0.02453101 0.019010704 0.023322647 -0.05963229 -0.08372347
-0.086795874 -0.07294906 -0.066348575 -0.07567481 -0.032137867 -0.049996227 -0.06941986 0.064671755
-0.004739498 0.06180446 0.02935303 -0.09218466 0.008716267 -0.060335048 0.04526393 -0.008596703
0.036607493 0.06438809 -0.06322436 -0.06751839 0.009827315 -0.04965659 -0.08219923 0.03287651
0.024700645 -0.02507972 0.019175014 0.043687746 0.031402063 0.02322832 -0.096645 0.039966494
0.080481075 0.0011709848 0.032071296 0.051074013 -0.082177125 0.01313787 -0.0550407 0.0043130377
0.027858097 -0.043580648 0.008924836 0.052026898 -0.06136788 0.050601885 -0.07903089 0.016882576
0.042186666 0.033955738 0.0099691795 0.019133776 0.045871217 0.027267972 0.021056054 -0.06838083
-0.04659446 0.0010404108 -0.0905443 -0.03828581 0.012415806 0.0051074317 -0.009209408 0.061576575
-0.07259638 0.042427372 -0.01929123 -0.020313175 0.04495811 -0.08173555 0.026364578 -0.05162212
-0.094074175 0.018671386 -0.00602396 0.03993751 -0.0047136885 -0.07026817 -0.07012971 0.034752585
0.031574015 0.0010321502 0.025129981 -0.029379165 -0.008773732 0.011018334 0.030804921 0.039992917
0.016734965 0.029088778 0.03451216 -0.08571893 0.049517877 -0.063561104 -0.006289604 0.0030632543
-0.035581123 0.0419477 0.032175314 -0.065469615 0.036078934 -0.0267614 -0.002294882 0.058137525
-0.059305493 -0.010173931 0.05142453 0.021823678 -0.05221805 -0.053486448 -0.017800717 0.0467752
-0.057589263 0.016586859 0.02522252 0.012203553 0.034542352 0.024438389 0.039257057 -0.028600939
0.02812788 0.003505083 -0.0747905 0.0074396827 0.012787177 0.010939324 0.03297353 -0.022568163
0.013219152 -0.04157202 0.0035111585 -0.065125234 -0.043930452 0.035588454 -0.053740706 0.022162667
0.029507833 -0.08825212 0.020320877 0.035132684 -0.086825304 0.020176198 -0.06599004 -0.029545952
0.054801617 0.027246324 0.057810076 0.08812134 0.055665724 0.029275244 -0.020657783 0.060851634
0.037928797 -0.04473347 0.006353462 -0.048365064 0.033289064 0.031418316 -0.00073836563 0.045215037
-0.060978137 0.024009999 -0.09078611 0.025035571 -0.03764481 0.018609887 0.028743364 0.029267525
0.005829926 0.052108113 0.024560036 0.035851203 0.00822051 -0.04395105 0.0142034 0.033065423
00000000: a8e4 bebd ea4f 3abd 455f 053d de25 2a3d
00000010: d378 eebc 3d9b 26bd f206 45bd d51f 60bd
00000020: aa2e db3c 0f75 973c fc34 8bbd a4f3 87bd
00000030: e203 7b3d bca5 063d 7045 f53b 084c a63d
00000040: 3717 d23a 3dd5 bf3b 827a 493c 1591 8ebb
00000050: 82a1 0d3d 5ce8 073d 6bd0 6abc 8ebe 3ebd
00000060: b8f7 3cbd 2759 10bc ed0a 54bd 352d 803c
00000070: f040 6d3d 6725 5d3c d087 44bb b32c 6c3d
00000080: 27c0 913c 0f9d fdbc 1af1 043d 79a9 9cbd
00000090: 0c0b 473d d474 863d ebb3 13bd 6ebd 99bd
000000a0: 1f1a 0b3c 077a 12bb 2f3b eb3c 8d95 4d3d
000000b0: af06 a03c 8492 cabd ec37 9bbc e667 663c
000000c0: 1925 a0bd 88c7 213d 92f4 1e3c 2978 b93c
000000d0: ec5d 653d 380d ee3c 77a6 b3bd d586 583b
000000e0: 3dc8 b8bc ff37 853c ce87 473c c047 9e3c
000000f0: e855 6a3c de26 0cbc d8e8 64bc 6bea 133d
00000100: 4278 d13b 68a0 163d f628 173b ba6c 42bd
00000110: 84cc 62bd bc85 a1bd e107 733c ae3b 303c
00000120: fb53 4b3c 4e6f 233c fcc7 eb3c 42f5 c83c
00000130: 56bc 9b3c 230f bf3c fd40 74bd 3677 abbd
00000140: 09c2 b1bd 5166 95bd c3e1 87bd 65fb 9abd
00000150: ffa2 03bd d8c8 4cbd 002c 8ebd a072 843d
00000160: ca4d 9bbb ac26 7d3d c475 f03c 50cb bcbd
00000170: acce 0e3c e221 77bd ac66 393d 30d9 0cbc
00000180: bdf1 153d e7dd 833d c67b 81bd 1547 8abd
00000190: bf02 213c b564 4bbd 1258 a8bd 85a9 063d
000001a0: 0259 ca3c fc73 cdbc eb14 9d3c ecf1 323d
000001b0: 739f 003d 5149 be3c d0ed c5bd e8b3 233d
000001c0: 43d3 a43d bb7b 993a 315d 033d fc32 513d
000001d0: 7b4c a8bd 3840 573c 5b72 61bd 6254 8d3b
000001e0: aa36 e43c 9f81 32bd 7a39 123c 281a 553d
000001f0: e35c 7bbd ec43 4f3d f2da a1bd 544d 8a3c
00000200: edcb 2c3d 2c15 0b3d c555 233c 70be 9c3c
00000210: 75e3 3b3d 1561 df3c bf7d ac3c 400b 8cbd
00000220: d5d9 3ebd 655e 883a 4a6f b9bd 95d1 1cbd
00000230: aa6b 4b3c 3e5c a73b 0fe3 16bc b837 7c3d
00000240: 69ad 94bd 53c8 2d3d a408 9ebc d167 a6bc
00000250: ff25 383d f864 a7bd 87fa d73c b771 53bd
00000260: f6a9 c0bd bcf4 983c a464 c5bb 8495 233d
00000270: 4975 9abb c2e8 8fbd 2aa0 8fbd ba58 0e3d
00000280: c153 013d 3749 873a 64dd cd3c 93ac f0bc
00000290: b3bf 0fbc 3e86 343c 9a5a fc3c 9dcf 233d
000002a0: c417 893c 974b ee3c 9f5c 0d3d 688d afbd
000002b0: 42d3 4a3d 532c 82bd 0619 cebb e1c0 483b
000002c0: 83bd 11bd 5ad1 2b3d 43ca 033d ef14 86bd
000002d0: 81c7 133d b93a dbbc bb65 16bb 9d21 6e3d
000002e0: 51ea 72bd 8fb0 26bc 87a2 523d 92c7 b23c
000002f0: 98e2 55bd 9b14 5bbd cfd2 91bc 5a97 3f3d
00000300: b8e2 6bbd 2ae1 873c 759f ce3c 69f1 473c
00000310: 487c 0d3d 0433 c83c 02cc 203d 844c eabc
00000320: 716c e63c 89b5 653b c32b 99bd 95c8 f33b
00000330: 4f81 513c da3a 333c 410f 073d dee0 b8bc
00000340: 2495 583c 6c47 2abd 771b 663b 6160 85bd
00000350: 6bf0 33bd 33c5 113d 371f 5cbd 7b8e b53c
00000360: 69ba f13c 87bd b4bd f877 a63c 4ae7 0f3d
00000370: 77d1 b1bd 8e48 a53c c925 87bd 5a0a f2bc
00000380: a977 603d af33 df3c 42ca 6c3d f678 b43d
00000390: be01 643d a3d2 ef3c 833a a9bc 903f 793d
000003a0: 3a5b 1b3d 713a 37bd b430 d03b 721a 46bd
000003b0: 1d5a 083d 7eb0 003d e18e 41ba 6733 393d
000003c0: 36c4 79bd 9eb0 c43c 11ee b9bd 6617 cd3c
000003d0: 7231 1abd c373 983c 3477 eb3c 73c2 ef3c
000003e0: f708 bf3b 516f 553d 2132 c93c b6d8 123d
000003f0: 51af 063c 0406 34bd 61b5 683c 9c6f 073d
