spkrec-xvect/cmu_us_slt_arctic-wav-arctic_b0499.npy (npy, 2176 bytes, 1 tensors)

array f4 [512]
0	0xbd9d3b18	-0.07677287
1	0xbca27a1b	-0.019833615
2	0x3c9acc58	0.018896267
3	0x3caff508	0.021479145
4	0x3cbfc793	0.023410594
5	0xbd1a17ac	-0.03762023
6	0xbd2e247e	-0.04251527
7	0xbd3ecab6	-0.04658004
8	0x3cf41ba2	0.029798333
9	0x3ca76dad	0.02043804
10	0xbd594598	-0.053044885
11	0xbda008f1	-0.078142054
12	0x3d8be640	0.06831026
13	0x3cecd939	0.028912174
14	0x3c8e0db8	0.017340526
15	0x3d3fc2fd	0.046816815
16	0xbc0cac98	-0.008586071
17	0x3c3e53b7	0.011616639
18	0x3c8bc0d7	0.017059727
19	0x3adc4ef5	0.0016808199
20	0x3d20c810	0.039253294
21	0x3c9238bf	0.017849324
22	0xbc8c4a29	-0.017125206
23	0xbd006579	-0.031346772
24	0xbd989d1f	-0.074518435
25	0xbc147e4a	-0.009063313
26	0xbd6eb026	-0.058273457
27	0x3cca46cd	0.024691964
28	0x3d5fe897	0.054665174
29	0x3c9dbbfb	0.019254675
30	0xbb1c75bb	-0.0023873884
31	0x3d121346	0.03566291
32	0x3d4059e2	0.04696072
33	0xbd21ef15	-0.039534647
34	0x3c2317dc	0.009954419
35	0xbd91827e	-0.071049675
36	0x3d2a0c8e	0.04151588
37	0x3d83160d	0.0640069
38	0xbd823170	-0.06357086
39	0xbd7a39b3	-0.061090183
40	0x3cc32654	0.023821987
41	0xbd57d864	-0.0526966
42	0x3d2b989b	0.041893583
43	0x3cc5f2ef	0.024163691
44	0x3cd71ec7	0.026259793
45	0xbe003d9f	-0.12523507
46	0xbca1db61	-0.019757928
47	0x3c433428	0.0119142905
48	0xbd845766	-0.064619824
49	0x3d5b5276	0.053545438
50	0x3cdff8aa	0.027340252
51	0x3cbc44b1	0.022981973
52	0x3cb98e80	0.022650957
53	0x3cdcac0f	0.026937513
54	0xbdc06322	-0.09393908
55	0x3c2f65f4	0.01070546
56	0x3c9790ef	0.018501727
57	0x3d02657e	0.03183507
58	0x3c7d5f46	0.0154646095
59	0x3c2d6139	0.010582262
60	0x3ce8eb12	0.028432403
61	0xbc28afe4	-0.010295842
62	0xbc8acf31	-0.0169445
63	0x3d4fbc1c	0.050716504
64	0x3c2c0c5c	0.010500994
65	0x3cd4f135	0.025993923
66	0x3c91a3ac	0.01777824
67	0xbd2b1052	-0.04176361
68	0xbd646c0c	-0.055767104
69	0xbd883ed9	-0.06652612
70	0x3d0494ed	0.03236859
71	0x3c3fccb8	0.011706524
72	0xbd0e4504	-0.034733787
73	0x3c935136	0.01798306
74	0x3d0aedf9	0.033918355
75	0x3c4eaba3	0.012614164
76	0x3b10bd64	0.0022085542
77	0x3d2df1fe	0.04246711
78	0xbcecaaf3	-0.028890109
79	0xbdb659dd	-0.08903859
80	0xbd4aa3d5	-0.04947265
81	0xbd64d359	-0.05586562
82	0xbd559b9a	-0.052150346
83	0xbd9c0836	-0.076187536
84	0xbd0449c4	-0.03229691
85	0xbd618162	-0.05505503
86	0xbd90b553	-0.07065835
87	0x3d41f710	0.047354758
88	0x3ba6d91e	0.0050918004
89	0x3d81c8ed	0.06337152
90	0x3ce2ad91	0.027670654
91	0xbdac3290	-0.084080815
92	0x3c88b53b	0.01668798
93	0xbd53b0de	-0.051682346
94	0x3d2a3a07	0.041559245
95	0x3b4cf331	0.0031272883
96	0xbaf932f4	-0.0019012378
97	0x3d423970	0.047418058
98	0xbd0f2781	-0.034949783
99	0xbdb1da81	-0.086842544
100	0x3c08d3df	0.008351295
101	0xbd09cbf4	-0.03364177
102	0xbd928580	-0.07154369
103	0x3d20398e	0.03911739
104	0x3d48252e	0.048863582
105	0xbd90511d	-0.07046721
106	0x3cd1567d	0.025553936
107	0x3d3680a2	0.044556268
108	0x3c8ca05d	0.01716631
109	0x3cf8ad41	0.030356051
110	0xbdabd734	-0.08390656
111	0x3d40a6d9	0.04703412
112	0x3d968168	0.07348901
113	0x3c0957bb	0.008382733
114	0x3cfbb681	0.030726673
115	0x3d70fd8e	0.05883556
116	0xbd48f6ca	-0.04906348
117	0xbd1bd2fb	-0.038043004
118	0xbd4d278b	-0.05008654
119	0xbd2ce7d2	-0.04221327
120	0x3c81f05e	0.015861686
121	0xbd331236	-0.04371854
122	0x3d08b049	0.033371244
123	0x3cf490a9	0.029854136
124	0xbd7c8d78	-0.061658353
125	0x3cf8dcf4	0.030378796
126	0xbdc8985f	-0.097946875
127	0x3c67f6e2	0.014157983
128	0x3ce00844	0.027347691
129	0x3c4d3bab	0.012526433
130	0xbc234027	-0.009964026
131	0x3cebc18d	0.028778816
132	0x3c5f33c4	0.013623182
133	0x3d4f140b	0.050556224
134	0x3c717e1f	0.014739542
135	0xbd9025a9	-0.07038433
136	0xbd3b515e	-0.045731895
137	0xbc294a58	-0.010332666
138	0xbdab0c01	-0.08351899
139	0xbd470ade	-0.048594348
140	0x3cf99ad7	0.030469341
141	0x3b876ce2	0.004132853
142	0xbcb9c98a	-0.02267911
143	0x3d1910c7	0.037369516
144	0xbd770804	-0.06031038
145	0x3d17675c	0.036963806
146	0x3c8ff845	0.017574439
147	0xbce84195	-0.028351584
148	0x3d48fbf7	0.049068417
149	0xbdadfc55	-0.08495394
150	0x3d6dafb9	0.05802891
151	0xbd084dcb	-0.033277314
152	0xbd933491	-0.071877606
153	0x3cf44383	0.029817348
154	0x3d158a40	0.0365088
155	0x3c80a8d6	0.015705507
156	0x3cc40fd4	0.023933329
157	0xbd7e4251	-0.062074963
158	0xbd7d9e51	-0.06191856
159	0x3d1005d8	0.035161823
160	0x3cc56de0	0.024100244
161	0xbc6e4094	-0.014541764
162	0xb9c26e54	-0.00037084764
163	0xbda25a4e	-0.079273805
164	0xbaf24ea5	-0.0018486573
165	0x3c2c5c21	0.010520012
166	0x3d347f2c	0.044066593
167	0x3c9090ac	0.01764711
168	0x3b889a53	0.0041687875
169	0x3d0f0c01	0.034923557
170	0x3c8977a3	0.01678068
171	0xbd8ef15e	-0.06979631
172	0x3d5d6a80	0.054056644
173	0xbd3f973e	-0.046775095
174	0xbc8e3832	-0.01736078
175	0x3c7037f5	0.014661779
176	0xbd36915f	-0.04457223
177	0x3ccc896e	0.024967875
178	0x3d5feaaf	0.05466717
179	0xbd6ad1f9	-0.05732915
180	0x3ceec7b7	0.029147966
181	0xbd8196a4	-0.063275605
182	0x3bb71acc	0.0055879112
183	0x3d3af284	0.045641437
184	0xbd6efb2b	-0.058345
185	0xbc0c381f	-0.008558302
186	0x3d2ca34a	0.042147912
187	0x3d05f1c5	0.032701273
188	0xbd41ae1f	-0.047285195
189	0xbd491c0f	-0.049099024
190	0x3aafa6b4	0.0013401122
191	0x3d3744d1	0.044743363
192	0xbd614f45	-0.055007238
193	0x3d3081b1	0.043092433
194	0x3ce35a13	0.027752912
195	0x3d1ba099	0.037994955
196	0x3c1433d3	0.009045559
197	0xbaeaee5f	-0.0017923823
198	0x3d2fc84d	0.04291563
199	0xbc90030d	-0.01757958
200	0x3d10b3f0	0.03532785
201	0x3d24e684	0.0402589
202	0xbd48cb31	-0.049021903
203	0x3b969cff	0.004596352
204	0x3cf22e1f	0.029563008
205	0x3c86625b	0.016404321
206	0x3cc92d02	0.024557594
207	0xbc0e84c8	-0.00869865
208	0x3d29edcd	0.04148655
209	0xbda72a70	-0.08162391
210	0x3b75f89a	0.0037532211
211	0xbd22d299	-0.039751623
212	0xbd584ec8	-0.052809507
213	0x3d23f370	0.040027082
214	0xbd985e9f	-0.074399225
215	0x3d271e3a	0.04080031
216	0x3d25c743	0.040473234
217	0xbd7704f5	-0.06030746
218	0x3c6cb2a8	0.014446892
219	0x3d3bf5ef	0.045888837
220	0xbd87a089	-0.066224165
221	0x3d19f448	0.03758648
222	0xbd717c6c	-0.05895655
223	0xbd0429aa	-0.032266296
224	0x3d2076e6	0.03917589
225	0x3d1df889	0.0385671
226	0x3d5778ad	0.05260532
227	0x3db162a8	0.08661395
228	0x3d3fda62	0.046839125
229	0x3d05e9b6	0.032693587
230	0xbceddeec	-0.029036961
231	0x3d341ab0	0.043970764
232	0x3be648d9	0.007027727
233	0xbd0c981a	-0.034324743
234	0x3ca3118f	0.019905834
235	0xbc6f4987	-0.014604933
236	0x3c9d7f72	0.01922581
237	0x3d1e8f21	0.038710717
238	0xbb0b94b3	-0.0021298348
239	0x3d901de7	0.070369534
240	0xbd82bdff	-0.06383895
241	0x3cd0f11f	0.0255056
242	0xbdabda9c	-0.08391306
243	0x3c89101f	0.01673132
244	0xbd77088d	-0.06031089
245	0x3cdea016	0.027175944
246	0x3cb7bf43	0.022430068
247	0x3d24dec4	0.04025151
248	0x3d1774dd	0.036976684
249	0x3d54f435	0.051990706
250	0x3d14c6c0	0.036322355
251	0x3c3d582e	0.011556668
252	0x3c259219	0.010105633
253	0xbd986790	-0.07441628
254	0xba7531bd	-0.000935342
255	0x3c8b98bd	0.017040605
