spkrec-xvect/cmu_us_rms_arctic-wav-arctic_b0289.npy (npy, 2176 bytes, 1 tensors)

array f4 [512]
000000 fc ea c6 bd 85 84 1d 3d 0d 0e db 3c 19 fd 34 3d
       -0.097127885 0.03845646 0.026740098 0.044186685
000010 57 be 9b b9 37 5c aa bb 95 da 5e bd 86 2a d9 3c
       -0.00029705718 -0.005198981 -0.054407675 0.026509535
000020 3e 9d 5f 3c da 6c 8e 3c 92 d9 61 bd 22 9e bc bd
       0.013648329 0.017385889 -0.05513913 -0.09209849
000030 cd ab 8d 3d ca 69 2b 3d 5b e5 9f 3c 1c c7 24 3d
       0.06917534 0.041848935 0.019518545 0.040228948
000040 d9 d9 b7 3c de ca d1 3c cb 3f 07 3c 66 35 36 bb
       0.022442745 0.02560943 0.0082549555 -0.0027802824
000050 24 c5 08 3d 97 65 fb 3c a2 35 62 bc ab c0 c3 bc
       0.033391133 0.03068809 -0.013806732 -0.023895582
000060 17 c3 74 bd 28 30 f6 bb f0 b0 83 bd bb 5c 3c bd
       -0.059756365 -0.007513065 -0.064302325 -0.045986872
000070 66 19 51 3d fe 96 a6 3c 0b f4 6d bb 4c 05 67 3d
       0.051049612 0.02033567 -0.003630879 0.056401536
000080 0e f1 bc 3c 1b 0e bc 38 35 7b 89 3d 58 30 a9 bd
       0.023064163 8.967166e-05 0.06712953 -0.08261174
000090 5d 1e 5a 3d a7 12 49 3d 2f ad cd bc df ff 86 bd
       0.053251613 0.049090054 -0.025106994 -0.06591772
0000a0 55 5a bb 3b 4c 33 24 bc f1 15 ba 3c f8 91 4c 3d
       0.0057175555 -0.010021996 0.02271554 0.049943894
0000b0 02 61 bb 3c 7e a2 e0 bd 67 c2 89 bc a5 22 61 3c
       0.022873405 -0.10968493 -0.016816331 0.01374117
0000c0 d4 dc a6 bd b3 20 d8 3c e6 7c a5 3c e3 81 da 3c
       -0.08147588 0.02638278 0.020201158 0.026673263
0000d0 f4 3f 79 3c df 8a 11 3d 23 8b ec bd ee d8 79 bd
       0.0152130015 0.03553283 -0.11549976 -0.060997896
0000e0 f5 09 f0 bc b3 08 25 3d 45 81 8f 3c 50 75 98 3a
       -0.029301623 0.0402915 0.017517695 0.0011631642
0000f0 74 7c 9d 3c 95 86 ec bb f4 49 54 bc a7 ab 89 3c
       0.019224383 -0.007218192 -0.012957085 0.016805483
000100 0d 45 e0 3c 23 64 26 3d 77 8c 17 3d 07 32 fa bc
       0.027376676 0.04062284 0.036999192 -0.030541433
000110 c5 91 59 bd dd be 6f bd 49 50 37 3a 1e 0a 3c 3c
       -0.053117532 -0.05853163 0.00069928594 0.0114770215
000120 b4 85 04 3c 83 d0 c7 3b 89 a5 b6 3c e4 d2 c7 3c
       0.008088518 0.0060978546 0.02229573 0.024392553
000130 0e 68 3a 3c e5 41 70 3c 6a fd 41 bd 53 e2 ae bd
       0.011377348 0.014664148 -0.047360815 -0.08539262
000140 c9 1e 6f bd dc 58 8b bd 97 02 77 bd ad 49 a7 bd
       -0.05837897 -0.06804058 -0.060305204 -0.081683494
000150 06 36 ff bc a6 c5 5d bd 38 39 67 bd 22 3f 8f 3d
       -0.03115369 -0.05414357 -0.056451052 0.069944635
000160 13 7f d7 3c 8a ff f5 bc ff a2 fd 3c 1d 53 ad bd
       0.02630571 -0.030029077 0.030961512 -0.08463118
000170 72 f5 15 3c 52 c7 b1 bd fe ef f4 3c 25 5b ea bc
       0.009152757 -0.086805955 0.029899593 -0.028607914
000180 e9 b1 15 3d 2b ff 10 3d 7c 29 6c bd 02 b3 77 bd
       0.03654662 0.035399597 -0.05765675 -0.06047345
000190 ce e9 98 3c 01 50 8e bd b4 82 ac bd 4b c0 0f 3d
       0.018666174 -0.06948853 -0.08423367 0.035095494
0001a0 50 dc 31 3d c7 56 91 3c 52 8f 4d 3d 54 47 91 3c
       0.043422997 0.017741574 0.05018551 0.017734207
0001b0 25 ba 23 3d ff 19 19 3d 4a ff a1 bd bc c4 44 bb
       0.039972443 0.037378307 -0.07910021 -0.003002449
0001c0 bd 6b b8 3d d2 1c 21 bb 52 6e 63 3d b2 63 77 3d
       0.090049244 -0.0024583829 0.05552513 0.06039781
0001d0 3f 61 96 bd 0e 17 8a 3c b4 16 94 bd a4 e2 a8 3c
       -0.07342767 0.016856696 -0.07230893 0.020615883
0001e0 ff d1 a1 3c c8 03 44 bd d4 ee 86 3c dd 2a 43 3d
       0.019753454 -0.04785517 0.016471304 0.0476483
0001f0 79 1b 7e bd 4a 6a 80 3d be 58 b5 bd 6c 87 25 3d
       -0.06203792 0.06270273 -0.08854817 0.04041235
000200 bd 02 1a 3d 6f e3 30 3d 64 21 1b ba 49 d7 51 3c
       0.037600268 0.043185648 -0.00059177564 0.012807676
000210 4f 6c 7f 3d ef b9 1a 3d 9a 7f 8d 3c 25 6f 7e bd
       0.06235915 0.037774976 0.01727276 -0.062117714
000220 99 f6 76 bd 0f 80 e3 bc 74 b0 85 bd d2 2d b1 bc
       -0.060293768 -0.027771024 -0.065277964 -0.021628294
000230 90 76 a3 3c f2 98 bd 3b eb 30 cb bc ee 90 96 3d
       0.019953996 0.005786055 -0.0248036 0.07351862
000240 24 f8 71 bd 30 67 2e 3d 91 5b 27 bc e6 96 51 bd
       -0.059074536 0.042578876 -0.010214702 -0.0511693
000250 41 b8 2c 3c b5 1d e6 bd 4c 38 9c 3c 50 69 2c bd
       0.010541976 -0.11236135 0.019069813 -0.04209262
000260 9c c0 96 bd a0 b3 25 3d a6 19 ca 3c c9 a6 e4 3c
       -0.07360956 0.040454507 0.024670433 0.02791156
000270 53 f4 35 3d 64 a7 9c bd f0 a0 ab bd e0 26 09 3d
       0.04442246 -0.07649115 -0.08380306 0.03348434
000280 c4 f2 ef 3a 47 69 e2 3a 9c d9 8a 3c d2 aa ca 3c
       0.0018306603 0.0017273807 0.016949467 0.024739657
000290 92 e4 05 3d 81 ac 85 3b e9 05 0d 3d a0 d8 b0 3c
       0.032688685 0.004079402 0.034429464 0.02158767
0002a0 4a e3 19 3c 62 dd 24 3d d8 b4 36 3d 5c 29 84 bd
       0.009392569 0.04025019 0.04460606 -0.06453201
0002b0 28 c1 44 3d be 79 87 bd 16 1b be 3b fa bd 38 bc
       0.04803577 -0.06615017 0.0058015687 -0.011275763
0002c0 b9 88 7c bd 95 b9 f9 3c b3 a8 25 3d 03 35 95 bd
       -0.061653826 0.030484 0.040444087 -0.07285502
0002d0 5b d6 b0 3c 06 45 60 bd c9 40 40 3c 23 f3 e5 3c
       0.021586588 -0.054753326 0.011734196 0.028070038
0002e0 9d 99 b4 bd 5e 36 37 bc 3c 31 18 3d 74 50 6e 3d
       -0.08818362 -0.011182396 0.03715633 0.058182195
0002f0 01 8a 5b bd 67 dc 58 bd 37 da 8b 3c 40 81 ff 3c
       -0.053598408 -0.052944567 0.017071826 0.03118956
000300 1f 76 8e bd 1f 26 fe 3c af 4e 9c 3a 07 61 a6 3c
       -0.069561236 0.031024037 0.0011925305 0.020309938
000310 c1 9f 6b 3c b5 d8 15 3c 22 c2 1b 3d 8a c7 27 bd
       0.01438135 0.009145905 0.038026936 -0.04096178
000320 c5 1a 39 3c 88 39 6a 3c 33 3d 79 bd 6b 4a 11 3c
       0.011297886 0.014295943 -0.06084938 0.00886784
000330 fc 08 37 bb dc c1 3d 3c 00 7d 58 3d b2 c0 e6 bc
       -0.002792894 0.011581864 0.052853584 -0.028168056
000340 3c 16 2c 3d f5 38 ed bb 6b d1 34 3b 83 6a 85 bd
       0.04201339 -0.007239456 0.0027590643 -0.06514456
000350 f4 f4 5c bd 72 a0 02 3d bb 26 73 bd f7 07 85 3d
       -0.053944543 0.031891294 -0.059363108 0.0649566
000360 61 f2 16 3d d0 bf 85 bd 81 c6 1e 3d c2 c7 2e 3d
       0.036852244 -0.06530726 0.038763527 0.042670973
000370 62 6b 76 bd c1 4b c6 3c 86 ed 9e bd ad 34 5f bd
       -0.060161002 0.024206044 -0.07760148 -0.054493595
000380 25 bc 48 bd 3e 9c 3e 3d 5d 83 81 3d 9e 2d 92 3d
       -0.049007554 0.046535723 0.06323884 0.07137607
000390 b3 b9 54 3d dd 8c ae 3c 2f fd b9 bb d5 9f 08 3d
       0.05193491 0.021307403 -0.005675934 0.033355553
0003a0 c9 50 e8 3c 5a 02 40 3c eb 19 b5 3c 98 33 1a bc
       0.028358834 0.011719311 0.022107085 -0.009411715
0003b0 76 12 49 3d cd 38 11 3d 39 aa 56 3b b0 b7 75 3d
       0.04908987 0.03545456 0.003275527 0.05998963
0003c0 30 89 84 bd f6 5f c1 3c 49 0b a3 bd f2 0d c6 3c
       -0.06471479 0.023605328 -0.07961137 0.024176572
0003d0 83 b6 49 bd 17 fc c7 3c bc 5e 4f 3c 01 f8 66 3c
       -0.049246322 0.024412198 0.012656864 0.014097215
0003e0 70 80 f0 3c 00 ad bf 3c ed 64 c5 3c d3 64 80 3c
       0.029358119 0.023397923 0.024095977 0.015673077
0003f0 05 d4 fe 3b f7 2d 68 bd ad 39 5b bb db 03 41 3d
       0.0077767395 -0.05668446 -0.0033451125 0.047122817
