spkrec-xvect/cmu_us_ksp_arctic-wav-arctic_b0036.npy (npy, 2176 bytes, 1 tensors)

array f4 [512]
00000000: 6fe2 a7bd 1777 db3c a955 1f3d 125f 023d
00000010: dd39 303d a0cc 9fbc b382 80bd 58dd 153c
00000020: a4e0 5f3c e971 6e3c d540 77bd f5ce 83bd
00000030: 0dbd 603d 1822 d93c f6b8 833d 11e4 4d3d
00000040: 5983 cdbb 13fa ea3c d3ca 0a3c 12fc 883c
00000050: e73c ee3c cb7a 3b3d 8556 6ebc d04c 3bbd
00000060: 5b40 50bd 8fc3 07bc 9ee6 6bbd 983b e3bc
00000070: be55 873d 99e6 c43c 80ca 63bb 546d 223d
00000080: cc0c 143d 6f39 323c edee 063d f34a 50bd
00000090: 7986 0b3d a2dc 213d a268 613c c7b3 55bd
000000a0: 763b 143d 0e13 a23b 2767 1d3d 8c08 d53c
000000b0: d1a2 063d ac1f d1bd 89ad 94bc 8f4f 613c
000000c0: 7502 c5bd e6c9 333d cdd0 d13b d514 063d
000000d0: d1d4 adba c1e0 a23c dd2d c8bd 09e9 6dbd
000000e0: 0e66 a9bc 4dc8 f03c 7dbb 223d 01c0 833c
000000f0: 0b18 bc3c 88b4 dfbb 6306 4cbc ac9d 163c
00000100: 5dcf e93c 0026 383d fdb6 093d fd5a 04bd
00000110: 820c 69bd 45fc 3dbd 99a2 ea3c 46ef 1e3c
00000120: 6f8f 253d fa5e 203c 9742 cb3c be00 1a3d
00000130: af1c 423c 4fc7 a63c a934 6dbd 777b c6bd
00000140: e573 a3bd dc23 61bd cffa a7bd e25c 5abd
00000150: f80c 02bd 91a5 81bd 1da1 56bd 3935 6a3c
00000160: a60c 243d 6689 fabc b012 f23c de8d c4bd
00000170: e4e0 8e3c 4e0f 92bd 49a9 023d 9d65 a8bc
00000180: b6a5 563d b113 243d 7116 9cbd cd50 4fbd
00000190: 1a41 fc3c 0b20 a7bd 0286 9ebd 5978 413c
000001a0: 6de1 423d 990b e33c 3525 633d 5d16 4f3d
000001b0: 1668 123d 29a6 c73c d161 70bd 4a2f 873c
000001c0: e698 8c3d f743 1c3c 0438 583d a94e 893d
000001d0: cfe3 a5bd 4805 423c daf9 91bd c1c9 903c
000001e0: 3267 1b3c 477a 96bd a329 b43c b57f 353d
000001f0: 2a1d 66bd ee34 6e3d 4599 84bd 715f b73c
00000200: f802 ca3c 0b02 6c3d 029b a93a 897f 423c
00000210: 9f0b cb3c 7d61 0d3d 005f 623c 9c0f bbbd
00000220: 27b5 3bbd 0af7 2e3d 18f1 98bd 59a3 12bd
00000230: 95c3 b03c f805 283b cea4 f4bc c3c0 5f3d
00000240: f98c 66bd 09e7 073d 9b4b 0d3d e137 abbb
00000250: 95e1 423d 63cd a2bd fae6 b23c 5f03 34bd
00000260: a2f7 99bd 0e6e 3a3c 82c4 d53c 2e0d c43c
00000270: 6357 2d3d a13d a2bd 57f6 babd b455 1b3d
00000280: a4cd 9d3c 524a 943b aeef f93c 7c55 bd3a
00000290: 1115 b63c 12da 973b ecd4 f83c 6f70 d33c
000002a0: de04 3f3d c825 033d 2748 faba 97d8 86bd
000002b0: d7cd 3a3d f220 5cbd 19d4 c1bc c704 1f3c
000002c0: 30fe 58bd 9d13 e13c dc96 503d 9eb4 86bd
000002d0: 97e9 c93c 6973 6dbd 4d41 843c 22d2 953c
000002e0: 4e1d c7bd 21a4 29bc f576 e83c e59e 163d
000002f0: 4f84 80bd 79a2 80bd 795b 103d 94dd 393c
00000300: 9601 84bd 5051 873c 8760 be3c 3f4d 113c
00000310: db11 173d d6b5 173c 468c 1e3d cab9 23bc
00000320: 6da9 823d 37ed 953c fa40 8abd 0ab6 713c
00000330: 2951 15ba 01d7 513c 5703 2f3d 9184 c83b
00000340: 8b3f 443d e2d8 34bc 79d3 473b 6ef6 50bd
00000350: 0673 65bd fed9 673d f223 7abd b099 2d3d
00000360: 1c08 cb3c 20e3 9bbd 694a 593d 8ca1 2b3d
00000370: 52e3 bdbd ffc7 6a3c c591 91bd 3433 42bd
00000380: e6f7 64bd 9f37 3f3d ceca 153d 6737 8b3d
00000390: 5158 063d 9bfe 9d3c dcd1 e63b 7365 fc3c
000003a0: de03 1d3d a94e 88bc eb15 d63c 6ada 0b3d
000003b0: 1b9e 523d 6210 933c 97ae 313b 403f 5c3d
000003c0: 6dd2 4bbd 47e3 bd3c 95b4 b3bd ac23 fa3c
000003d0: 436b a2bd 4474 593d 72aa ff3c 6919 9b3c
000003e0: 19b2 e83c 2467 d93c 1933 2c3d d714 06bc
000003f0: 236c ef3b 8c1b 5dbd 6bd9 413c 5823 fb3c
-0.08197486 0.026790185 0.03890005 0.031828947 0.043023933 -0.019506752 -0.06274929 0.009147011
0.013664398 0.0145535255 -0.060364563 -0.06435958 0.054867793 0.026505515 0.06431763 0.05026633
-0.0062717614 0.028683698 0.008471209 0.016721759 0.029081775 0.0457714 -0.014546995 -0.04572755
-0.050842624 -0.008286371 -0.05759298 -0.027738377 0.06608151 0.024035739 -0.003475815 0.039655045
0.036145017 0.010877951 0.0329427 -0.050852727 0.03406379 0.039517052 0.013757857 -0.052173402
0.03618952 0.004946119 0.038428452 0.026005052 0.032870118 -0.10211119 -0.018149154 0.013751878
-0.09619609 0.043893717 0.006403065 0.03273471 -0.0013262277 0.019882562 -0.09774373 -0.058083568
-0.020678546 0.029392386 0.039729584 0.016082766 0.022960683 -0.006826941 -0.012452695 0.009192865
0.028541261 0.044958115 0.033621777 -0.032313336 -0.056896694 -0.04638316 0.028641986 0.009700602
0.040419992 0.009788269 0.024812026 0.037598364 0.011847659 0.02035871 -0.05791155 -0.09691518
-0.079810895 -0.05496584 -0.08202135 -0.053311236 -0.03175065 -0.063304074 -0.052399743 0.014294916
0.040051125 -0.030583095 0.029549927 -0.095973715 0.01744122 -0.071318254 0.031899724 -0.020556265
0.052404128 0.04005784 -0.07621468 -0.050614167 0.030792762 -0.081604086 -0.07740404 0.011808478
0.047578264 0.027715491 0.055455405 0.050558437 0.035743795 0.024371224 -0.058687035 0.016502041
0.068651006 0.009537688 0.052787796 0.06704456 -0.08100092 0.011842079 -0.071277335 0.017674329
0.009485053 -0.07347541 0.02199251 0.044311244 -0.056180157 0.058155946 -0.06474546 0.022384377
0.024659619 0.057619136 0.0012939873 0.011871227 0.024785815 0.0345168 0.013816595 -0.091338366
-0.045827057 0.042716064 -0.0746786 -0.03580031 0.021577636 0.0025638323 -0.029863741 0.05462719
-0.056286786 0.033179317 0.03449593 -0.005225167 0.047578413 -0.07949331 0.021838654 -0.043948527
-0.07517935 0.011378778 0.026094679 0.023932066 0.042319667 -0.07921911 -0.09129017 0.03792353
0.019263096 0.0045254612 0.030509796 0.0014445032 0.022226842 0.0046341503 0.030374967 0.025810448
0.0466355 0.032018453 -0.0019094989 -0.0658428 0.04560646 -0.053742357 -0.023660706 0.009705729
-0.052976787 0.027475173 0.05092512 -0.06577419 0.024647517 -0.05797139 0.01614442 0.018288676
-0.09722386 -0.010354073 0.028377036 0.036772627 -0.06275236 -0.06280989 0.035243485 0.011344332
-0.06445615 0.016518265 0.023239387 0.008868515 0.036882263 0.009259662 0.038707994 -0.009993026
0.06379972 0.01830159 -0.067506745 0.014752874 -0.0005695993 0.012807609 0.042727794 0.006119319
0.04791216 -0.011038037 0.0030491038 -0.051016264 -0.056017898 0.056604378 -0.061069436 0.042382896
0.02478414 -0.0761168 0.05304948 0.04190211 -0.092718735 0.014329909 -0.071078815 -0.047412112
-0.055900477 0.046683904 0.036570363 0.067976765 0.03279907 0.019286444 0.00704406 0.030810094
0.038333766 -0.01663907 0.026133498 0.034143843 0.051420312 0.017952148 0.002711212 0.053771257
-0.049761225 0.023179663 -0.08774678 0.030534588 -0.07930615 0.053089395 0.031209204 0.018933015
0.028405236 0.02653844 0.042040918 -0.00818368 0.007306592 -0.05398135 0.011831622 0.030656502
