spkrec-xvect/cmu_us_ksp_arctic-wav-arctic_b0062.npy (npy, 2176 bytes, 1 tensors)

array f4 [512]
000000 23 a7 a3 bd 2f 1c 01 3d 0b be 26 3c ee a6 f8 3c
       -0.07990863 0.03152102 0.010177146 0.030353036
000010 2e 99 03 3d cf 7e a3 bc 65 9d 9d bd 0c 86 02 3b
       0.032128505 -0.019957928 -0.07696036 0.0019916324
000020 47 99 12 3d 70 cc 77 3c aa 7d 82 bd ce ab 92 bd
       0.035790708 0.015124425 -0.06371625 -0.071616754
000030 dc 50 24 3d 8e 07 96 3c d8 04 48 3d 0a 8a 57 3d
       0.040116176 0.01831415 0.048832744 0.05262188
000040 2c 96 b6 bc de 1a 04 3d cc 11 8e 3c 09 73 49 3b
       -0.022288404 0.032252185 0.01734247 0.0030738732
000050 d5 27 07 3d 2d 3c 47 3d ce dd 86 bc 84 ce 1f bd
       0.03299697 0.048641372 -0.016463187 -0.039015308
000060 b5 fe 23 bd 00 65 08 bc e8 8f da bc 8d 1b 35 38
       -0.04003783 -0.0083248615 -0.026679948 4.317942e-05
000070 75 72 b0 3d c4 79 4e 3c 84 e0 0e bb 8c 7c 5e 3d
       0.08615581 0.012602273 -0.0021801302 0.054317996
000080 df e0 76 3c be a9 0b 3d 44 d9 fa 3c 3c 3c 70 bd
       0.015068262 0.034097426 0.030621178 -0.058651194
000090 75 4a 8a 3c 44 a5 2d 3d 6f d2 87 3c da 66 37 bd
       0.016881207 0.042393938 0.016579835 -0.04477582
0000a0 6d 09 fb 3c 12 14 65 bc 69 86 bd 3c cc 3f e9 3c
       0.030644143 -0.013981836 0.02313538 0.028472804
0000b0 bf 18 06 3d 94 5c dc bd b1 f5 9c bc a1 8e 2d 3c
       0.032738443 -0.107598454 -0.019160124 0.010593087
0000c0 d0 71 c7 bd 96 0e 3a 3d ce d4 26 bb ca 19 eb 3c
       -0.09738505 0.045424066 -0.0025456431 0.02869882
0000d0 32 4d 9d 3c 8b 89 6d 3c ff 8a b7 bd 4c 8a 73 bd
       0.019201849 0.014498125 -0.08962058 -0.059458062
0000e0 71 00 2e bd 3f e1 5f 3c 4d f9 0e 3d 78 93 b0 3c
       -0.04248089 0.013664543 0.03490572 0.021554694
0000f0 26 aa 9a 3c 49 4c 09 bc 85 af 92 bc 9a 03 b0 ba
       0.018879961 -0.008380004 -0.01790596 -0.0013428808
000100 50 c7 cb 3c b8 53 cb b9 8c 91 80 3c f4 a2 55 bd
       0.024875313 -0.00038781553 0.015694402 -0.052157357
000110 f0 e5 60 bd 57 24 71 bd ea e1 02 3d 83 3c 42 3c
       -0.054906785 -0.058872547 0.03195373 0.011855247
000120 5e 26 32 3d 61 65 62 3c f2 88 e8 3c de fd ac 3c
       0.04349362 0.013818116 0.028385613 0.021117147
000130 53 d4 e3 3c 02 e7 c7 3c 89 9a 83 bd ac 3e bf bd
       0.027811205 0.024402145 -0.064259596 -0.093381256
000140 b4 1b a7 bd 0e 17 07 bd 11 37 86 bd 0d bb 93 bd
       -0.08159581 -0.03298097 -0.06553472 -0.072134115
000150 b4 35 fd bc 99 f0 94 bd 96 2b 8d bd 48 2b 0a 3d
       -0.030909397 -0.07272453 -0.06893079 0.033732682
000160 6d 5d c4 3c f5 c9 e9 bc b6 35 e4 3c e9 ec 81 bd
       0.02397033 -0.028538683 0.027857643 -0.06344015
000170 9c 53 c6 3c f6 8a 72 bd cc 4d 7e 3c 8a e6 87 bb
       0.02420979 -0.059214555 0.015521478 -0.0041473554
000180 67 8c 43 3d a5 78 fe 3c 5f 4c f9 bc 8b 42 81 bd
       0.04774132 0.031063387 -0.030431924 -0.0631152
000190 25 e3 31 3d 2b f7 ab bd 5b c7 dc bd 4f 4f 40 bc
       0.043429513 -0.08396753 -0.107802115 -0.011737659
0001a0 62 d0 51 3d 00 61 c9 3c 24 50 76 3d 10 5e 1a 3d
       0.05122412 0.024582386 0.06013502 0.03768736
0001b0 52 73 69 3d 13 3a 96 3c 65 4e 9b bd 1a c1 fd 3a
       0.056994744 0.018338239 -0.07583312 0.0019359917
0001c0 de 55 8d 3d be 37 17 3b c0 24 43 3d 0b b9 7a 3d
       0.069011435 0.0023073996 0.04764247 0.061211627
0001d0 5b 8f b3 bd 9c 80 e1 3c d5 47 87 bd 1b 8a 42 3c
       -0.08767577 0.027527146 -0.06605498 0.011873747
0001e0 65 f8 b6 3c ff 53 75 bd 81 f9 27 3d 03 58 62 3d
       0.02233524 -0.059894558 0.04100943 0.055259716
0001f0 07 ec 69 bd da 46 a3 3d 3d 96 88 bd 23 38 04 3d
       -0.05710986 0.07972498 -0.06669281 0.0322801
000200 40 b6 04 3d 6e 7a 56 3d b5 7a 67 bc 4f ea 2b 3c
       0.03240037 0.05236285 -0.014128377 0.010492875
000210 5b 9b 77 3c 3b 3a 3f 3d a1 8b f4 3c 09 12 93 bd
       0.015112723 0.046686392 0.029851737 -0.07181174
000220 59 70 93 bd df 9c 0f 3d 7b c0 bc bd 86 e9 b6 bc
       -0.07199163 0.035061713 -0.092164 -0.02232815
000230 b2 ec b8 3c da fc 32 3b 7b 5d e0 bc 40 ba a4 3d
       0.022573803 0.0027311356 -0.027388325 0.08043337
000240 b5 6e 92 bd ec 27 a5 3c 7a c9 15 3d 48 52 71 3c
       -0.07150022 0.020160638 0.036569096 0.01472909
000250 56 5d b0 3c e2 fa a5 bd c5 a8 ed 3c f0 2a 42 bd
       0.021528881 -0.08104493 0.02901114 -0.04740423
000260 b2 fa c0 bd 3a 6a b8 3c 44 18 05 3d 20 89 09 3c
       -0.09422816 0.02251159 0.032493845 0.00839451
000270 03 55 90 3d b3 ee a4 bd 43 57 ad bd c4 06 19 3d
       0.07047465 -0.08053341 -0.084639095 0.037359968
000280 9a 1a 6d bb 71 82 96 3b 0e eb 84 3c 25 80 75 ba
       -0.0036179186 0.0045931865 0.016225364 -0.00093651033
000290 7e 87 e4 bb a0 6c 65 3b e4 67 7d 3d b5 ab 2c 3c
       -0.0069741597 0.0035007372 0.061866656 0.010538985
0002a0 ef c7 73 3d 7c 39 60 3d a7 74 0a 3b 30 34 89 bd
       0.059516843 0.05474232 0.002112666 -0.06699407
0002b0 f8 84 04 3d 83 9c 12 bd 00 34 d1 bc d7 9e 9d 3c
       0.03235337 -0.035793792 -0.02553749 0.01924078
0002c0 cd a5 8a bd 38 bf ca 3c fd 02 57 3d ec a8 97 bd
       -0.06769905 0.024749383 0.052493084 -0.07405266
0002d0 2d 5f 05 3d 49 95 43 bd a5 ff da 3c 8c 32 82 3c
       0.03256147 -0.04774979 0.026733229 0.015893243
0002e0 b4 cc d5 bd 90 82 2e bc c3 37 a4 3c e0 d9 22 3d
       -0.10439435 -0.010651246 0.02004612 0.039758563
0002f0 f9 15 8f bd 51 4b 7f bd 26 ec 0c 3d 86 c6 4f 3c
       -0.06986613 -0.062327687 0.034404896 0.012681609
000300 29 4d 5e bd 74 fe e7 3c 37 2a 40 3d ac 0b bc 3c
       -0.054272804 0.028319575 0.04691526 0.022954784
000310 4e 0f 20 3d 64 11 d2 3b f6 0a 2b 3d 20 a0 cc 3a
       0.039077096 0.0064107645 0.0417585 0.0015611686
000320 c5 69 55 3d f9 dc f1 3c cd eb 71 bd 99 c9 57 3c
       0.052102823 0.029524313 -0.059062768 0.013170623
000330 97 ee 91 bc 0c d8 80 3c 01 08 26 3d bc 29 38 ba
       -0.017813964 0.01572802 0.040534977 -0.0007025262
000340 f7 13 6a 3d 71 a2 7a bc bb 24 aa 3b aa 83 6e bd
       0.057147946 -0.015297518 0.005192367 -0.058231033
000350 2b e6 6c bd 69 4e 72 3d fc 05 55 bd 9b a3 51 3d
       -0.057836693 0.05915681 -0.05200766 0.051181417
000360 3b ea 40 bb a9 1a 81 bd 7c 2e 15 3d 1e 5c db 3c
       -0.0029436487 -0.06303913 0.036421284 0.026777323
000370 ea 9a 8a bd 0b 97 9d 3c e1 0d 22 bd 58 e6 09 bd
       -0.06767829 0.019237062 -0.039564017 -0.03366694
000380 b1 62 83 bd a9 40 65 3d c0 39 38 3d b8 0d 96 3d
       -0.06415308 0.055969868 0.04497695 0.073268354
000390 5a 11 48 3c ff b6 2f 3d b2 e9 b6 bc d2 05 2d 3d
       0.012211168 0.042899128 -0.022328231 0.04224188
0003a0 b1 f8 2e 3d 32 1e 9b bb 58 3b 89 3c 32 a9 00 3d
       0.04271764 -0.004733824 0.01675193 0.031411357
0003b0 70 ac 69 3d 44 65 b9 3c 8e 82 f8 3a b6 41 28 3d
       0.057049215 0.022631295 0.0018959807 0.04107829
0003c0 35 29 46 bd 20 e3 a7 3c 01 f1 97 bd b0 57 6f 3c
       -0.04837914 0.020494044 -0.07419015 0.014608309
0003d0 23 91 6f bd 4a ae 38 3d 14 c7 3c 3d 5b ab c6 3c
       -0.058488023 0.04508809 0.046088293 0.02425163
0003e0 e0 c2 e4 3c 99 7f 06 3d 7d 56 25 3d 20 a7 9e ba
       0.027924955 0.03283653 0.040365685 -0.001210425
0003f0 e8 b2 29 3c d1 56 8f bd 68 f8 62 3b 80 ef 1f 3d
       0.010357596 -0.06998981 0.0034632925 0.039046764
