spkrec-xvect/cmu_us_clb_arctic-wav-arctic_b0467.npy (npy, 2176 bytes, 1 tensors)

array f4 [512]
0	0xbdc9c4b2	-0.0985197
1	0xbd07b22e	-0.03312891
2	0x3d3daa60	0.04630506
3	0x3d28f727	0.041251328
4	0xbc361512	-0.011113422
5	0xbcaf7d8a	-0.021422166
6	0xbd23c9ff	-0.03998756
7	0xbd5b0c2e	-0.053478412
8	0x3d2a887b	0.041634064
9	0x3c82c6f7	0.015964014
10	0xbd6404b5	-0.05566855
11	0xbd86b419	-0.0657732
12	0x3d8fac47	0.07015281
13	0x3d169b39	0.036769126
14	0x3cb0cec1	0.021582963
15	0x3dc79720	0.09745622
16	0x3b8403ba	0.0040287646
17	0x3caf9be2	0.021436635
18	0x3c882d09	0.016623037
19	0x3bcec393	0.0063099354
20	0x3d0e9d33	0.034817886
21	0x3cce373a	0.025172818
22	0xbc7f4a62	-0.015581699
23	0xbd515a62	-0.051111586
24	0xbd5c8bd0	-0.053844273
25	0xbc12d076	-0.008960834
26	0xbd8b2f74	-0.0679616
27	0x3c8e5659	0.017375158
28	0x3d74010c	0.05957131
29	0x3c5e10c6	0.013553804
30	0xbb084d4c	-0.0020798026
31	0x3d3e7251	0.04649574
32	0x3b1ef11d	0.0024252601
33	0xbd3d33af	-0.046191867
34	0x3c998407	0.018739713
35	0xbda321ca	-0.07965429
36	0x3d152ee5	0.036421675
37	0x3da41ed4	0.080136925
38	0xbc7f80d3	-0.015594679
39	0xbd7ff65d	-0.06249081
40	0x3cc235cc	0.023707293
41	0x3b18d019	0.0023317395
42	0x3ccaf8a2	0.02477676
43	0x3d25a00d	0.04043584
44	0x3c8f8571	0.017519685
45	0xbdd06d6e	-0.10177122
46	0xbc98c7e6	-0.018650007
47	0x3c431907	0.011907822
48	0xbda2f8b0	-0.079575896
49	0x3d47b833	0.04875965
50	0x3ae822b9	0.0017710543
51	0x3cc82b38	0.02443467
52	0x3d9bda7b	0.07610031
53	0x3d0f81fa	0.035036065
54	0xbdb9751a	-0.090555385
55	0x3c8c663a	0.01713859
56	0xbc6db8ed	-0.014509422
57	0xbaa8a80c	-0.0012867465
58	0x3c175a90	0.0092379
59	0x3ccabee6	0.02474923
60	0x3cab7f1c	0.020934634
61	0xbbfe3489	-0.0077577275
62	0xbc8b3ba2	-0.016996209
63	0x3cdebeea	0.027190644
64	0x3c8198a4	0.015819855
65	0x3c9b6bad	0.018972242
66	0x3b246762	0.0025086035
67	0xbd6e422b	-0.05816857
68	0xbd9725fd	-0.073802926
69	0xbd8dd3a6	-0.06925134
70	0x3cee415c	0.0290839
71	0x3c1d2510	0.009591356
72	0xbb1a1cea	-0.002351577
73	0x3c54912b	0.012974064
74	0x3c9cfc1a	0.01916318
75	0x3cd42fc6	0.025901686
76	0x3d2e549e	0.042561166
77	0x3cbbce36	0.022925477
78	0xbd70a5ea	-0.058751978
79	0xbda7e37c	-0.08197686
80	0xbdae15fe	-0.085002884
81	0xbd39dd0f	-0.045376834
82	0xbd8c30dc	-0.06845257
83	0xbd97f111	-0.07419027
84	0xbcf7c5bf	-0.03024566
85	0xbd6cb0e3	-0.05778588
86	0xbd84c380	-0.06482601
87	0x3d8779a4	0.06614998
88	0x3c9c63ce	0.01909056
89	0x3d6ff2d0	0.058581173
90	0x3cdb2c3c	0.026754491
91	0xbd9072ad	-0.07053123
92	0x3b8f2daa	0.0043694573
93	0xbd28d9e0	-0.041223407
94	0x3d6db9c7	0.0580385
95	0x3bdf9b72	0.0068239504
96	0x3d09b214	0.033617094
97	0x3d912947	0.07087951
98	0xbda2d5d1	-0.079509385
99	0xbdaa99be	-0.08330105
100	0x3cfca1ee	0.030838933
101	0xbd542db8	-0.051801413
102	0xbdaccab4	-0.084371
103	0x3d03486f	0.0320515
104	0x3d319975	0.04335924
105	0xbcdc4efa	-0.026893128
106	0x3d33d7a6	0.04390683
107	0x3d71d7f1	0.05904383
108	0x3d43c6d2	0.04779703
109	0x3c6f1ed7	0.014594755
110	0xbdc19ba0	-0.09453511
111	0x3d30053c	0.042973742
112	0x3db1bb0f	0.08678257
113	0x3bef0a36	0.0072949184
114	0x3d04b359	0.0323976
115	0x3d698baf	0.05701798
116	0xbd9fe920	-0.07808137
117	0x3aa4f53a	0.001258529
118	0xbd4ab143	-0.049485456
119	0xbcb66d2c	-0.022268854
120	0x3cdf3394	0.027246274
121	0xbd5bfa07	-0.05370524
122	0x3c36d0d5	0.011158188
123	0x3d19be92	0.037535258
124	0xbd7b7c66	-0.061397932
125	0x3d88e560	0.06684375
126	0xbdaef73d	-0.08543251
127	0x3c80cc9e	0.01572257
128	0x3d2b444f	0.04181319
129	0x3ccdc6a1	0.025119128
130	0x3bccdfb1	0.006252252
131	0x3ca1bf40	0.019744515
132	0x3d8128ca	0.06306608
133	0x3d051dce	0.032499127
134	0x3b5f2fec	0.0034055663
135	0xbd36331e	-0.044482343
136	0xbcc2bfc6	-0.023773085
137	0x3ce55fd2	0.027999792
138	0xbdc045ec	-0.093883365
139	0xbd044e05	-0.032300968
140	0x3ca495bd	0.020090932
141	0x3b74d2a0	0.0037356988
142	0xbcd75cf8	-0.026289448
143	0x3d42b0fa	0.04753206
144	0xbd76dd7c	-0.060269818
145	0x3d112904	0.035439506
146	0xbaaa7b80	-0.0013006777
147	0xbc3c1612	-0.011479871
148	0x3d4a104b	0.049331944
149	0xbdae6a54	-0.08516374
150	0x3d74c815	0.059761126
151	0xbd3ebcc1	-0.04656673
152	0xbdb3c583	-0.08777907
153	0x3c3297ed	0.01090048
154	0xbbb7012b	-0.005584856
155	0x3cb12148	0.021622315
156	0x3c7f93c4	0.015599195
157	0xbd96e893	-0.07368579
158	0xbdae13ac	-0.08499846
159	0x3cf04418	0.029329345
160	0x3d05e94a	0.032693185
161	0x3b814ef4	0.0039461795
162	0x3cd26799	0.025684165
163	0xbce9f024	-0.02855689
164	0xbd2cffb3	-0.04223604
165	0x3c18200a	0.009284982
166	0x3cc348c1	0.023838403
167	0x3d5aae0c	0.05338864
168	0x3c3231bd	0.010876116
169	0x3cb0c012	0.021575961
170	0x3bec5e36	0.0072133793
171	0xbdaaea9a	-0.08345528
172	0x3d596d2c	0.05308263
173	0xbd6b98e3	-0.05751885
174	0xbc62d8f8	-0.013845675
175	0xb9f3875d	-0.00046449425
176	0xbd459078	-0.04823348
177	0x3d0d0387	0.034427192
178	0x3d118192	0.03552396
179	0xbd8f0b3b	-0.06984564
180	0x3cd2b8ae	0.025722828
181	0xbd362b60	-0.04447496
182	0x3cb56906	0.022144806
183	0x3d5bae4d	0.053633023
184	0xbd7e84e0	-0.06213844
185	0xbc1da2b7	-0.009621314
186	0x3d408ad2	0.04700739
187	0x3c90e7a8	0.017688587
188	0xbd57c384	-0.052676693
189	0xbd46e55e	-0.048558585
190	0xbcde18c7	-0.027111424
191	0x3d637676	0.055532895
192	0xbd83ce7a	-0.06435867
193	0x3c616a5f	0.013758271
194	0x3c57407b	0.013137932
195	0x3cd417c3	0.025890237
196	0x3d1006bd	0.035162676
197	0x3c83d484	0.016092546
198	0x3d11753e	0.0355122
199	0xbcc2dfa3	-0.023788279
200	0x3c5683e7	0.013092971
201	0x3c303c73	0.0107566
202	0xbd7fb96f	-0.062432703
203	0x3bd8a213	0.0066111176
204	0x3ce03258	0.027367756
205	0x3c54e9fc	0.012995239
206	0x3d4c6fbf	0.049911257
207	0xbcceb4f4	-0.02523277
208	0x3c808f92	0.01569346
209	0xbca628c5	-0.020283112
210	0x3b962306	0.004581812
211	0xbd23a9e8	-0.039956957
212	0xbd274613	-0.040838312
213	0x3cfeeb79	0.031118141
214	0xbd7bc6bc	-0.061468825
215	0x3d2c5ed3	0.04208262
216	0x3d2112e5	0.03932466
217	0xbd9683a1	-0.07349325
218	0x3c4d9f09	0.012550124
219	0x3d1d8f3c	0.038466677
220	0xbdc3c689	-0.09559352
221	0x3c9e2979	0.019306885
222	0xbd7eb7d9	-0.06218705
223	0xbd1d9ada	-0.038477756
224	0x3d73452f	0.05939215
225	0x3d0bd1a4	0.034135476
226	0x3d916048	0.07098442
227	0x3dac524d	0.08414135
228	0x3d9f3e41	0.07775546
229	0x3d0a1b4c	0.03371744
230	0xbce1ef50	-0.027579933
231	0x3cf7f79c	0.030269437
232	0x3d398a45	0.04529788
233	0xbd2d3bdb	-0.04229341
234	0x39b5d6d0	0.00034683058
235	0xbd2452fb	-0.0401182
236	0x3d1b402c	0.037902996
237	0x3c9be46c	0.019029818
238	0x39319541	0.00016935637
239	0x3d3875ca	0.045034207
240	0xbd6d0f93	-0.05787618
241	0x3caecf9d	0.021339232
242	0xbdda3947	-0.10655456
243	0x3cccb21c	0.024987273
244	0xbd22cfc0	-0.039748907
245	0x3c5f8e2f	0.013644739
246	0x3ca47ea8	0.020079926
247	0x3d261abd	0.040552843
248	0x3c45b47d	0.012066958
249	0x3d2b45e4	0.0418147
250	0x3cda6b2c	0.026662432
251	0x3c9c6e01	0.019095423
252	0x3c1ee12f	0.009697243
253	0xbd12e034	-0.035858348
254	0x3ceb334c	0.028710984
255	0x3cf9e3e6	0.030504178
