spkrec-xvect/cmu_us_clb_arctic-wav-arctic_b0193.npy (npy, 2176 bytes, 1 tensors)

array f4 [512]
00000000: 006d aabd f14d 23bd f441 233d 8cd9 2b3d
00000010: 4c31 9bbc 3508 bdbc b7d2 4ebd f551 77bd
00000020: 539e cf3c f231 883c 3866 8fbd 06f5 41bd
00000030: 15a8 773d 65ea 033d 5dd0 dd3c e807 9f3d
00000040: 097d 61bc 06ad 293b 1697 373c 0228 9cbb
00000050: d62b 033d f543 e73c f1dc 3cbc 2d42 57bd
00000060: b7d1 4dbd 1562 2ebc e0b5 5cbd 1cc5 963c
00000070: 3204 973d 3030 f13b 2a52 4ebb e46b 5b3d
00000080: 7c41 8d3c 3a1d 2abd 9a86 0e3d 7065 9dbd
00000090: 0344 1e3d 6535 633d 94fa ccbc 07e9 abbd
000000a0: b262 8d3c c568 c1bb 4a8d b83b ce3e 2a3d
000000b0: 692e 293c d56c d4bd 24c5 97bc a9cc 403c
000000c0: 820f 9fbd 07a1 203d bf6f b43b 9fe5 3c3d
000000d0: 8acb 403d 39ee 8a3c 12c1 b3bd e0d3 3bbc
000000e0: cb9e 64bc 1be7 d83c e1ce 303c 159a a33c
000000f0: 3686 bd3c 181e 07bc 4bde 86bc 5a76 0c3d
00000100: 15b5 2f3c 37d7 2e3d bbe0 0ebc eb19 7abd
00000110: 8a37 83bd ca83 a0bd 453e cbb9 7079 0f3c
00000120: aa4a 913c b817 313c 2178 bc3c 4f93 d33c
00000130: e5f7 cb3c 673f f73c 9bff 5fbd 4889 a7bd
00000140: 2f04 e1bd cefb 46bd 4ee7 78bd 225c 92bd
00000150: b9d3 0bbd 22da 84bd 4399 8dbd 3a31 423d
00000160: 4eb6 13bc 34df 6f3d 4402 da3c 18ff b4bd
00000170: 0cba 363c e42d 8ebd 4680 643d 0970 1d3d
00000180: e3e1 da3c 39c9 5a3d c34a acbd e2ff a0bd
00000190: d890 693c 4716 8abc 448d 88bd ecc2 883c
000001a0: 8ddb cf3c aebc 11bd 2d68 2c3d 73cb 4b3d
000001b0: 2700 713d e610 e23c d06b b2bd e6da 123d
000001c0: 9486 843d ecd7 b53b 58cb db3c 3540 873d
000001d0: 202e 95bd f807 4fb8 eb4c 2dbd 3db8 8d3c
000001e0: 948d de3c 911f 8abd e703 c1ba cee7 163d
000001f0: 580b 7bbd 7d81 6d3d a32b a9bd edaf 7e3c
00000200: e59a 213d 0615 2e3d 4780 fa3c df19 963c
00000210: 541f fb3c c0c5 c93c 6303 4d3c 8ff9 babd
00000220: 47fc 7dbd 8d70 a33c bd89 babd 5358 0ebd
00000230: 5f6c 023d d0fe 743b 2866 98bc e45d 593d
00000240: 3104 73bd fd76 043d 0eab 8cbc 8068 b9bc
00000250: 0d23 403d c8c0 b5bd 945b 103d 0f1c 37bd
00000260: 0d7f abbd 1972 073c 9bd4 53bc a35a 953c
00000270: d55c 4dbb e366 9bbd c7e2 c0bd e84c f83c
00000280: ebd6 723c f714 483c 99d4 0b3d ec2a edbc
00000290: 7312 debb 2284 3e3c 601a d23c 78da 3b3d
000002a0: d142 b03c c90c 2f3d 6e1a ff3c 93b3 c5bd
000002b0: ecc5 4f3d d148 50bd 0070 de3a acbb 653c
000002c0: 4d4e 16bd 6a0e 553d 6fb5 873c dd24 8abd
000002d0: e425 c23c 8be4 16bd 09db c83b 60ff 673d
000002e0: 3276 92bd 2a45 1ebc 4eb5 283d c808 0d3d
000002f0: 4e74 6ebd 8d7e 63bd e429 393c 3eb0 0d3d
00000300: 693a 72bd f93e e63c f00a 733c 020b 883b
00000310: 9a39 463d 29d8 b639 a683 dd3c d954 1fbd
00000320: 5a14 383d b2f1 ecbb 75c4 94bd 95bd 083c
00000330: f109 2e3c 7309 083c b4e9 b43c 0d9a e1bc
00000340: afa1 a93c 21a4 acbc 8ff1 693b e858 5fbd
00000350: 4eb9 68bd 6f58 193d 70f1 4bbd bd2f b23c
00000360: 135f 063d 1a08 bfbd 3d10 dc3c 464b 993c
00000370: 3ab4 97bd 6222 e43c 0953 7fbd e80f a7bc
00000380: d1d0 323d e9b6 c23c 5e15 713d 3872 b73d
00000390: 4e1b 823d 6193 0e3d 70f8 bdbc 3824 4c3d
000003a0: 946b c63c b88d fcbc 6963 aabb cbee 96bc
000003b0: a019 f03c 55db b33c ce6c 0239 44b3 323d
000003c0: ea94 55bd 61bb b33c 6b3b c5bd 8aa0 153d
000003d0: 6654 44bd acd7 653c dfc7 a53c 5bb4 bb3c
000003e0: 19a6 6b3c 6511 453d 0028 243d 3a6a f83c
000003f0: 307f 043c e9cf 1bbd a1af 263c 5f8c d73c
-0.08321571 -0.039869253 0.03985782 0.041955516 -0.018944405 -0.023075202 -0.050493922 -0.060380895
0.02534405 0.016625378 -0.070019186 -0.047352813 0.06046303 0.032205958 0.027076894 0.0776518
-0.013762721 0.0025890484 0.011205455 -0.0047655115 0.032024227 0.028230647 -0.011527286 -0.052553345
-0.050248828 -0.010643502 -0.053884387 0.018404536 0.07373847 0.0073604807 -0.003148208 0.05356969
0.01724314 -0.04153178 0.034796335 -0.07685363 0.03863908 0.055470843 -0.025021829 -0.08394056
0.017258976 -0.005902382 0.0056320773 0.0415638 0.010326006 -0.103723206 -0.018526621 0.011767545
-0.0776663 0.039216068 0.0055064852 0.04611742 0.04706911 0.016959297 -0.087770596 -0.011464089
-0.013953875 0.026477387 0.010791511 0.019970933 0.023135286 -0.008246921 -0.01646342 0.034292556
0.010724326 0.042685714 -0.008720572 -0.061059874 -0.064070776 -0.07837637 -0.00038765572 0.00875698
0.017735798 0.010808878 0.0230065 0.025827078 0.024898479 0.0301816 -0.054687124 -0.08180481
-0.10987126 -0.048579983 -0.060767464 -0.07146479 -0.03413746 -0.06486918 -0.06913998 0.047410227
-0.009015633 0.058562472 0.026612408 -0.08837718 0.0111527555 -0.06942347 0.055786394 0.038436923
0.02671904 0.053414557 -0.08412697 -0.07861306 0.014255725 -0.016856326 -0.06667569 0.016694508
0.025373245 -0.03558033 0.042091537 0.04975457 0.058838036 0.027595948 -0.0871197 0.03585329
0.06470981 0.0055494215 0.02683036 0.066040434 -0.07284188 -4.9360067e-05 -0.042309683 0.017299766
0.02716712 -0.06744302 -0.0014725894 0.03684216 -0.061290115 0.057984818 -0.08260276 0.015544874
0.03945436 0.04250052 0.030578746 0.018322883 0.030654587 0.024630427 0.0125130145 -0.09129631
-0.06200817 0.01995113 -0.09108303 -0.0347522 0.031841632 0.0037383325 -0.0186034 0.053068057
-0.05933017 0.03234004 -0.017171409 -0.022632837 0.046908427 -0.08874661 0.035243586 -0.044704493
-0.083738424 0.008266949 -0.012929107 0.018231696 -0.003133585 -0.075879835 -0.09418254 0.03031011
0.014821748 0.01221203 0.034138296 -0.02895113 -0.0067771017 0.011628183 0.025647342 0.045862645
0.021516236 0.042736802 0.031140532 -0.09653392 0.050725862 -0.050850693 0.0016970634 0.014021795
-0.036695767 0.0520157 0.016566006 -0.06745312 0.023699708 -0.03683905 0.0061296267 0.05664003
-0.0715145 -0.009660045 0.04118853 0.034432203 -0.058216386 -0.05554061 0.011301491 0.034591906
-0.059137736 0.0281062 0.014834151 0.004151703 0.048394777 0.00034874797 0.027040314 -0.038899276
0.044941284 -0.0072309608 -0.07264034 0.008345981 0.010622487 0.008303034 0.022084095 -0.027539277
0.02070698 -0.021074357 0.0035696959 -0.054528147 -0.056817345 0.037437852 -0.0497908 0.021751279
0.032805514 -0.09327717 0.026863212 0.018712651 -0.07407422 0.027848426 -0.062335048 -0.020393327
0.043656174 0.023768859 0.058858268 0.089573324 0.06352864 0.03480852 -0.023189753 0.04983923
0.02422122 -0.030829296 -0.005199839 -0.018424412 0.029309094 0.021955172 0.00012438299 0.043627992
-0.05214397 0.021939935 -0.09630474 0.036530055 -0.04793205 0.014028471 0.020236908 0.022913149
0.0143828625 0.04811229 0.04007721 0.03032409 0.0080869645 -0.038040075 0.010173709 0.026312051
