spkrec-xvect/cmu_us_clb_arctic-wav-arctic_b0212.npy (npy, 2176 bytes, 1 tensors)

array f4 [512]
00000000: 6735 b6bd edbb 1dbd 4140 1d3d 264d 193d
00000010: 84b8 afbc 01e6 1abd f65d 0ebd 70b3 4fbd
00000020: 5326 b73c 3222 933c f24a 6dbd 6872 64bd
00000030: caae 6c3d 94e0 d33c d7d3 4c3c 3c19 b23d
00000040: 8bc6 cfbb 198e 6e3b edce 823c 0201 a5bb
00000050: 5824 133d 256e 953c ef8c 7cbc 0b9b 43bd
00000060: f96f 73bd 41da 27bc cb3d 34bd 5fb3 b83c
00000070: d564 853d 0838 9a3c 8511 1fbb 0cc3 6f3d
00000080: 3046 d93c c235 1dbd 76fe c33c c3ef 8fbd
00000090: 89e0 323d 50e2 263d 4cf7 29bd 51fd 98bd
000000a0: 7774 08bc 3a23 c5bc 92fc 3dbb f0d5 473d
000000b0: add2 d03c 7f86 c6bd 9007 a1bc a2fc 3c3c
000000c0: b236 8ebd 6446 283d ac11 8b3b 3837 223d
000000d0: 4d8d 663d 8d52 1b3d 0ca6 a4bd 1b8a 7dbc
000000e0: 64cd 52bc 6189 d23c 5520 863c 1bf4 aa3c
000000f0: 3f1a a83c 1330 1ebc 9168 90bc af68 fe3c
00000100: 37a2 fd3b d58b f13c 6b35 babc 19d8 70bd
00000110: 6d9e 7ebd 21bc 8ebd ca34 3e3c b871 293c
00000120: 55b8 a63b a261 6a3c f8e4 033d 023f 853c
00000130: bd3b 5b3c 1747 ad3c b5b7 4abd 3edf a7bd
00000140: 2bbe bebd 0240 5bbd 687b 57bd 05f4 a0bd
00000150: 92a3 06bd d9ba 84bd 2691 94bd 0e05 b03d
00000160: 2cc9 cf3b a064 3a3d fb87 d23c 8254 acbd
00000170: 316e eb3b b31f 4bbd 35cb 343d cd0d 51bc
00000180: dca5 d23c 180c 4d3d 9855 6bbd 2537 babd
00000190: fa89 b93b 6129 debc 5d89 5fbd 4724 a63c
000001a0: 5a26 3d3d bf5c 5bbd 5e75 d83c e101 5f3d
000001b0: 8ef0 633d 5265 5d3c ff2f aebd 02cc 353d
000001c0: 70cd 833d 3b09 9ebb 5b9c e23c 13b8 853d
000001d0: 4b85 9dbd e449 6dbb 4f83 45bd 1c56 88bb
000001e0: 2fe8 5b3c 8502 76bd 1b0e 2c3c cb27 f43c
000001f0: 51fb 7dbd 105b 4b3d 2025 95bd 8e8c c13c
00000200: 6b80 273d a814 e03c 125e b43b 7e1a 883c
00000210: 6040 ea3c 4f22 203d c456 8d3c d2b0 84bd
00000220: 421f 07bd 5016 3eb8 0b1d a3bd 7765 50bd
00000230: 2ea6 9a3c 9510 833b 7e42 bfbc 61a7 413d
00000240: 6163 8abd c4a1 503d 731c 11bc 735a 2cbd
00000250: c92b 293d 7216 a7bd 19e8 4e3d 18e8 0bbd
00000260: 0cc6 b0bd 1c9c 113c 5bb1 303c 9829 043d
00000270: 7094 ba3b 97be a2bd 1b48 93bd 31d4 853d
00000280: 7414 5b3c 1b49 dcba 7c50 f33c 24f9 45bd
00000290: 53d5 3fbc 4b53 1b3c 5b89 493d 7994 fa3c
000002a0: 1267 f2b9 9b27 403d 6cda f83c b3ee 98bd
000002b0: a863 6e3d 6411 6fbd 3d41 81bc 05b9 573c
000002c0: 0d71 eebc d886 333d 5816 013d c1c5 91bd
000002d0: d2f8 c33c a917 36bd 07a0 4bbc e4d8 7e3d
000002e0: 8126 6bbd 3dcd 12bc fb8b 1e3d 8bbe dc3c
000002f0: dec8 75bd 8963 64bd 384d 833c e3c9 3f3d
00000300: 4779 38bd 1bec 3c3c 92f2 d13c 6e53 8f3c
00000310: 0f77 0f3d a7c9 8d3b 815e 213d 5e5e 9abc
00000320: e206 d33c d3d0 7c3c cb96 7bbd 448f eb3b
00000330: c978 0f3d dcda 453c cbc8 f23c cc18 0fbc
00000340: eed9 d63c 9bc5 2abd b89b 973b 1634 54bd
00000350: cf24 12bd 8382 393d 6ae2 59bd 1ed1 2d3c
00000360: f6e9 273d e6cc a6bd 2f43 6f3c b06e d73c
00000370: 4026 9abd 4f41 9b3c b032 5cbd b9ed 24bd
00000380: eeb5 483d 458c cd3c 77cf 533d f669 d33d
00000390: 3e52 b53d 3293 2f3d d9ff 0cbd 2fe1 713d
000003a0: 305d 043d 165a 3ebd 078f 03bc c108 3cbd
000003b0: 037e 283d 33b2 903c 097f e2ba c08d 6a3d
000003c0: e950 6fbd 0f22 bb3c fce1 c6bd e258 e13c
000003d0: fb3a 2abd eaad e93c e7ba f63c 22b5 013d
000003e0: 344b 32bc 74a1 863d 0ccf 223d 4ae6 303d
000003f0: e6ba 1d3c 19e0 1ebd 543b 323c 85a2 343d
-0.088969044 -0.038509298 0.038391355 0.03742709 -0.021450289 -0.037817005 -0.034757577 -0.050708234
0.022357142 0.017960642 -0.0579328 -0.05577317 0.05778388 0.025863923 0.012501678 0.08696219
-0.006340807 0.0036400615 0.01596781 -0.0050355205 0.035923332 0.018240998 -0.015414461 -0.047755282
-0.059432957 -0.010244907 -0.044004243 0.022546468 0.06513373 0.018825546 -0.0024271917 0.05853562
0.026522726 -0.038381346 0.023925047 -0.07028153 0.043671165 0.040743172 -0.041495606 -0.07470191
-0.008328549 -0.024064649 -0.0028989655 0.04878801 0.025491083 -0.09693622 -0.019656926 0.011534842
-0.06944026 0.041082755 0.00424405 0.039603442 0.0562871 0.037920523 -0.080394834 -0.015474821
-0.012866352 0.025700273 0.016372839 0.020868352 0.020520328 -0.0096550165 -0.017627986 0.031055776
0.007740285 0.029485622 -0.02273055 -0.058799837 -0.062162805 -0.069694765 0.011609266 0.010342054
0.005087892 0.014305504 0.032200783 0.016265396 0.013380942 0.021152062 -0.049491603 -0.08196877
-0.093136154 -0.05352784 -0.052607924 -0.07859043 -0.032870837 -0.06480951 -0.07254247 0.08594714
0.00634112 0.04550612 0.025699606 -0.08414556 0.0071847667 -0.049590778 0.044139106 -0.012759638
0.025713854 0.05006036 -0.057454675 -0.09092549 0.0056622 -0.02711934 -0.05457436 0.02028097
0.046179153 -0.053555246 0.026423153 0.05444515 0.055649333 0.013512926 -0.08505248 0.04438401
0.064356685 -0.0048228777 0.027662447 0.0652925 -0.07691439 -0.0036207372 -0.04822093 -0.0041606557
0.013422056 -0.060060997 0.01050141 0.029804131 -0.062007252 0.04964739 -0.07282472 0.023626592
0.040893953 0.0273536 0.005504378 0.016614195 0.02859515 0.03909522 0.017253287 -0.06479038
-0.032988794 -4.532031e-05 -0.07964524 -0.050878014 0.018878069 0.0039997795 -0.023347136 0.047278766
-0.06757236 0.05093552 -0.0088568805 -0.042078447 0.041301522 -0.08158578 0.050514314 -0.03415689
-0.086315244 0.008887317 0.010784472 0.03226623 0.0056939647 -0.079465084 -0.071914874 0.06534613
0.013371576 -0.0016806455 0.029701464 -0.048333302 -0.011708575 0.009480308 0.049203258 0.030588375
-0.0004623463 0.04691277 0.03037759 -0.07467403 0.05820051 -0.058366194 -0.015778178 0.013166671
-0.029106641 0.04382977 0.03151545 -0.07117797 0.023922358 -0.044456158 -0.01242829 0.06221856
-0.057409767 -0.008960065 0.038707715 0.026946327 -0.060006015 -0.055758987 0.016028032 0.046823394
-0.045037534 0.011530901 0.025628362 0.017495837 0.035025652 0.0043270173 0.039396767 -0.018843826
0.025760118 0.015430647 -0.061423104 0.0071887095 0.0350273 0.012076106 0.029636761 -0.008733939
0.026226964 -0.041692358 0.0046267174 -0.051807486 -0.035679635 0.04529048 -0.05319444 0.010608939
0.040994607 -0.0814455 0.01460342 0.026297897 -0.07526827 0.01895204 -0.053759277 -0.040265772
0.049001627 0.0250913 0.051711526 0.10322945 0.08853577 0.042864986 -0.034423683 0.059052642
0.032315433 -0.04647263 -0.008029706 -0.045906786 0.0411358 0.017663097 -0.0017280291 0.05726409
-0.05842677 0.022843389 -0.09711072 0.027508203 -0.041560154 0.028525311 0.030118419 0.031666882
-0.010882188 0.065737635 0.039748237 0.04318837 0.00962708 -0.038787935 0.010878403 0.044100303
