spkrec-xvect/cmu_us_ksp_arctic-wav-arctic_b0448.npy (npy, 2176 bytes, 1 tensors)

array f4 [512]
00000000: 38fc aebd 5cba 3d3c 1ef4 483d 771b 913c
00000010: 0a51 193d 01e1 89bc 22ad 72bd 44cd 863c
00000020: e246 403d 7f99 8b3c 5622 81bd 8bca 8bbd
00000030: 4c91 653d 9643 963c e187 483d 583e 5f3d
00000040: eedc 4ebc 9321 e43c 8ac8 563c 72b0 733b
00000050: 2d0d 143d 13ae ea3c a35c 8abc 31fc 28bd
00000060: b617 27bd 4404 e2bb 1045 80bd 67f0 903a
00000070: 866b ab3d 2e27 9f3c 25b7 3dbb 1388 623d
00000080: 0b68 2d3d 3553 fe3c 2cda 533d a163 3ebd
00000090: 742b 5f3d 4b54 533d 5f31 c73c 5e69 79bd
000000a0: 56ef 923c 8445 d5b9 c729 813c b8c7 0f3d
000000b0: 46cc 0e3d b2ad eebd c5ff 96bc 9d04 663c
000000c0: f02e bfbd fc7b 143d ccdc 853c 1c54 0e3d
000000d0: d9d1 05bc 72e6 bc3c e323 c6bd a746 09bd
000000e0: d455 44bd 797a c23c 9af7 aa3c 4503 213c
000000f0: 461a 123d 398e 10bc a38d 78bc 886e df3b
00000100: 5d07 a9ba 52a9 433d 9c95 193d dd1a 92bc
00000110: 2ef2 56bd 1a52 81bd 7feb 2a3c 3e1a 653c
00000120: 5012 89bc c8d2 643c 9b3c 433c fa30 033d
00000130: 1ec6 b53c 483b e23c 085e 60bd 62ac a6bd
00000140: 8ed8 7ebd 8cd8 8abd cff2 76bd de83 8fbd
00000150: 044c f5bc 2568 94bd e124 73bd 3dcd 9c3c
00000160: 8ba8 143d f367 0cbd 3e0e ec3c 733c a3bd
00000170: 4689 863c f366 a1bd 01ae 933c 6c86 f6bc
00000180: 638c 433d 4ef6 3b3d c3c4 19bd 759d 80bd
00000190: f44d 0e3d 064b 79bd 9082 afbd 6d51 253c
000001a0: 2967 4c3d f924 4f3c 39f5 3e3d 9709 033d
000001b0: 3788 343d b913 b33c 2843 8fbd c102 6cbb
000001c0: 4ca8 a93d 2d8a 8dbb 8bcb 613d fbf6 833d
000001d0: 0809 56bd 692f a03c 4baf 84bd 4f03 893c
000001e0: 6bf9 e73c 9707 88bd 0214 bd3c 5b99 8d3c
000001f0: f0a1 79bd 232d bd3d b7e7 c4bd 5c90 153d
00000200: f18d 263d 67eb 083d 226b 02bd de2a 963c
00000210: d4d6 d43c ce88 393d 3be0 c33c 107c a0bd
00000220: 281e 8ebd 502b 2b3d 2ee4 aebd 240f 41bd
00000230: 1fb2 ad3c 2dfe 353b b9de 45bd f312 4e3d
00000240: 84d1 8cbd 5f2a 103d 3c22 c63c 55ab 2cbc
00000250: de43 dc3c 474e bcbd 843e a23c b336 71bd
00000260: 6044 d6bd 87c6 073d 8d42 043d a93d f83c
00000270: f20e 7b3d f918 dbbd 7383 9fbd 4e5f 353d
00000280: dfe8 b03c 2216 593c 966a 233d 6c79 dcba
00000290: 364b 493c 90a2 ae3b 2928 3d3d e026 583c
000002a0: a1b5 3b3d 3aa2 083d 4b78 82bb 0ede 6dbd
000002b0: 19b8 e93c f5df 81bd d3f1 12bd abd5 843c
000002c0: 0c7f 15bd 03ab b13c 2198 663d 95f8 49bd
000002d0: 1c0d 1c3d 47ad 86bd db76 063c 70dd fa3a
000002e0: 033b a3bd ecfc 30bc 389a 043d 97f7 743d
000002f0: 0f3b 33bd bbd7 89bd 953b cb3c d91b 8a3c
00000300: 1298 80bd 0cf4 483d 266b 533d f3d6 5b3b
00000310: 3dbb e03c 364a 8b3c 9029 303d 3ec6 37bc
00000320: cc15 c23c 72ee d63c a6e9 48bd 8679 313c
00000330: 166b 74bc e8c3 8a3c 896e 383d 25d7 b83a
00000340: 60a8 073d f959 fbbb c5e5 7b3b d505 82bd
00000350: 90a0 38bd 5cf7 373d 5cdb 8fbd f348 3b3d
00000360: 3cb1 aa3c 32c1 89bd 098e 093d c869 1b3d
00000370: 712a 89bd 3249 a83c 72a7 97bd e61a 56bd
00000380: 4b5e 4abd 2a0a 5e3d c4d9 2f3d 77a2 943d
00000390: c432 d73c 9e10 ca3c dd31 d2bb a1a3 273d
000003a0: a205 7d3c e90a 4dbc be67 d53c a876 ff3c
000003b0: acd1 233d 3c10 bd3c f7cf f83a fabb 3f3d
000003c0: 33b5 5fbd 2081 b43c f337 a5bd 3ac5 c13c
000003d0: 72f0 b4bd 1315 103d 5758 de3c b3a3 963c
000003e0: 2db2 233d a75a 4a3d acec 1b3d 227c fc3a
000003f0: f124 123c bbc5 8dbd 83b8 033c bee4 173d
-0.08544201 0.011580076 0.049060933 0.017713292 0.0374308 -0.016830923 -0.059247144 0.0164553
0.0469426 0.017040966 -0.06305377 -0.068257414 0.05604677 0.018342774 0.04895771 0.054502815
-0.012625916 0.02784804 0.013109336 0.0037184027 0.036145378 0.028647458 -0.016889876 -0.041256133
-0.040794097 -0.006897481 -0.062631726 0.0011057974 0.08370118 0.019427862 -0.0028948274 0.05530555
0.04233555 0.031045536 0.051721737 -0.046481732 0.0544848 0.05159406 0.024315534 -0.0608915
0.01793639 -0.0004067832 0.015766991 0.035102576 0.03486278 -0.116542235 -0.018432507 0.014039186
-0.093351245 0.036251053 0.016340636 0.03474818 -0.008167707 0.023059104 -0.096748136 -0.033514645
-0.047933415 0.02374004 0.020870019 0.00982744 0.035669588 -0.008822971 -0.015170488 0.0068185963
-0.0012895871 0.0477689 0.037496194 -0.017835075 -0.052477054 -0.06314488 0.010432123 0.013983307
-0.016732365 0.01396627 0.011916305 0.03202913 0.022189196 0.027616158 -0.054777175 -0.08138348
-0.06221824 -0.06779584 -0.060290154 -0.070075735 -0.029943474 -0.072464265 -0.059361342 0.019140834
0.036293548 -0.03427882 0.028815385 -0.07970514 0.016422879 -0.07880964 0.018027307 -0.030093394
0.047741305 0.04588919 -0.037541162 -0.062800325 0.03474231 -0.060862564 -0.08569825 0.010090214
0.04990307 0.012643092 0.04662058 0.031991567 0.044075217 0.02185999 -0.06995231 -0.0036012384
0.08284053 -0.0043194504 0.055125754 0.06443592 -0.052254707 0.019553857 -0.06478747 0.01672521
0.028317174 -0.06642073 0.02308083 0.01728504 -0.06094545 0.09237125 -0.096145086 0.036514625
0.04066271 0.033427622 -0.03184045 0.018330988 0.025981344 0.045296483 0.023910632 -0.07836163
-0.069393456 0.041789353 -0.085396156 -0.04713358 0.021203099 0.0027769909 -0.048308108 0.05031104
-0.068758994 0.03519666 0.024186246 -0.010538896 0.02688783 -0.09194618 0.0198052 -0.058890056
-0.1046226 0.033148315 0.03229003 0.03030284 0.06129355 -0.106981225 -0.07788744 0.044280343
0.021595417 0.013249906 0.03989657 -0.0016820855 0.012285998 0.0053294376 0.046180878 0.013192862
0.04582751 0.033357836 -0.003981625 -0.058073096 0.028530167 -0.063415445 -0.035875153 0.016215166
-0.036498114 0.02168799 0.056297425 -0.049309332 0.03809844 -0.06576019 0.008207048 0.001913948
-0.0797024 -0.010802489 0.032373637 0.059806433 -0.043757495 -0.067306004 0.024808684 0.016858982
-0.06279005 0.049060866 0.051615857 0.0033544868 0.027433032 0.01700316 0.043008387 -0.011216698
0.023692034 0.026236746 -0.04905095 0.010832196 -0.014918109 0.016939119 0.04502729 0.0014102204
0.03311956 -0.0076706377 0.0038436514 -0.063487686 -0.045075 0.044913635 -0.07024261 0.045723867
0.020836465 -0.06726302 0.03358272 0.037942678 -0.06697548 0.020542715 -0.074049845 -0.052271746
-0.04940633 0.054208912 0.042932287 0.0725755 0.026269324 0.024666127 -0.0064146356 0.040927533
0.0154432375 -0.012514808 0.026050445 0.03118451 0.03999488 0.02307903 0.0018982877 0.046810128
-0.054616164 0.022034228 -0.08067312 0.023653615 -0.08834924 0.035176348 0.027141733 0.018388605
0.039964844 0.04940286 0.038067505 0.0019263069 0.00891994 -0.0692248 0.0080395965 0.03708338
