spkrec-xvect/cmu_us_rms_arctic-wav-arctic_b0487.npy (npy, 2176 bytes, 1 tensors)

array f4 [512]
-0.07766288 0.03420506 0.015707863 0.038227532 -0.0019907649 -0.03293071 -0.066499636 0.03583207
0.0050839987 0.017487511 -0.061544593 -0.10160931 0.06739939 0.04030926 0.037427865 0.040768858
0.005960926 0.038572017 0.010901306 -0.0077988743 0.03630061 0.035847865 -0.014814087 -0.02510405
-0.07810663 -0.008080708 -0.07810821 -0.03270575 0.041051887 0.018558627 -0.0034439908 0.0443565
0.01791659 -0.010179521 0.06004765 -0.087707125 0.041957732 0.04745999 -0.029314198 -0.06542398
0.0041275285 -0.007322944 0.039973453 0.06110994 0.022745308 -0.1220674 -0.018097825 0.013164878
-0.07395965 0.030675614 0.019030612 0.034575768 0.00624083 0.024930196 -0.09680342 -0.054877173
-0.025344253 0.031938046 0.019606885 2.349346e-05 0.03555543 -0.008089489 -0.015822139 0.012635832
0.0283899 0.044873793 0.044469077 -0.041688856 -0.06542981 -0.049126256 0.002009207 0.011755738
0.0086775925 0.010666314 0.012205503 0.0150287645 0.021361291 0.019096572 -0.067511134 -0.07923887
-0.064040385 -0.06291471 -0.051243175 -0.07221102 -0.033237867 -0.06490807 -0.035547655 0.044242393
0.01281202 -0.030798413 0.030997364 -0.080275655 0.00906669 -0.07977944 0.035781927 9.527483e-05
0.030458666 0.036947764 -0.04347676 -0.07435722 0.015492501 -0.051098228 -0.09574335 0.038288333
0.042827677 0.02345471 0.057878476 0.0372086 0.04386871 0.02997 -0.09099731 0.00065472204
0.08233135 0.003127815 0.04546299 0.062019184 -0.0860588 0.02718921 -0.05608696 0.019638149
0.010109682 -0.05209193 0.020777106 0.04371164 -0.06855355 0.04457028 -0.090351686 0.031656243
0.036213957 0.046767585 0.010229411 -0.00036604612 0.062761486 0.04278088 0.0074485554 -0.064712994
-0.038603734 -0.023020023 -0.062591605 0.0029821338 0.03127309 0.004834954 -0.014692061 0.08475933
-0.06626928 0.042439505 -0.01903602 -0.0360277 0.021166535 -0.1158677 0.024753982 -0.04599069
-0.061113097 0.043918937 0.019654492 0.019337548 0.043366954 -0.08370935 -0.09707143 0.030575048
0.010635808 -0.007927012 0.0278006 0.018107409 0.02985154 0.0061477474 0.027254043 0.023533277
0.020615483 0.035019502 0.02762343 -0.067076355 0.02785965 -0.07400545 0.0058455444 -0.006054543
-0.056803018 0.026844304 0.033249516 -0.08468891 0.030197408 -0.058187485 0.017365173 0.0239581
-0.070471734 -0.011267298 0.034442604 0.02223882 -0.06111788 -0.044872813 0.023460846 0.030652571
-0.0661647 0.02705621 -0.005627699 0.027999748 0.011612365 0.01107535 0.032119524 -0.02524926
0.015298314 0.026200041 -0.05968055 0.01037762 0.002013227 0.014487131 0.038034555 -0.0033930244
0.023760289 -0.006663247 0.0028873412 -0.061878037 -0.057358366 0.042097375 -0.05814929 0.060774665
0.029900858 -0.05503485 0.03128093 0.04200624 -0.045893643 0.023016956 -0.070855394 -0.031894095
-0.056966472 0.037468977 0.07483016 0.08282904 0.071795814 0.023235248 0.0010953156 0.030871462
0.027360672 -0.010119312 0.010592539 0.002298205 0.04623122 0.029123295 0.0027168456 0.061776854
-0.062400173 0.023957351 -0.100745626 0.02625143 -0.042163756 0.015637834 0.027215313 0.041879565
0.020021211 0.03760982 0.030735938 0.015560824 0.008655591 -0.052671 -0.007118247 0.047209524
00000000: b70d 9fbd 9b1a 0c3d c7ad 803c 7994 1c3d
00000010: 7e77 02bb 5ae2 06bd f630 88bd a6c4 123d
00000020: ac97 a63b f841 8f3c 2f16 7cbd 8b18 d0bd
00000030: b108 8a3d 531b 253d f64d 193d 3ffd 263d
00000040: df53 c33b b1fd 1d3d 649b 323c b38d ffbb
00000050: f3af 143d 36d5 123d c9b6 72bc 02a7 cdbc
00000060: 5ef6 9fbd f264 04bc 32f7 9fbd 77f6 05bd
00000070: 0626 283d 4308 983c 94b4 61bb 29af 353d
00000080: d0c5 923c 01c8 26bc 86f4 753d cb9f b3bd
00000090: dfdb 2b3d 6865 423d 5424 f0bc 02fd 85bd
000000a0: 3840 873b 4ef5 efbb 34bb 233d 6b4e 7a3d
000000b0: 5e54 ba3c 79fe f9bd e441 94bc 80b1 573c
000000c0: 2878 97bd 6d4b fb3c 16e6 9b3c 529f 0d3d
000000d0: e07f cc3b 693a cc3c df40 c6bd e3c6 60bd
000000e0: c09e cfbc 78d1 023d 9e9e a03c d213 c537
000000f0: 92a2 113d c789 04bc 6e9d 81bc 8506 4f3c
00000100: f091 e83c 95cd 373d 3525 363d efc1 2abd
00000110: 1000 86bd 9d38 49bd e6ac 033b 249b 403c
00000120: 762c 0e3c c3c1 2e3c 97f9 473c 353b 763c
00000130: e0fd ae3c 6a70 9c3c 4743 8abd fd47 a2bd
00000140: 9b27 83bd 6dd9 80bd 5de4 51bd 5fe3 93bd
00000150: 6e24 08bd 86ee 84bd 6b9a 11bd 8337 353d
00000160: 82e9 513c f44c fcbc 2fee fd3c 9067 a4bd
00000170: 748c 143c 6763 a3bd 1290 123d 49ce c738
00000180: 7484 f93c 8a56 173d b014 32bd 9948 98bd
00000190: 42d4 7d3c 604c 51bd 1715 c4bd 3ad4 1c3d
000001a0: 136c 2f3d 1824 c03c fb11 6d3d 0c68 183d
000001b0: adaf 333d a583 f53c cc5c babd a7a1 2b3a
000001c0: 579d a83d 07fc 4c3b 6637 3a3d d407 7e3d
000001d0: 993f b0bd e8bb de3c 71bb 65bd 2fe0 a03c
000001e0: 14a3 253c 595e 55bd c034 aa3c fa0a 333d
000001f0: ce65 8cbd 538f 363d 4e0a b9bd faa9 013d
00000200: 1655 143d 5e8f 3f3d 4299 273c e1e9 bfb9
00000210: 1889 803d 013b 2f3d 0313 f43b 3f88 84bd
00000220: f31e 1ebd 7d94 bcbc 0730 80bd e76f 433b
00000230: 3618 003d 896e 9e3b f8b6 70bc 4d96 ad3d
00000240: 30b8 87bd 0cd5 2d3d 6df1 9bbc c891 13bd
00000250: 7165 ad3c 0b4c edbd ddc8 ca3c bc60 3cbd
00000260: ba51 7abd 58e4 333d 7502 a13c c769 9e3c
00000270: 8ca1 313d cf6f abbd 63cd c6bd 8678 fa3c
00000280: d041 2e3c 4ce0 01bc 15be e33c fd55 943c
00000290: 388b f43c 0b73 c93b df43 df3c dcc8 c03c
000002a0: cde1 a83c 9c70 0f3d 884a e23c 545f 89bd
000002b0: ec39 e43c 2b90 97bd fb8b bf3b 3065 c6bb
000002c0: 48aa 68bd 96e8 db3c a530 083d 6171 adbd
000002d0: 8e60 f73c 0056 6ebd 6841 8e3c c743 c43c
000002e0: 7c53 90bd 799a 38bc b013 0d3d 302e b63c
000002f0: be56 7abd 8ecc 37bd f630 c03c 1a1b fb3c
00000300: 5c81 87bd fca4 dd3c 9068 b8bb ba5f e53c
00000310: ca41 3e3c 6375 353c c38f 033d 89d7 cebc
00000320: c8a5 7a3c 78a1 d63c 9873 74bd e506 2a3c
00000330: 58f0 033b 6e5b 6d3c 1fca 1b3d 815d 5ebb
00000340: f0a4 c23c 5e57 dabb 8c39 3d3b d373 7dbd
00000350: 9bf0 6abd 4c6e 2c3d f32d 6ebd dbee 783d
00000360: a5f2 f43c 396c 61bd 6f20 003d bc0e 2c3d
00000370: f9fa 3bbd 0e8e bc3c a21c 91bd 62a3 02bd
00000380: ad55 69bd 1279 193d 8e40 993d 46a2 a93d
00000390: af09 933d d957 be3c b190 8f3a 26e6 fc3c
000003a0: 7d23 e03c 79cb 25bc 548c 2d3c 7b9d 163b
000003b0: f35c 3d3d fa93 ee3c 1b0d 323b ba09 7d3d
000003c0: 5397 7fbd 3542 c43c b953 cebd 3d0d d73c
000003d0: e7b3 2cbd ea1a 803c a6f2 de3c e889 2b3d
000003e0: 8603 a43c c10c 1a3d efc9 fb3c d4f2 7e3c
000003f0: 2ed0 0d3c 8cbd 57bd 2f40 e9bb c65e 413d
