spkrec-xvect/cmu_us_rms_arctic-wav-arctic_b0175.npy (npy, 2176 bytes, 1 tensors)

array f4 [512]
-0.07360971 0.017919453 0.02718229 0.03134962 -0.0056784716 -0.036423065 -0.051398598 0.031856194
0.03438719 0.017422963 -0.044484455 -0.102094576 0.048986617 0.042707007 0.023388479 0.04583033
-0.0058840397 0.009317723 0.014768133 -0.020099463 0.039924476 0.019151662 -0.015562122 -0.026781792
-0.06500304 -0.0069140038 -0.069742315 -0.015552239 0.041928705 0.027054114 -0.0026650934 0.060865752
0.010192893 -0.0076861912 0.049875952 -0.09488676 0.047885463 0.057889506 -0.026413301 -0.06940053
-0.0013816941 -0.002111531 0.024115551 0.061791945 0.03487903 -0.12521297 -0.01776431 0.013174785
-0.07819451 0.06417968 0.008833896 0.021849675 -0.0012887971 0.013995788 -0.10249631 -0.032833062
-0.017078191 0.024608646 0.031226534 0.005081766 0.02381446 -0.008550083 -0.014156149 0.0165861
0.01798783 0.03004846 0.042934425 -0.041440308 -0.06546338 -0.052871037 0.0033206362 0.012228547
-0.008364342 0.013462677 0.02736941 0.0061715646 0.018965323 0.01601242 -0.05987889 -0.083308674
-0.06169974 -0.050156187 -0.05373854 -0.06943656 -0.031400062 -0.059265733 -0.05426401 0.075596176
0.020187953 -0.021805845 0.030978305 -0.085987695 0.018019937 -0.06702827 0.037212063 -0.017647723
0.02113433 0.040277943 -0.03155877 -0.06508412 0.014735311 -0.0494953 -0.10319699 0.031946257
0.051898163 0.043954253 0.04078925 0.049633488 0.042723276 0.011137725 -0.087694496 -0.0023219644
0.082508996 -0.018823748 0.046688825 0.06227189 -0.089366056 0.011539314 -0.05423788 0.04352748
0.009687616 -0.058172647 0.032216173 0.038971037 -0.066990525 0.073999025 -0.08127897 0.03224784
0.03493659 0.03054406 0.004195492 0.023916962 0.06642898 0.0709487 0.006638632 -0.06531412
-0.06959057 -0.027517073 -0.055504117 -0.018857714 0.0049148295 0.0048794006 -0.018773532 0.091842026
-0.06819736 0.027170327 -0.038225938 -0.021685071 0.018828548 -0.11285212 0.043028533 -0.04303126
-0.06470117 0.050337408 0.018401489 0.024100255 0.039687872 -0.057533063 -0.089583 0.0048257816
-0.008938364 -0.0029223717 0.026373424 0.025351282 0.00014749786 0.006749702 0.054480676 -0.0012256864
0.014266968 0.059237137 0.02373032 -0.07776598 0.016712882 -0.06999141 -0.018995963 -0.015082479
-0.05092045 0.016936854 0.047664136 -0.09499943 0.032562595 -0.05608553 0.017576048 0.014084164
-0.08189807 -0.010908968 0.03380453 0.058688004 -0.030620204 -0.054305866 0.016183518 0.00850383
-0.057124704 0.02953937 0.0042392546 0.0065711257 0.00062402367 -0.0005897296 0.04590373 -0.023328707
-0.0063717645 0.022705209 -0.061028954 0.007387147 0.00823657 0.019365132 0.030038778 -0.021668484
0.034485143 -0.019198986 0.0030778502 -0.078192845 -0.06826791 0.04385942 -0.055617567 0.060833514
0.030192805 -0.04723906 0.025255801 0.039058242 -0.049337033 0.024291262 -0.0725275 -0.024726607
-0.06292839 0.075822644 0.08188389 0.07973646 0.056738243 0.017708758 -0.011812805 0.0273366
0.017241511 0.014779152 0.01281378 -4.7004076e-05 0.018754357 0.024360377 0.002458121 0.059758484
-0.05945843 0.023809673 -0.10226409 0.00808147 -0.055378582 0.019651923 0.024786623 0.029323615
0.01928315 0.041245796 0.025816793 0.019669274 0.008882261 -0.052832182 -0.0041434467 0.046914645
00000000: b0c0 96bd d1cb 923c 65ad de3c 7668 003d
00000010: 7912 babb 5a30 15bd 5687 52bd a47b 023d
00000020: 95d9 0c3d 9aba 8e3c 5535 36bd f616 d1bd
00000030: 31a6 483d 8bed 2e3d 3299 bf3c 96b8 3b3d
00000040: e7ce c0bb 5da9 183c 0af6 713c a1a7 a4bc
00000050: d987 233d f2e3 9c3c 45f8 7ebc 7d65 dbbc
00000060: 5020 85bd de8e e2bb 0fd5 8ebd d1ce 7ebc
00000070: 6fbd 2b3d 97a0 dd3c d9a8 2ebb 5e4e 793d
00000080: 1800 273c 72dc fbbb ba4a 4c3d fd53 c2bd
00000090: 8c23 443d 8c1d 6d3d b560 d8bc dd21 8ebd
000000a0: f619 b5ba 9d61 0abb fa8d c53c 8d19 7d3d
000000b0: 50dd 0e3d d437 00be 7586 91bc 0edb 573c
000000c0: 7124 a0bd a370 833d 0cbc 103c 17fe b23c
000000d0: dbec a8ba 974e 653c 96e9 d1bd f67b 06bd
000000e0: 90e7 8bbc 1298 c93c cace ff3c f184 a63b
000000f0: 8b16 c33c a615 0cbc 31ef 67bc 93df 873c
00000100: 375b 933c 3028 f63c 02dc 2f3d 50bd 29bd
00000110: aa11 86bd 4d8f 58bd 089f 593b 3e5a 483c
00000120: 980a 09bc 8f92 5c3c d035 e03c d63a ca3b
00000130: 2a5d 9b3c 7b2c 833c 9143 75bd bd9d aabd
00000140: deb8 7cbd 9370 4dbd f11c 5cbd c134 8ebd
00000150: 5a9d 00bd a0c0 72bd f043 5ebd 2bd2 9a3d
00000160: 3561 a53c 2ca2 b2bc 37c6 fd3c 511a b0bd
00000170: 8c9e 933c 1e46 89bd ad6b 183d f591 90bc
00000180: e721 ad3c 7cfa 243d c543 01bd d34a 85bd
00000190: 606c 713c 95bb 4abd f258 d3bd 14da 023d
000001a0: 2b93 543d 6009 343d a112 273d 7c4c 4b3d
000001b0: 9afe 2e3d 017b 363c 2c99 b3bd 192c 18bb
000001c0: 7afa a83d 4334 9abc c83c 3f3d cf10 7f3d
000001d0: 8d05 b7bd 640f 3d3c 8a28 5ebd df49 323d
000001e0: ceb8 1e3c 7146 6ebd 1bf5 033d 18a0 1f3d
000001f0: 5432 89bd cd8c 973d 9775 a6bd 5016 043d
00000200: ab19 0f3d 8937 fa3c 567a 893b 81ed c33c
00000210: eb0b 883d 8d4d 913d e288 d93b 69c3 85bd
00000220: 8085 8ebd 7c6b e1bc 4958 63bd 7e7b 9abc
00000230: 940c a13b 61e3 9f3b f3ca 99bc ac17 bc3d
00000240: 0fab 8bbd 4e94 de3c cd92 1cbd e4a4 b1bc
00000250: 543e 9a3c 031f e7bd b03e 303d 8c41 30bd
00000260: 0c82 84bd 992e 4e3d b8be 963c e66d c53c
00000270: c08f 223d caa7 6bbd 4b77 b7bd 9721 9e3b
00000280: 3772 12bc 4385 3fbb 140d d83c 7ead cf3c
00000290: a8a9 1a39 9b2c dd3b 2127 5f3d 36a7 a0ba
000002a0: 00c0 693c a4a2 723d 1766 c23c c543 9fbd
000002b0: 74e9 883c a857 8fbd 6c9d 9bbc 811c 77bc
000002c0: f691 50bd 28bf 8a3c 783b 433d 108f c2bd
000002d0: 5b60 053d f1b9 65bd a5fb 8f3c 44c1 663c
000002e0: 2dba a7bd 87bb 32bc 9e76 0a3d d562 703d
000002f0: 39d7 fabc d46f 5ebd 4c93 843c a653 0b3c
00000300: 98fb 69bd 8dfc f13c 72e9 8a3b 9952 d73b
00000310: 8595 233a 1598 1aba 8d05 3c3d d81b bfbc
00000320: 3cca d0bb 4600 ba3c 7ff9 79bd e10f f23b
00000330: aef2 063c a0a3 9e3c e213 f63c 1b82 b1bc
00000340: 4b40 0d3d 3147 9dbc c2b5 493b 9223 a0bd
00000350: 0cd0 8bbd efa5 333d 3fcf 63bd 902c 793d
00000360: e756 f73c bf7d 41bd 41e5 ce3c 89fb 1f3d
00000370: a115 4abd 78fe c63c 4c89 94bd 748f cabc
00000380: 9ae0 80bd e748 9b3d beb2 a73d de4c a33d
00000390: 5c66 683d f511 913c 7f8a 41bc 01f1 df3c
000003a0: 123e 8d3c 4224 723c e4f0 513c 3e26 45b8
000003b0: bda2 993c 6a8f c73c 6d18 213b 50c5 743d
000003c0: af8a 73bd 810c c33c d66f d1bd 2468 043c
000003d0: a7d4 62bd 12fd a03c 510d cb3c 1438 f03c
000003e0: b2f7 9d3c 5af1 283d bd7d d33c 7521 a13c
000003f0: e786 113c 8f66 58bd c0c5 87bb 9229 403d
