spkrec-xvect/cmu_us_jmk_arctic-wav-arctic_b0533.npy (npy, 2176 bytes, 1 tensors)

array f4 [512]
-0.07122313 0.03568967 0.025608774 0.03919503 0.003494178 0.0011732987 -0.06688546 0.022748778
0.03940484 0.015498562 -0.054929063 -0.07951267 0.06184075 0.042061355 0.037624132 0.04055964
0.015387536 0.014785386 0.009032566 0.01953518 0.034387376 0.02671373 -0.0130781885 -0.052749645
-0.048987992 -0.008833537 -0.058041 -0.029864702 0.054970685 0.037640378 -0.002805224 0.04805667
0.042198364 0.023086496 0.046178345 -0.05197484 0.052647565 0.04633703 -0.0038186188 -0.06375263
0.02647519 -0.0053599332 0.01890512 0.0517255 0.023930602 -0.10396101 -0.016628815 0.010798544
-0.08108173 0.044699155 0.006768188 0.011411327 0.01450847 0.043528132 -0.09571532 -0.05226335
-0.022491394 0.018172227 0.04215194 0.014006518 0.014231661 -0.0075223935 -0.015138613 0.010480112
0.025545282 0.0072350246 0.013838534 -0.04569371 -0.064696275 -0.07411227 0.0193295 0.009903912
-0.001892381 0.010155006 0.013940439 0.02995591 0.008715642 0.013617179 -0.08213685 -0.066152014
-0.06641094 -0.06765573 -0.05405461 -0.07165573 -0.031023903 -0.058502756 -0.04281747 0.05647371
0.03398919 -0.03608496 0.030526146 -0.07494455 0.02020378 -0.08335877 0.05839974 -0.03195537
0.05309956 0.022051025 -0.035733923 -0.07516006 0.042871203 -0.058996253 -0.07798147 0.015846135
0.05813298 0.03335068 0.05352486 0.020293044 0.028525723 0.02742531 -0.09318141 -0.006950287
0.075403914 -0.0028382046 0.026572138 0.069979966 -0.0773299 0.03347279 -0.0793855 0.025420481
0.015866559 -0.04841208 0.025273122 0.030277656 -0.06527645 0.039155193 -0.052981254 0.050328378
0.0345236 0.033549167 -0.029164517 0.04044841 0.03103975 0.037531015 0.01816183 -0.055416014
-0.06302691 0.020712784 -0.07294388 -0.06987467 -0.009145559 0.004421663 -0.06316296 0.072785385
-0.05644956 0.018504031 0.01864482 -0.0056231827 -0.0020986882 -0.09162581 0.0097301155 -0.05867947
-0.0768162 0.027938174 0.0339233 0.011329959 0.044714484 -0.075345054 -0.08285859 0.038122084
0.003628853 0.011204631 0.025502197 0.018566618 0.0063651507 0.0050988654 0.034064278 0.014105032
0.03205419 0.018714605 0.023763506 -0.054216586 0.024661036 -0.06226853 -0.0347199 0.010002175
-0.050785657 0.01700811 0.039012875 -0.07392071 0.023269447 -0.05025959 0.02207957 0.03432096
-0.091413826 -0.011393956 0.02864021 0.056191523 -0.04801861 -0.06763816 0.016974902 0.02762421
-0.061062537 0.014107483 0.005007591 0.011880709 0.036014274 0.031357262 0.03641378 -0.005683931
0.04063158 0.031677037 -0.052603807 0.011625212 0.02257922 0.015044764 0.028689506 0.0039458047
0.04010903 -0.010049504 0.0034332625 -0.073507406 -0.04835426 0.042535156 -0.055764973 0.056424234
0.040623855 -0.060087606 0.06586426 0.03253997 -0.06871837 0.018165978 -0.06629052 -0.08326663
-0.05992275 0.05393023 0.045447953 0.08078853 0.028089747 0.026375188 0.014241883 0.048836388
0.030322641 0.008041346 0.030123258 -0.0007479695 0.038678966 0.028090067 0.0038022986 0.029917087
-0.07094187 0.025491668 -0.085812956 0.0056908904 -0.067251936 0.028974432 0.026041187 0.021928184
0.015680721 0.051534522 0.025924772 0.025494311 0.008471994 -0.060894582 0.014938071 0.044377346
00000000: 6fdd 91bd 552f 123d 7ec9 d13c f88a 203d
00000010: 94fe 643b 5fc9 993a 3efb 88bd a55b ba3c
00000020: f866 213d aeed 7d3c 4cfd 60bd 8ad7 a2bd
00000030: ba4c 7d3d 8748 2c3d c31b 1a3d dd21 263d
00000040: 011c 7c3c 673e 723c 54fd 133c 3e08 a03c
00000050: c7d9 0c3d c1d6 da3c e645 56bc 0310 58bd
00000060: a2a7 48bd 8aba 10bc 66bc 6dbd d2a6 f4bc
00000070: f128 613d cc2c 1a3d d9d7 37bb 12d7 443d
00000080: 31d8 2c3d e41f bd3c 8125 3d3d 92e3 54bd
00000090: f9a4 573d e6cb 3d3d cb41 7abb bd90 82bd
000000a0: 7fe2 d83c 61a2 afbb e9de 9a3c 1ede 533d
000000b0: 1c0a c43c 83e9 d4bd 2739 88bc 60ec 303c
000000c0: 2e0e a6bd 7616 373d adc7 dd3b 93f6 3a3c
000000d0: efb4 6d3c 8e4a 323d 6506 c4bd 1812 56bd
000000e0: df3f b8bc ecdd 943c 83a7 2c3d 987b 653c
000000f0: ea2b 693c 697e f6bb f207 78bc c7b4 2b3c
00000100: 5744 d13c c913 ed3b 05bb 623c 5429 3bbd
00000110: 7b7f 84bd 2cc8 97bd e658 9e3c 0544 223c
00000120: c509 f8ba 2f61 263c 7066 643c 1966 f53c
00000130: 0dcc 0e3c 971a 5f3c 5d37 a8bd b57a 87bd
00000140: 7502 88bd 168f 8abd 5e68 5dbd 3dc0 92bd
00000150: d725 febc 96a0 6fbd 5f61 2fbd fa50 673d
00000160: 4038 0b3d d3cd 13bd f811 fa3c 877c 99bd
00000170: 6682 a53c 01b8 aabd 9134 6f3d a2e3 02bd
00000180: ed7e 593d 5aa4 b43c bc5d 12bd 84ed 99bd
00000190: b799 2f3d 0ea6 71bd c0b4 9fbd c1cf 813c
000001a0: d91c 6e3d b99a 083d e23c 5b3d 993d a63c
000001b0: c7ae e93c 0bab e03c e5d5 bebd 3cbf e3bb
000001c0: 5e6d 9a3d 2c01 3abb d0ad d93c a851 8f3d
000001d0: 235f 9ebd c41a 093d dd94 a2bd 9d3e d03c
000001e0: 96fa 813c bf4b 46bd 9409 cf3c d908 f83c
000001f0: a9af 85bd 3261 203d df02 59bd 2125 4e3d
00000200: 9e68 0d3d da6a 093d 6dea eebc 3bad 253d
00000210: 1347 fe3c 1fba 193d 1ec8 943c e7fb 62bd
00000220: 4114 81bd dbad a93c 9a63 95bd 731a 8fbd
00000230: 41d7 15bc 99e3 903b 955b 81bd 8110 953d
00000240: a737 67bd c495 973c 06bd 983c ad42 b8bb
00000250: 258a 09bb 50a6 bbbd 106b 1f3c e259 70bd
00000260: d051 9dbd 99de e43c 29f3 0a3d 4ba1 393c
00000270: 8926 373d 824e 9abd c4b1 a9bd e725 1c3d
00000280: 0dd2 6d3b a193 373c fce9 d03c 0519 983c
00000290: c192 d03b 6214 a73b fc86 0b3d cb18 673c
000002a0: 414b 033d 5f4f 993c afab c23c 3612 5ebd
000002b0: f105 ca3c 490d 7fbd 7436 0ebd 2ae0 233c
000002c0: 9f04 50bd 9854 8b3c f7cb 1f3d be63 97bd
000002d0: 919f be3c 00dd 4dbd 37e0 b43c 2394 0c3d
000002e0: 2c37 bbbd b7ad 3abc e09e ea3c 1529 663d
000002f0: 29af 44bd e085 8abd f30e 8b3c 2b4c e23c
00000300: b61c 7abd 1323 673c b816 a43b 4ea7 423c
00000310: b483 133d 7970 003d 9e26 153d 4540 babb
00000320: 4d6d 263d c8bf 013d 1777 57bd ac77 3e3c
00000330: 0ef8 b83c 507e 763c 4106 eb3c cf4b 813b
00000340: 5e49 243d ada6 24bc 9600 613b 0d8b 96bd
00000350: 1e0f 46bd 5839 2e3d d069 64bd 191d 673d
00000360: 3365 263d 6c1e 76bd d7e3 863d a248 053d
00000370: 37bc 8cbd d1d0 943c 53c3 87bd b287 aabd
00000380: 8f71 75bd f2e5 5c3d a227 3a3d 7574 a53d
00000390: 781c e63c c710 d83c c956 693c aa08 483d
000003a0: 3067 f83c dabf 033c 0dc5 f63c 6213 44ba
000003b0: d66d 1e3d 241d e63c fc2f 793b ae14 f53c
000003c0: f949 91bd e7d3 d03c b4be afbd a67a ba3b
000003d0: 62bb 89bd ca5b ed3c 5454 d53c bca2 b33c
000003e0: db74 803c dd15 533d 3060 d43c 72d9 d03c
000003f0: 1ece 0a3c 996c 79bd d0be 743c 05c5 353d
